Trained Model/6-6 3-network.pt (torch_old, 461257 bytes, 154 tensors)

conv.0.weight f4 [4]
1.0645319 1.1445245 0.83920777 0.92428553
00000000: 9542 883f c77f 923f 52d6 563f fa9d 6c3f

conv.0.bias f4 [4]
-0.0990985 0.03734345 -0.3692363 -0.35962075
00000000: 28f4 cabd 72f5 183d 8a0c bdbe 3620 b8be

conv.0.running_mean f4 [4]
0.03074256 0.043688353 0.011980062 0.02039348
00000000: d2d7 fb3c 8ff2 323d 0648 443c 3a10 a73c

conv.0.running_var f4 [4]
0.029807843 0.041796494 0.011841212 0.01998459
00000000: 942f f43c cd32 2b3d a501 423c b9b6 a33c

conv.1.weight f4 [32, 4, 1, 1]
0.06100002 0.54032415 -0.07469715 -0.571436 -0.28635728 0.47799525 0.3277472 -0.48686206
0.23397835 -0.25228348 0.29426378 -0.21380611 -0.6821587 0.09746433 -0.6055376 -0.0760599
0.67949283 -0.36160603 0.1134403 0.17885493 0.59549475 0.31115496 0.011532147 -0.29159522
0.093701355 0.5111404 -0.8947299 -0.23634613 -0.009793636 -0.6158473 -0.71855414 -0.5048269
0.2774099 -0.38668475 0.062197365 -0.35367337 -0.8184256 -0.5623501 -0.82402235 -0.7391975
0.016413862 -1.1302828 -0.07139158 -1.2196926 -0.4613332 0.62013036 -0.10336154 0.116233595
0.4346739 -0.31327215 -0.07251425 -0.11776842 -0.5275127 0.34620753 -0.0069175987 0.18255651
0.3049057 0.2220632 -0.642797 -0.6389829 0.42549983 0.4526332 0.14569063 -0.5969555
0.07580896 -0.1620516 -0.144959 0.33112994 0.50463396 0.1070357 -0.39346957 0.28858617
-0.15275253 -0.06980579 -0.34551483 0.25060412 0.61497694 -0.61544496 0.10186243 -0.60950404
-0.02341007 -0.37568593 0.23503025 -0.44792202 -0.030707622 0.5998238 -0.8855627 0.18019833
0.041058604 0.4754484 0.41652176 -0.5820665 -0.02333603 -0.24688543 0.29567525 -0.21928632
0.38735405 -0.3032058 -0.35424882 0.109513044 -0.49369365 0.005795494 0.50334287 0.32053316
-0.43877125 -0.041541565 -0.5177844 0.2184825 0.4811622 -0.6095224 0.071189284 -0.11614171
-0.58978766 0.65853626 -0.52649283 0.21493883 0.5666815 -0.43053603 -0.022838386 0.1640823
-0.5666121 0.45921585 -0.4380838 0.31393793 0.17389181 0.3488669 -1.1614597 0.08643111
00000000: 28db 793d af52 0a3f d2fa 98bd a149 12bf
00000010: 6c9d 92be cbbb f43e 7bce a73e fc45 f9be
00000020: 0598 6f3e 4d2b 81be bea9 963e fdef 5abe
00000030: f4a1 2ebf 619b c73d 8304 1bbf 4bc5 9bbd
00000040: 3ef3 2d3f 6d24 b9be 6353 e83d bf25 373e
00000050: 5872 183f b44f 9f3e 55f1 3c3c f84b 95be
00000060: 7fe6 bf3d 19da 023f 050d 65bf b804 72be
00000070: 7d75 20bc 2ba8 1dbf 2af3 37bf 563c 01bf
00000080: ac08 8e3e 8bfb c5be aac2 7e3d ad14 b5be
00000090: 5784 51bf 2df6 0fbf 21f3 52bf 0c3c 3dbf
000000a0: 5d76 863c 1bad 90bf c035 92bd e31e 9cbf
000000b0: dd33 ecbe ddc0 1e3f 37af d3bd e10b ee3d
000000c0: 948d de3e 3565 a0be 5a82 94bd 9230 f1bd
000000d0: 130b 07bf 1d42 b13e 06ad e2bb 18f0 3a3e
000000e0: 9a1c 9c3e 8964 633e 588e 24bf 6294 23bf
000000f0: 1ddb d93e 8abf e73e ed2f 153e 13d2 18bf
00000100: ba41 9b3d dbf0 25be 2270 14be dd89 a93e
00000110: b12f 013f 8835 db3d d874 c9be 91c1 933e
00000120: 296b 1cbe 57f6 8ebd 52e7 b0be 2f4f 803e
00000130: 216f 1d3f cd8d 1dbf 409d d03d 7508 1cbf
00000140: 7ac6 bfbc e859 c0be c5ab 703e 0956 e5be
00000150: 8d8e fbbc 0d8e 193f 3db4 62bf e985 383e
00000160: 112d 283d f96d f33e 5742 d53e 4f02 15bf
00000170: 342b bfbc 89cf 7cbe bf62 973e 988c 60be
00000180: 4553 c63e ca3d 9bbe 1a60 b5be 6048 e03d
00000190: 6ac5 fcbe 21e8 bd3b 14db 003f ec1c a43e
000001a0: a0a6 e0be 7d27 2abd 858d 04bf e0b9 5f3e
000001b0: e45a f63e a909 1cbf b0cb 913d b4db edbd
000001c0: 53fc 16bf d595 283f 3cc8 06bf ed18 5c3e
000001d0: 0a12 113f 386f dcbe 9117 bbbc 3105 283e
000001e0: 7e0d 11bf 571e eb3e 854c e0be 79bc a03e
000001f0: b210 323e af9e b23e b6aa 94bf cb02 b13d

conv.1.bias f4 [32]
0.009991568 0.14497165 -0.2568107 0.9230168 -0.16718051 0.35026878 0.921275 0.47463608
0.018786117 0.15911634 1.2465924 -0.019438324 -0.1293201 -0.03837613 0.62006915 0.15987667
-0.21370606 -0.5399512 -0.3410076 0.6603572 -0.24978796 1.0983783 0.5660604 -0.114704914
-0.3322919 -0.15438345 -0.35725784 0.1810098 0.2892685 0.41515177 0.011365192 1.3215003
00000000: acb3 233c 7373 143e b17c 83be d44a 6c3f
00000010: 5e31 2bbe 6e56 b33e aed8 6b3f 8003 f33e
00000020: 58e5 993c 65ef 223e 5790 9f3f 1f3d 9fbc
00000030: 7d6c 04be 4a30 1dbd dabc 1e3f b6b6 233e
00000040: c3d5 5abe 3e3a 0abf 8c98 aebe 2b0d 293f
00000050: 6ac8 7fbe a997 8c3f 56e9 103f 69ea eabd
00000060: 2a22 aabe b216 1ebe 80ea b6be a25a 393e
00000070: 001b 943e c68e d43e 1235 3a3c ec26 a93f

dense.0.denselayer1.norm1.weight f4 [32]
1.1251254 0.974866 0.8658091 1.0630074 1.0344324 1.2808046 1.0653716 0.9018734
1.0279691 0.8020184 0.81073415 1.0179356 1.0013294 0.87515604 0.9326209 0.9944668
0.92695457 0.94718736 1.2189819 1.120255 0.79413277 1.0203168 0.9651583 0.9287062
1.0445006 1.0799217 1.0834284 1.0095092 1.038926 1.29784 0.8558175 0.76572824
00000000: 1c04 903f d190 793f aaa5 5d3f a010 883f
00000010: 4868 843f 68f1 a33f 195e 883f 2de1 663f
00000020: 7e94 833f 1451 4d3f 468c 4f3f b74b 823f
00000030: 902b 803f 3a0a 603f 3ec0 6e3f 6095 7e3f
00000040: e54c 6d3f df7a 723f 9907 9c3f 8464 8f3f
00000050: 494c 4b3f be99 823f 9d14 773f b1bf 6d3f
00000060: 32b2 853f e03a 8a3f c8ad 8a3f 9937 813f
00000070: 87fb 843f 9f1f a63f db16 5b3f c406 443f

dense.0.denselayer1.norm1.bias f4 [32]
0.081676975 -0.046003643 0.053152148 0.111866094 0.026729409 0.101632774 -0.05177139 -0.06726636
0.119637005 -0.21569127 0.05292783 0.0019466124 0.09065341 -0.09563343 -0.041519042 0.08965355
-0.09660026 -0.022247864 0.16933888 0.20495541 -0.22210017 -0.039459225 0.20799205 -0.023468744
0.209083 -0.149041 0.048817247 0.097815454 0.065420814 0.25151044 -0.11192282 -0.17403057
00000000: 4246 a73d 516e 3cbd 11b6 593d 0d1a e53d
00000010: a2f7 da3c d824 d03d 3d0e 54bd f2c2 89bd
00000020: 3f04 f53d 2cde 5cbe daca 583d 7925 ff3a
00000030: 7fa8 b93d 76db c3bd df0f 2abd 489c b73d
00000040: 5bd6 c5bd 2741 b6bc 2c67 2d3e d5df 513e
00000050: 3a6e 63be ff9f 21bd defb 543e 8641 c0bc
00000060: db19 563e 349e 18be 98f4 473d 7853 c83d
00000070: 59fb 853d fac5 803e cb37 e5bd 1235 32be

dense.0.denselayer1.norm1.running_mean f4 [32]
0.26935348 0.2813303 0.06216346 1.3876034 0.12594457 0.40332547 1.4081366 1.118546
0.21211268 1.1617646 2.013497 0.16582209 0.07282897 0.10689237 1.1290995 0.31852347
0.022788975 0.08284308 0.020582084 0.95030504 0.019305635 1.4548666 0.64679503 0.024505725
0.039726403 0.040168308 0.022731818 0.28001368 0.63580716 0.3624022 0.27580032 1.7893018
00000000: b3e8 893e 860a 903e 1d9f 7e3d fd9c b13f
00000010: 9df7 003e ad80 ce3e d23d b43f 842c 8f3f
00000020: 1134 593e b4b4 943f 23dd 0040 44cd 293e
00000030: 5b27 953d 63ea da3d 5586 903f 8215 a33e
00000040: f2af ba3c a2a9 a93d c29b a83c 3147 733f
00000050: da26 9e3c 1239 ba3f 5c94 253f 3bc0 c83c
00000060: 27b8 223d 8687 243d 1438 ba3c f45d 8f3e
00000070: 42c4 223f c88c b93e b335 8d3e d707 e53f

dense.0.denselayer1.norm1.running_var f4 [32]
0.212459 0.17191543 0.15976411 0.06790292 0.50711733 0.4720244 0.2460612 0.07396786
0.11084769 0.10886382 0.18807778 0.60908276 0.16993445 0.2660159 0.14080013 0.42621404
0.019106228 0.17306955 0.020492475 0.5458891 0.030896422 0.6795682 0.3074128 0.049795076
0.08278043 0.061910428 0.024937393 0.30680203 0.8204387 0.3562928 0.56726754 0.2655882
00000000: da8e 593e 990a 303e 3499 233e b010 8b3d
00000010: 71d2 013f 2fad f13e 78f7 7b3e 767c 973d
00000020: 1d04 e33d fff3 de3d 7697 403e d9ec 1b3f
00000030: 4c03 2e3e 3c33 883e e92d 103e ba38 da3e
00000040: aa84 9c3c 2539 313e d6df a73c 63bf 0b3f
00000050: 7e1a fd3c 2ef8 2d3f 3665 9d3e ecf5 4b3d
00000060: c988 a93d ca95 7d3d 8149 cc3c 2815 9d3e
00000070: 4508 523f 036c b63e 7238 113f 2dfb 873e

dense.0.denselayer1.conv1.weight f4 [48, 32, 1, 1]
-0.046770573 -0.11560909 -0.0004905658 -0.2090122 -0.08629557 -0.18224752 -0.3623333 0.00051537046
-0.19117486 0.17045167 -0.08189122 -0.33640733 -0.14644703 -0.18562822 -0.014011717 -0.24042095
-0.14419542 0.026661607 -0.12687019 -0.1916539 0.045317147 -0.33350727 -0.15827458 0.028742028
-0.097225346 -0.16508408 0.007588316 -0.034801934 -0.2517449 -0.096159115 0.00761096 -0.18751436
-0.2032131 0.16919515 0.7363192 -0.07924693 0.18576604 0.06813666 -0.15906829 0.110696256
0.24667937 -0.08442726 -0.12944107 -0.07539504 -0.041739795 -0.17838465 -0.11402041 0.021168603
-0.010056963 0.0728861 -0.09550631 0.14369044 0.26506984 0.06420388 0.1682282 0.33497882
0.041530434 0.13972884 0.16281429 0.20908178 0.0030317267 -0.07840075 -0.0525484 0.018819826
0.11613785 -0.06305222 -0.09195271 -0.14928763 0.25115144 0.1927448 -0.04437227 0.3166074
0.074218415 -0.045216158 0.25118273 0.03131124 0.109439164 -0.08455348 0.38771218 0.1981392
0.107506 0.13286407 -0.07952808 0.18276496 -0.18480757 -0.24731317 -0.05867477 -0.08179014
0.444888 0.20839605 -0.049660463 0.018249413 -0.16019927 0.2756052 -0.05862075 0.19083029
-0.12105564 -0.15401228 0.06536708 -0.37088156 0.17741111 0.10163496 -0.20214653 0.022810053
0.008181899 -0.08609596 0.0662568 -0.1953257 0.10098763 -0.281266 0.029208073 -0.031939637
-0.0912939 0.001147088 -0.036687993 0.20011526 0.0116972625 -0.34278202 -0.20085518 -0.10190622
0.20044206 0.11171889 0.13640387 -0.040590685 -0.07560313 0.17153452 -0.07512173 0.073575385
-0.08410737 -0.15749224 0.042989824 -0.11713818 0.14113697 -0.1945564 0.12590271 0.114332005
0.0064870785 -0.034068443 -0.13386273 0.16530809 -0.21013185 0.3276424 -0.011555939 -0.14249294
0.39308557 0.14533927 0.6571684 -0.23292021 -0.058046848 0.2271044 -0.17910434 0.13126847
-0.21143913 0.4743525 0.48644537 0.019786412 -0.06467424 0.07235532 0.28690848 0.1845653
-0.07305753 0.17315154 -0.12991463 0.30843732 -0.08999802 -0.020886334 0.001125222 -0.118250415
-0.120525576 -0.17679307 -0.016777469 0.73160404 -0.16440548 0.24598321 0.22542036 0.19462247
0.2120669 -0.095201954 -0.113832176 0.029338174 0.16593471 0.59992963 0.1496075 0.014154598
-0.0038765925 0.07163058 0.18267865 0.032982104 0.5893346 -0.12080052 0.1904696 0.45561
0.0038881607 -0.08666047 -0.29714411 0.11786125 -0.37584513 -0.18113528 -0.077051744 -0.32951173
-0.42368287 0.088952065 -0.007891985 -0.0032964284 -0.46029586 0.074395046 0.0050728666 -0.29470438
0.14502315 0.08475832 0.18320905 -0.254606 -0.13673073 -0.040240474 -0.012620873 -0.19192298
-0.237003 -0.13452752 0.07132146 -0.4693546 -0.10295226 -0.24603663 -0.12943152 0.03224112
0.24735287 0.22360766 -0.100731775 0.41294768 -0.004029051 0.101156965 0.50130683 0.006639411
-0.028294109 -0.07288823 -0.32094648 0.31873664 0.032778207 0.22568975 0.0213246 0.017875673
-0.012115466 0.055056766 0.09050186 0.014333189 0.062912606 0.12449186 0.14335826 -0.09657417
-0.1522139 -0.19903754 0.12870222 -0.026867554 0.1593897 -0.037395723 0.057254385 0.30015892
00000000: 8092 3fbd 75c4 ecbd 5099 00ba 4b07 56be
00000010: bbbb b0bd 189f 3abe c083 b9be ed19 073a
00000020: 58c3 43be e28a 2e3e 95b6 a7bd 953d acbe
00000030: 36f6 15be 5315 3ebe 6791 65bc e930 76be
00000040: f7a7 13be 7169 da3c 42ea 01be ec40 44be
00000050: 799e 393d 77c1 aabe bb12 22be 6774 eb3c
00000060: 151e c7bd cd0b 29be 69a7 f83b 798c 0ebd
00000070: b5e4 80be 12ef c4bd 5c65 f93b c403 40be
00000080: 1817 50be 7e41 2d3e 6a7f 3c3f 374c a2bd
00000090: 7439 3e3e 3c8b 8b3d cce2 22be b8b4 e23d
000000a0: 8499 7c3e 33e8 acbd 338c 04be b768 9abd
000000b0: 59f7 2abd 77aa 36be 8883 e9bd c769 ad3c
000000c0: f6c5 24bc 4f45 953d d098 c3bd 9623 133e
000000d0: 3cb7 873e 537d 833d 0344 2c3e 5882 ab3e
000000e0: d11b 2a3d 1415 0f3e cab8 263e 8919 563e
000000f0: efaf 463b 9390 a0bd fe3c 57bd 092c 9a3c
00000100: aed9 ed3d 8621 81bd b451 bcbd dbde 18be
00000110: ec96 803e e55e 453e b3bf 35bd 5d1a a23e
00000120: d3ff 973d 9434 39bd 069b 803e 3740 003d
00000130: a421 e03d 602a adbd 3682 c63e 01e5 4a3e
00000140: 1b2c dc3d 850d 083e 9edf a2bd bd26 3b3e
00000150: 323e 3dbe aa3f 7dbe f554 70bd 9781 a7bd
00000160: 5cc8 e33e c665 553e c568 4bbd cb7f 953c
00000170: 470b 24be 201c 8d3e 501c 70bd 0469 433e
00000180: 05ec f7bd 65b5 1dbe 2ddf 853d 30e4 bdbe
00000190: 42ab 353e fd25 d03d 80ff 4ebe 26dc ba3c
000001a0: 5f0d 063c 1453 b0bd a5b1 873d 7603 48be
000001b0: 9ad2 ce3d 1902 90be c545 ef3c 23d3 02bd
000001c0: 4cf8 babd e359 963a 2646 16bd 04eb 4c3e
000001d0: e0a5 3f3c 2081 afbe fbac 4dbe 35b4 d0bd
000001e0: af40 4d3e e0cc e43d 75ad 0b3e 6b42 26bd
000001f0: d0d5 9abd bfa6 2f3e 6cd9 99bd b1ae 963d
00000200: 7c40 acbd a545 21be 1916 303d 24e6 efbd
00000210: 3686 103e cb39 47be a4ec 003e e626 ea3d
00000220: 8f91 d43b 5a8b 0bbd 5013 09be 8646 293e
00000230: ce2c 57be bfc0 a73e 1f55 3dbc abe9 11be
00000240: 8342 c93e d1d3 143e 303c 283f a382 6ebe
00000250: 88c2 6dbd 0e8e 683e 2167 37be 3e6b 063e
00000260: 8083 58be 55de f23e 5e0f f93e 1d17 a23c
00000270: ee73 84bd 072f 943d abe5 923e b0fe 3c3e
00000280: 309f 95bd a34e 313e 5708 05be 7feb 9d3e
00000290: e250 b8bd d119 abbc 2f7c 933a 462d f2bd
000002a0: 1dd6 f6bd 3e09 35be e770 89bc 674a 3b3f
000002b0: e959 28be 06e3 7b3e 98d4 663e 1d4b 473e
000002c0: 1128 593e 3ef9 c2bd d820 e9bd 9c56 f03c
000002d0: caea 293e fd94 193f b532 193e b0e8 673c
000002e0: 6e0e 7ebb 0eb3 923d 1d10 3b3e 3e18 073d
000002f0: a2de 163f 4366 f7bd 760a 433e b745 e93e
00000300: 83d0 7e3b 0b7b b1bd 4623 98be 3d61 f13d
00000310: c66e c0be 877b 39be 4ecd 9dbd c3b5 a8be
00000320: f6ec d8be 802c b63d 624d 01bc e408 58bb
00000330: e6ab ebbe 6e5c 983d 4a3a a63b 7ee3 96be
00000340: f380 143e c595 ad3d 279b 3b3e b85b 82be
00000350: 2403 0cbe 32d3 24bd c7c7 4ebc 7587 44be
00000360: eab0 72be 95c1 09be fc10 923d 3f4f f0be
00000370: a2d8 d2bd 07f1 7bbe b289 04be 440f 043d
00000380: 124a 7d3e 68f9 643e 764c cebd e16d d33e
00000390: 2106 84bb 622b cf3d a555 003f 6b8f d93b
000003a0: 0cc9 e7bc 6d46 95bd 1953 a4be 7331 a33e
000003b0: 7142 063d 371b 673e edb0 ae3c 0170 923c
000003c0: f37f 46bc 3483 613d 0a59 b93d c1d5 6a3c
000003d0: 53d8 803d 97f5 fe3d 82cc 123e aec8 c5bd
000003e0: f6dd 1bbe 7fd0 4bbe 84ca 033e 5819 dcbc
000003f0: 0e37 233e 422c 19bd 9383 6a3d 6eae 993e

dense.0.denselayer1.norm2.weight f4 [48]
0.9110107 0.82483906 0.8169913 0.5751305 1.0310947 0.89226115 0.70519894 0.76866364
0.71103257 0.70705634 1.062158 1.1436276 0.97367066 1.112789 0.95323837 0.6938472
0.6660709 1.0909117 0.8910607 0.95419466 1.1015692 0.74708956 0.7723896 0.88674206
1.146239 1.0411606 1.2039995 1.073439 1.1383432 1.1063083 0.9185279 1.0369623
1.1485845 1.2780366 1.0047086 1.0441686 1.1653883 1.0733563 0.71083385 0.6688512
1.15003 1.0260936 1.1331193 1.0025561 1.0807225 0.8511611 1.1540705 1.1995425
00000000: ff37 693f a728 533f 5826 513f c13b 133f
00000010: e9fa 833f 3a6b 643f eb87 343f 24c7 443f
00000020: 3b06 363f a501 353f cbf4 873f 6462 923f
00000030: 7b42 793f df6f 8e3f 6e07 743f f89f 313f
00000040: 9f83 2a3f ffa2 8b3f 8e1c 643f 1a46 743f
00000050: 3800 8d3f 4341 3f3f 53bb 453f 8701 633f
00000060: f6b7 923f c044 853f a81c 9a3f 7366 893f
00000070: 3bb5 913f 839b 8d3f a524 6b3f 2ebb 843f
00000080: d104 933f b496 a33f 4b9a 803f 51a7 853f
00000090: 722b 953f bd63 893f 35f9 353f d539 2b3f
000000a0: 2f34 933f 0957 833f 0e0a 913f c253 803f
000000b0: 1d55 8a3f b2e5 593f 95b8 933f 9c8a 993f

dense.0.denselayer1.norm2.bias f4 [48]
0.027383193 -0.06344936 -0.15255775 -0.22359914 -0.06549233 -0.03662929 -0.044284914 -0.13186058
-0.17831117 -0.12916254 0.13944033 0.23555467 -0.0139339715 0.21312727 0.014024964 -0.25111902
-0.28495073 0.19631581 0.06028964 -0.00091374223 -0.038610917 -0.028569074 -0.120827 0.051740967
0.23967083 -0.027124535 0.16226768 0.16708773 0.23078586 0.20510395 -0.020811234 -0.05986337
0.2450827 0.17253804 0.020823685 -0.06803167 0.13237719 0.28843656 -0.07867312 -0.15447274
0.24504559 0.03600263 0.23797148 0.11391781 0.15779057 -0.012038217 0.24678743 0.16244423
00000000: b852 e03c bdf1 81bd 1938 1cbe 2cf7 64be
00000010: d820 86bd 9808 16bd 1964 35bd 7606 07be
00000020: 3497 36be 2f43 04be 72c9 0e3e 3e35 713e
00000030: 504b 64bc 093e 5a3e f6c8 653c ac92 80be
00000040: 10e5 91be 0307 493e 45f2 763d 3488 6fba
00000050: 7b26 1ebd b109 eabc 2574 f7bd 56ee 533d
00000060: 456c 753e 4634 debc 8029 263e 0c19 2b3e
00000070: 2153 6c3e c506 523e 527c aabc 4b33 75bd
00000080: f6f6 7a3e d0ad 303e 6f96 aa3c 3054 8bbd
00000090: e38d 073e f5ad 933e 5f1f a1bd 1a2e 1ebe
000000a0: 3bed 7a3e 7e77 133d ccae 733e be4d e93d
000000b0: da93 213e f13b 45bc d8b5 7c3e c857 263e

dense.0.denselayer1.norm2.running_mean f4 [48]
-0.80547297 0.253627 0.446784 -0.16562092 0.28254172 0.66907847 -0.7017122 0.4688258
-0.67573035 -0.8689732 0.64782745 -0.7898588 0.38662806 -0.81226015 0.14583084 -0.7268662
-0.33646867 0.6398056 0.45855296 0.5480149 0.39423612 0.7056296 -0.8282759 -0.44056317
-0.7323703 0.4790878 0.6414278 -0.816192 -0.7984131 -0.69835204 0.60071737 0.1889821
-0.7604544 0.6546033 0.41076246 0.35746458 0.6682283 -0.10971132 0.5696542 -0.7587117
-0.74654263 0.5530607 -0.6320483 -0.76876634 0.697907 0.35806966 -0.8002427 0.8133437
00000000: 7a33 4ebf 66db 813e dfc0 e43e 8898 29be
00000010: 4fa9 903e ba48 2b3f 69a3 33bf ef09 f03e
00000020: aafc 2cbf 0775 5ebf 05d8 253f 3034 4abf
00000030: 1df4 c53e 48f0 4fbf ae54 153e e713 3abf
00000040: 9f45 acbe 4dca 233f 74c7 ea3e b44a 0c3f
00000050: 51d9 c93e 24a4 343f e409 54bf 7f91 e1be
00000060: 9f7c 3bbf ff4a f53e 9d34 243f f5f1 50bf
00000070: cd64 4cbf 33c7 32bf 9dc8 193f 8684 413e
00000080: 24ad 42bf 1594 273f 754f d23e 9905 b73e
00000090: 0311 2b3f 54b0 e0bd dcd4 113f ee3a 42bf
000000a0: 6b1d 3fbf 6395 0d3f ebcd 21bf dfcd 44bf
000000b0: 08aa 323f e854 b73e b5dc 4cbf 4b37 503f

dense.0.denselayer1.norm2.running_var f4 [48]
6.3805017 3.867769 3.8578427 2.612631 9.602501 9.192451 11.281819 4.509728
8.915654 16.966934 11.388822 6.6148915 3.1988206 5.8647738 4.1609635 7.504701
2.7497718 8.903711 4.4260964 9.589215 4.0339026 9.91398 10.645595 4.850755
5.946643 4.25835 10.745232 6.0180593 6.6825914 5.633367 10.18399 5.7964354
5.4266596 11.042516 5.4153557 7.081819 11.0707245 3.0206218 5.967306 9.860852
5.8369074 7.786602 4.96107 5.9245057 12.179439 8.091942 5.829637 18.149364
00000000: 122d cc40 8789 7740 e5e6 7640 5935 2740
00000010: d8a3 1941 4714 1341 5582 3441 b14f 9040
00000020: 85a6 0e41 48bc 8741 9d38 3641 31ad d340
00000030: 7ab9 4c40 3aac bb40 9d26 8540 8326 f040
00000040: 43fc 2f40 9a75 0e41 95a2 8d40 6d6d 1941
00000050: bb15 8140 a99f 1e41 5b54 2a41 6339 9b40
00000060: e64a be40 6744 8840 78ec 2b41 f193 c040
00000070: cad7 d540 8b44 b440 9ff1 2241 667c b940
00000080: 32a7 ad40 25ae 3041 984a ad40 439e e240
00000090: b021 3141 de51 4140 2cf4 be40 0dc6 1d41
000000a0: f2c7 ba40 d82b f940 16c1 9e40 8d95 bd40
000000b0: fbde 4241 9878 0141 638c ba40 e631 9141

dense.0.denselayer1.conv2.weight f4 [12, 48, 3, 3]
-0.01609581 0.05480489 -0.1152555 0.0018221574 0.030610887 0.0022046047 -0.14687374 0.03950723
-0.17122877 0.018675312 0.1437013 0.2540879 0.02798122 -0.06219158 -0.03595248 0.13972285
0.12716785 0.22047204 0.10959884 0.062584266 -0.024690373 0.16850267 0.14156869 0.11945432
0.05264186 0.14126138 -0.0065683248 0.12264448 0.0900507 -0.016657326 0.19309188 0.08710324
0.13563956 0.026672237 0.17350465 -0.030340755 -0.25681922 0.016965827 -0.39155784 0.008378936
-0.11281688 -0.005744963 -0.39582437 -0.031868856 -0.14762758 0.015976006 -0.056475934 -0.096262135
-0.067683145 -0.011330305 -0.1704153 -0.10928964 -0.12050687 0.02606832 -0.14484806 0.045682043
-0.2876358 0.050624654 0.060629778 -0.003105641 -0.29084983 -0.0110234525 -0.1438144 0.02644153
-0.020096553 0.02743927 -0.031953722 0.014164547 -0.27004704 -0.024214957 -0.15995386 0.06536234
0.02712221 0.103885464 0.18704021 -0.016158896 -0.1867068 -0.033168055 0.08123343 0.06501029
0.13249123 -0.011844382 -0.031823877 -0.043804273 0.04643481 0.1366351 0.042583372 -0.13614891
0.10387345 -0.095984474 0.049399972 0.11043529 0.239314 0.14590561 0.023136716 0.07963626
0.19516326 0.1196464 0.094054334 -0.11564424 0.05438402 -0.18848726 -0.116091244 0.015936762
0.004009097 -0.2570252 -0.02093172 -0.24433453 0.2718681 -0.011043902 0.10742101 0.019056065
0.1436846 -0.22678868 0.21218939 -0.050220978 0.098338015 -0.16376004 -0.014956594 -0.14971872
-0.1410335 0.02617768 -0.006729648 -0.20144139 -0.00285842 -0.22175916 0.05345469 0.09434924
0.23590809 0.09996306 -0.05523563 0.023374215 0.14771697 0.11572759 0.19728513 0.08211062
0.020410188 -0.024508467 0.03386798 -0.03768662 -0.009493414 0.064647004 0.0099297445 0.022830999
-0.0037259287 0.10729322 -0.019498821 0.05401876 -0.11839922 -0.0022338661 -0.08766917 0.03416936
0.056324236 0.16731864 0.13646248 0.2808464 0.143439 0.08060049 -0.0704373 0.20938335
0.09441627 0.12782097 0.18214872 0.069852464 0.24188714 0.08109071 -0.071530126 -0.15157081
0.24417895 -0.026512068 0.18242207 -0.07410392 -0.038392425 -0.13829425 -0.07315282 -0.01453276
-0.17109564 -0.13125874 -0.13516982 -0.049370997 0.21320945 -0.08769117 0.16552036 -0.05228522
0.10023485 -0.289231 0.15153466 -0.14999615 0.1189441 0.14144164 0.07316108 0.2572296
0.0969993 0.050293338 -0.14154854 0.19968632 0.0133528495 0.17290986 -0.03980632 0.13212289
-0.029109795 0.039006338 0.08152355 0.06195823 -0.061905257 0.09491211 -0.09068975 -0.2517493
0.053325072 -0.37441224 0.023642743 -0.040478278 -0.05121332 -0.42398942 0.0735777 -0.14494674
-0.12962195 -0.016656274 -0.23861237 -0.07430167 -0.018557953 0.012254245 -0.21887304 0.052232176
-0.21370713 0.19905557 -0.11548435 0.1717946 -0.075359255 0.06025092 -0.3092705 0.16553327
-0.11744396 0.12989591 0.10653392 0.15116219 0.18355368 0.20743787 0.085575685 0.094405815
0.16725539 0.13044308 0.08679958 -0.09162745 -0.028196836 -0.21665773 -0.052642092 0.019801851
-0.035687555 -0.15817899 0.05134093 -0.2002285 -0.118650876 -0.03956968 -0.229813 -0.06846607
00000000: 5cdb 83bc 187b 603d 130b ecbd 75d5 ee3a
00000010: afc3 fa3c 217b 103b 1266 16be 55d2 213d
00000020: 9856 2fbe f8fc 983c 6f26 133e cf17 823e
00000030: df38 e53c 99bc 7ebd e842 13bd 8213 0f3e
00000040: 4a38 023e 6cc3 613e 5b75 e03d 2e2c 803d
00000050: 7743 cabc f78b 2c3e 62f7 103e 77a4 f43d
00000060: fe9e 573d d3a6 103e 1a3b d7bb 072d fb3d
00000070: 806c b83d f274 88bc e1b9 453e 2f63 b23d
00000080: 19e5 0a3e bc7f da3c 34ab 313e 2d8d f8bc
00000090: cf7d 83be ebfb 8a3c 457a c8be ce47 093c
000000a0: 890c e7bd 3e40 bcbb 7ea9 cabe eb88 02bd
000000b0: af2b 17be 1de0 823c 4f53 67bd 1525 c5bd
000000c0: 769d 8abd bea2 39bc 5981 2ebe 3fd3 dfbd
000000d0: 4ecc f6bd 3b8d d53c 0d53 14be 181d 3b3d
000000e0: 0045 93be cc5b 4f3d ee56 783d 0388 4bbb
000000f0: 45ea 94be b69b 34bc 1544 13be e89b d83c
00000100: 87a1 a4bc 52c8 e03c e8e1 02bd 6b12 683c
00000110: 9b43 8abe 725e c6bc f2ca 23be b1dc 853d
00000120: 662f de3c e7c1 d43d 7887 3f3e a95f 84bc
00000130: 1130 3fbe 3adb 07bd b65d a63d 1d24 853d
00000140: c8ab 073e f00e 42bc c159 02bd 1c6c 33bd
00000150: 6d32 3e3d 12ea 0b3e e76b 2e3d 9f6a 0bbe
00000160: 9abb d43d 8293 c4bd a057 4a3d e62b e23d
00000170: bb0e 753e 4868 153e 3689 bd3c 5618 a33d
00000180: e1d8 473e 2c09 f53d 8f9f c03d e3d6 ecbd
00000190: c7c1 5e3d ce02 41be 3fc1 edbd d08d 823c
000001a0: be5e 833b cf98 83be 0079 abbc d532 7abe
000001b0: 4c32 8b3e 7bf1 34bc 8cff db3d 771b 9c3c
000001c0: 0e22 133e 4b3b 68be 2d48 593e 83b4 4dbd
000001d0: 7165 c93d b6b0 27be 810c 75bc dd4f 19be
000001e0: 166b 10be 9372 d63c 6184 dcbb a746 4ebe
000001f0: 5454 3bbb d514 63be 4ef3 5a3d 2d3a c13d
00000200: e491 713e 6fb9 cc3d c23e 62bd 487b bf3c
00000210: 1e43 173e 9602 ed3d 1d05 4a3e 9d29 a83d
00000220: 4433 a73c fbc5 c8bc 27b9 0a3d 495d 1abd
00000230: 448a 1bbc a665 843d 5eb0 223c 1308 bb3c
00000240: b62e 74bb 8cbc db3d febb 9fbc c642 5d3d
00000250: 4a7b f2bd 0e66 12bb e58b b3bd 2cf5 0b3d
00000260: 3eb4 663d 9455 2b3e d2bc 0b3e 19cb 8f3e
00000270: ace1 123e df11 a53d 6e41 90bd 9768 563e
00000280: 515d c13d 80e3 023e 3285 3a3e cf0e 8f3d
00000290: 43b1 773e e312 a63d 637e 92bd 6135 1bbe
000002a0: 0c0a 7a3e d62f d9bc dacc 3a3e ccc3 97bd
000002b0: 6041 1dbd 029d 0dbe 25d1 95bd d01a 6ebc
000002c0: b233 2fbe b168 06be f569 0abe 3e39 4abd
000002d0: 9453 5a3e 6e97 b3bd 2b7e 293e 0729 56bd
000002e0: ee47 cd3d 1616 94be e72b 1b3e 9798 19be
000002f0: f798 f33d 14d6 103e 7ad5 953d 99b3 833e
00000300: 92a7 c63d 6300 4e3d 1af2 10be 927a 4c3e
00000310: e9c5 5a3c 480f 313e f40b 23bd 394b 073e
00000320: aa77 eebc 1cc5 1f3d d2f5 a63d eac7 7d3d
00000330: 5e90 7dbd 4861 c23d 8cbb b9bd 49e5 80be
00000340: 646b 5a3d f6b2 bfbe 6dae c13c 8dcc 25bd
00000350: 0fc5 51bd 2415 d9be e8af 963d eb6c 14be
00000360: 9ebb 04be bd72 88bc cd56 74be 792b 98bd
00000370: d906 98bc 07c6 483c 4120 60be 68f1 553d
00000380: 0bd6 5abe 39d5 4b3e 0f83 ecbd ecea 2f3e
00000390: f455 9abd abc9 763d b458 9ebe 8e81 293e
000003a0: 7586 f0bd 6f03 053e 752e da3d 43ca 1a3e
000003b0: 7ff5 3b3e 986a 543e 4e42 af3d d657 c13d
000003c0: ff44 2b3e df92 053e fac3 b13d 2ca7 bbbd
000003d0: 0dfd e6bc 86db 5dbe 3c9f 57bd 7e37 a23c
000003e0: 1d2d 12bd acf9 21be de4a 523d b308 4dbe
000003f0: 3bff f2bd d113 22bd 1954 6bbe f037 8cbd

dense.0.denselayer2.norm1.weight f4 [44]
0.9152397 0.95277435 0.750193 0.949704 0.91533476 0.9440796 0.8459011 0.8710013
0.8820188 0.775514 0.8237824 0.92537886 0.87222093 0.77705026 0.80560225 0.75616044
0.7709285 0.80786836 0.8317036 0.85468304 0.7665973 0.9247811 0.7852958 0.6553666
0.81300306 0.8367258 0.835248 0.89920586 0.7457527 0.8465319 0.67728895 0.86508596
1.1064554 1.0043914 1.3028129 1.1754365 1.1752073 1.3026547 1.2542913 1.158935
1.1120286 1.3170917 1.5139678 1.2015569
00000000: 264d 6a3f 05e9 733f a60c 403f cd1f 733f
00000010: 6153 6a3f 33af 713f f98c 583f f1f9 5e3f
00000020: fccb 613f 1688 463f 67e3 523f a1e5 6c3f
00000030: df49 5f3f c4ec 463f f33b 4e3f bb93 413f
00000040: 925b 453f 76d0 4e3f 87ea 543f 82cc 5a3f
00000050: b83f 443f 74be 6c3f 2509 493f 1bc6 273f
00000060: f820 503f a933 563f d0d2 553f 5b32 663f
00000070: a6e9 3e3f 51b6 583f cf62 2d3f 4676 5d3f
00000080: 55a0 8d3f e68f 803f 93c2 a63f b474 963f
00000090: 316d 963f 64bd a63f 9e8c a03f fb57 943f
000000a0: f456 8e3f 7696 a83f b2c9 c13f 9ecc 993f

dense.0.denselayer2.norm1.bias f4 [44]
-0.02564635 0.06103453 -0.3111554 0.035327505 -0.015743608 -0.031950843 -0.17125289 -0.19658004
-0.07765994 -0.24982749 -0.21011168 -0.052506685 -0.107861586 -0.1294871 -0.19513105 -0.18076679
-0.18595564 -0.13990413 -0.1474731 -0.1195547 -0.1058055 -0.062550575 -0.15734172 -0.27245617
-0.18605182 -0.07403706 -0.15526861 -0.07623381 -0.1643217 -0.13824812 -0.22643985 -0.14157802
0.29269886 -0.052772213 -0.13424301 0.09599402 0.042876527 0.12443968 -0.04775569 -0.06711289
0.032403093 0.08144581 0.2360228 0.012763031
00000000: 4b18 d2bc 58ff 793d c34f 9fbe 93b3 103d
00000010: bdf8 80bc e3de 02bd eb5c 2fbe 474c 49be
00000020: 2d0c 9fbd c7d2 7fbe 8427 57be 4011 57bd
00000030: 89e6 dcbd 4498 04be 6fd0 47be ee1a 39be
00000040: 286b 3ebe 0743 0fbe 3003 17be 18d9 f4bd
00000050: 8eb0 d8bd 841a 80bd 301e 21be 607f 8bbe
00000060: 5e84 3ebe bea0 97bd bcfe 1ebe 7920 9cbd
00000070: f343 28be ea90 0dbe d9df 67be d4f9 10be
00000080: a0dc 953e ad27 58bd 0077 09be 8398 c43d
00000090: 4c9f 2f3d 3bda fe3d 789b 43bd 7c72 89bd
000000a0: 1bb9 043d 10cd a63d f6af 713e 081c 513c

dense.0.denselayer2.norm1.running_mean f4 [44]
0.26935348 0.2813303 0.06216346 1.3876034 0.12594457 0.40332547 1.4081366 1.118546
0.21211268 1.1617646 2.013497 0.16582209 0.07282897 0.10689237 1.1290995 0.31852347
0.022788975 0.08284308 0.020582084 0.95030504 0.019305635 1.4548666 0.64679503 0.024505725
0.039726403 0.040168308 0.022731818 0.28001368 0.63580716 0.3624022 0.27580032 1.7893018
-2.0263872 -2.7061577 -2.857355 -3.579135 -3.7229218 -1.8886524 -3.399829 -3.4157658
-3.014123 -4.240897 -3.2428617 -3.9553132
00000000: b3e8 893e 860a 903e 1d9f 7e3d fd9c b13f
00000010: 9df7 003e ad80 ce3e d23d b43f 842c 8f3f
00000020: 1134 593e b4b4 943f 23dd 0040 44cd 293e
00000030: 5b27 953d 63ea da3d 5586 903f 8215 a33e
00000040: f2af ba3c a2a9 a93d c29b a83c 3147 733f
00000050: da26 9e3c 1239 ba3f 5c94 253f 3bc0 c83c
00000060: 27b8 223d 8687 243d 1438 ba3c f45d 8f3e
00000070: 42c4 223f c88c b93e b335 8d3e d707 e53f
00000080: 54b0 01c0 b031 2dc0 e8de 36c0 8c10 65c0
00000090: 5a44 6ec0 5dbf f1bf cc96 59c0 e89b 5ac0
000000a0: 64e7 40c0 6eb5 87c0 0c8b 4fc0 da23 7dc0

dense.0.denselayer2.norm1.running_var f4 [44]
0.212459 0.17191543 0.15976411 0.06790292 0.50711733 0.4720244 0.2460612 0.07396786
0.11084769 0.10886382 0.18807778 0.60908276 0.16993445 0.2660159 0.14080013 0.42621404
0.019106228 0.17306955 0.020492475 0.5458891 0.030896422 0.6795682 0.3074128 0.049795076
0.08278043 0.061910428 0.024937393 0.30680203 0.8204387 0.3562928 0.56726754 0.2655882
60.636494 81.82831 78.211555 57.2821 82.88262 41.558937 91.50621 78.369644
82.380264 99.15244 154.13577 80.6667
00000000: da8e 593e 990a 303e 3499 233e b010 8b3d
00000010: 71d2 013f 2fad f13e 78f7 7b3e 767c 973d
00000020: 1d04 e33d fff3 de3d 7697 403e d9ec 1b3f
00000030: 4c03 2e3e 3c33 883e e92d 103e ba38 da3e
00000040: aa84 9c3c 2539 313e d6df a73c 63bf 0b3f
00000050: 7e1a fd3c 2ef8 2d3f 3665 9d3e ecf5 4b3d
00000060: c988 a93d ca95 7d3d 8149 cc3c 2815 9d3e
00000070: 4508 523f 036c b63e 7238 113f 2dfb 873e
00000080: c58b 7242 18a8 a342 516c 9c42 df20 6542
00000090: e7c3 a542 5a3c 2642 2e03 b742 42bd 9c42
000000a0: b2c2 a442 0d4e c642 c222 1a43 5a55 a142

dense.0.denselayer2.conv1.weight f4 [48, 44, 1, 1]
-0.027166503 0.058672953 0.012863596 0.049923986 0.022822449 -0.070072465 -0.07144169 0.13128993
-0.054946613 0.15910392 -0.012555825 -0.108012326 -0.11747858 -0.03426652 -0.01253711 -0.11353272
-0.11353937 -0.12690648 -0.10131592 0.054252252 -0.06515058 -0.17767549 0.091968074 0.16363338
0.09263862 -0.2136518 -0.24675488 -0.09162941 -0.12937763 0.040583078 0.0031492999 -0.027023854
0.005738043 0.13845916 -0.16046715 0.07749656 0.44797823 -0.009773251 0.41438365 0.08617346
-0.20773694 0.3926372 -0.015950575 0.09171783 -0.15646029 -0.0769501 -0.08462816 0.08390141
0.070515305 -0.16332889 -0.01256437 0.08816142 -0.033424694 0.15142465 0.06953995 -0.020026015
-0.15287787 -0.08869911 -0.020907803 -0.018415118 -0.06601664 0.110093795 -0.060488537 -0.0012468698
-0.1384371 -0.172281 0.030267626 0.015938295 -0.10742183 -0.0658613 -0.049173225 -0.079961225
0.031049972 -0.07385187 -0.059044097 -0.010488263 -0.07232244 -0.099029295 0.017003745 -0.0894878
-0.23022205 -0.5543199 -0.32428113 -0.12724097 -0.029602207 -0.19962268 0.03086519 0.08093563
-0.14926726 -0.01757235 0.09383388 -0.18007243 0.21074924 0.14928384 -0.13563329 0.064372264
0.26092002 -0.026541714 -0.00083551486 -0.17661168 0.18717518 -0.09264484 -0.07555711 0.05951221
-0.024251027 -0.038877927 0.116176985 0.044167493 0.16946074 0.043820582 -0.08493488 0.16296329
0.071985565 0.04478571 0.097108066 0.29804328 -0.11092734 0.13339104 0.028343663 0.01633031
0.07484701 0.3661145 0.090491734 -0.033985943 -0.2239477 0.18201666 -0.15116037 0.35865566
-0.08384659 -0.12045976 -0.13971744 0.10339319 -0.20730975 0.07950473 0.16481914 -0.13013178
0.14431708 0.0033137312 -0.03313879 -0.09815791 -0.026804738 -0.11337285 -0.23830768 -0.1687121
-0.122820444 -0.092365175 -0.009749992 0.018311547 -0.028606169 -0.015624749 -0.029469306 0.10745099
0.1759967 -0.023653517 0.09414907 0.06834699 -0.11462945 -0.011722706 -0.13638437 -0.046329543
-0.0855798 -0.04711047 0.052430622 -0.27800864 0.04941522 -0.43136314 -0.3926681 0.20243391
0.19119507 -0.23553938 0.20348313 0.41166672 -0.24367519 0.25150028 0.0069624274 0.13549116
0.13570583 -0.061279297 -0.17585103 -0.11962657 0.028112182 -0.03667936 -0.03905176 -0.17042097
-0.20088409 -0.07297483 -0.21525964 0.018198868 -0.17713098 -0.056330543 -0.09746367 -0.01671316
-0.14756605 0.07937595 -0.16708633 -0.05776663 0.041188933 -0.08622616 0.053837072 -0.058264907
0.002535309 -0.07497723 -0.15268828 0.021384716 0.003056802 -0.1940079 -0.13088682 0.08890607
0.23334448 0.04185452 0.17383943 0.05135493 0.3633789 0.0027450365 0.3507899 0.090651065
0.022980053 0.46608418 -0.14545968 -0.3464505 -0.027031882 -0.2332015 -0.12634718 -0.11925053
-0.17964192 0.021712111 -0.0023175585 -0.07609959 0.05881525 -0.14861074 -0.065178 -0.016534483
-0.09866723 0.1511939 -0.081087746 -0.20458724 0.16925186 -0.028665273 0.0010311832 -0.119769745
-0.15595813 0.078565285 0.028163234 -0.07746089 0.015018364 0.15945296 -0.03391192 -0.10354599
-0.032288842 -0.18438491 -0.015226966 0.0006281775 -0.34896445 -0.12799296 -0.43448356 -0.21516545
00000000: 498c debc 0d53 703d d5c1 523c 187d 4c3d
00000010: 25f6 ba3c 2782 8fbd 0550 92bd de70 063e
00000020: b30f 61bd 23ec 223e f2b6 4dbc 9135 ddbd
00000030: 9c98 f0bd 0d5b 0cbd 7368 4dbc d883 e8bd
00000040: 5487 e8bd c6f3 01be b97e cfbd 9c37 5e3d
00000050: ab6d 85bd 90f0 35be c259 bc3d 828f 273e
00000060: 51b9 bd3d 8ac7 5abe 50ad 7cbe 33a8 bbbd
00000070: 927b 04be 713a 263d 7c64 4e3b 2161 ddbc
00000080: 3206 bc3b 3dc8 0d3e 8051 24be 84b6 9e3d
00000090: 675d e53e fc1f 20bc 182a d43e b67b b03d
000000a0: feb8 54be be07 c93e c8aa 82bc 8fd6 bb3d
000000b0: 2037 20be 0498 9dbd 8751 adbd 81d4 ab3d
000000c0: 546a 903d b03f 27be cada 4dbc f98d b43d
000000d0: 55e8 08bd 100f 1b3e f66a 8e3d 990d a4bc
000000e0: 048c 1cbe e1a7 b5bd d746 abbc 4ddb 96bc
000000f0: bb33 87bd db78 e13d d4c2 77bd 026e a3ba
00000100: 75c2 0dbe 6e6a 30be d0f3 f73c 0791 823c
00000110: faff dbbd 4ae2 86bd dd69 49bd b6c2 a3bd
00000120: 835c fe3c a63f 97bd 39d8 71bd f7d6 2bbc
00000130: ca1d 94bd dfcf cabd 704b 8b3c 6145 b7bd
00000140: 54bf 6bbe e9e7 0dbf 2d08 a6be 754b 02be
00000150: 5480 f2bc e369 4cbe ffd8 fc3c 94c1 a53d
00000160: 84d9 18be e4f3 8fbc fa2b c03d e864 38be
00000170: a6ce 573e dddd 183e 74e3 0abe 9bd5 833d
00000180: 4f97 853e 026e d9bc 7406 5bba b1d9 34be
00000190: daaa 3f3e 94bc bdbd b0bd 9abd 13c3 733d
000001a0: 17aa c6bc 763e 1fbd 33ee ed3d f9e8 343d
000001b0: 1e87 2d3e 367d 333d 57f2 adbd d9df 263e
000001c0: 2b6d 933d 3871 373d 98e0 c63d 2199 983e
000001d0: e02d e3bd a997 083e f830 e83c 24c7 853c
000001e0: 6449 993d 5c73 bb3e bb53 b93d d834 0bbd
000001f0: 8c52 65be 9362 3a3e c9c9 1abe b7a1 b73e
00000200: c3b7 abbd 9bb3 f6bd 1712 0fbe cfbf d33d
00000210: 0249 54be 60d3 a23d 59c6 283e 4441 05be
00000220: dbc7 133e 2f2b 593b 8abc 07bd 0407 c9bd
00000230: 9c95 dbbc 0630 e8bd ee06 74be ddc2 2cbe
00000240: 4989 fbbd f429 bdbd 6ebe 1fbc 1902 963c
00000250: 7c57 eabc f2fe 7fbc 9d69 f1bc 440f dc3d
00000260: 7b38 343e 05c5 c1bc 3ad1 c03d 82f9 8b3d
00000270: d8c2 eabd 9810 40bc 58a8 0bbe 0cc4 3dbd
00000280: 7644 afbd e8f6 40bd 7ec1 563d 2657 8ebe
00000290: 9d67 4a3d a1db dcbe cb0b c9be d64a 4f3e
000002a0: a4c8 433e 3c31 71be e25d 503e fbc5 d23e
000002b0: fd85 79be a5c4 803e 1325 e43b 32be 0a3e
000002c0: 78f6 0a3e 0000 7bbd 4b12 34be c6fe f4bd
000002d0: 854b e63c 193d 16bd bdf4 1fbd d682 2ebe
000002e0: 8fb4 4dbe d473 95bd 066d 5cbe cb15 953c
000002f0: d361 35be dbba 66bd 089b c7bd 09ea 88bc
00000300: 8e1b 17be dc8f a23d ae18 2bbe b49c 6cbd
00000310: bab5 283d 5797 b0bd 4384 5c3d 2fa7 6ebd
00000320: 6d27 263b a98d 99bd 515a 1cbe 002f af3c
00000330: a154 483b 02aa 46be 3207 06be 6314 b63d
00000340: dbf1 6e3e a56f 2b3d f702 323e 8c59 523d
00000350: cd0c ba3e 12e6 333b bc9a b33e 44a7 b93d
00000360: aa40 bc3c 96a2 ee3e 62f3 14be f661 b1be
00000370: f771 ddbc 60cc 6ebe 2861 01be 9f39 f4bd
00000380: 0df4 37be 99dd b13c 2ee2 17bb 1ada 9bbd
00000390: 42e8 703d 6a2d 18be 0b7c 85bd 5373 87bc
000003a0: 0b12 cabd 93d2 1a3e 5511 a6bd 517f 51be
000003b0: 5c50 2d3e 6fd3 eabc c428 873a d749 f5bd
000003c0: 7db3 1fbe d6e6 a03d 95b6 e63c d1a3 9ebd
000003d0: 960f 763c a347 233e 3ae7 0abd ec0f d4bd
000003e0: 4e41 04bd 66cf 3cbe 867a 79bc 47ac 243a
000003f0: 78ab b2be 9610 03be a174 debe 5554 5cbe

dense.0.denselayer2.norm2.weight f4 [48]
1.0406306 1.2444686 0.8994462 1.0836778 1.1039975 1.0615859 1.0476431 1.0059793
1.0216097 1.0124207 1.0024542 0.869549 0.95083565 1.0365863 0.94058335 1.0643384
0.9517984 1.0543345 1.0684915 0.9071956 0.92074597 0.74151987 1.003198 1.0372225
0.9013801 0.8741449 0.95448434 0.92400753 0.974308 1.0693729 1.0275501 0.8071329
1.1661427 0.96707505 0.99973816 0.7594064 1.3262213 1.0366606 0.96904415 1.2604799
1.0050873 0.99314535 1.0187124 1.0264108 1.0499592 1.1485012 0.8561399 0.7271401
00000000: 6233 853f bf4a 9f3f 1b42 663f f4b5 8a3f
00000010: ca4f 8d3f 0ce2 873f 2b19 863f eec3 803f
00000020: 1bc4 823f 0097 813f 6b50 803f c39a 5e3f
00000030: f769 733f dcae 843f 12ca 703f 3e3c 883f
00000040: 0fa9 733f 6ff4 863f 54c4 883f f93d 683f
00000050: 02b6 6b3f 3fd4 3d3f cb68 803f b5c3 843f
00000060: d9c0 663f f6c7 5f3f 1659 743f c28b 6c3f
00000070: 406c 793f 36e1 883f c386 833f 43a0 4e3f
00000080: 2a44 953f 3b92 773f d7ee 7f3f 7568 423f
00000090: 9fc1 a93f 4bb1 843f 4713 783f 6857 a13f
000000a0: b3a6 803f c63e 7e3f 2b65 823f 6e61 833f
000000b0: 1065 863f 1602 933f fc2b 5b3f db25 3a3f

dense.0.denselayer2.norm2.bias f4 [48]
-0.14495577 0.3350606 -0.026390199 -0.17348991 -0.07881808 0.22649612 0.06813657 -0.20569593
-0.031179575 -0.258909 0.07274932 -0.27835733 0.044944238 -0.2202107 -0.26188025 0.23649763
-0.13269854 0.03817475 -0.27601713 -0.14157437 -0.19590461 -0.17780562 0.06885536 -0.16783583
-0.0047323457 -0.039419357 -0.17154261 -0.13638669 0.009126154 0.067296304 -0.265697 -0.33076662
-0.32914126 -0.32673398 0.040927753 -0.3684516 0.14133689 0.18397391 -0.01724551 -0.090169564
-0.26332837 -0.36455727 -0.38185728 0.10734336 -0.20353302 0.10926357 -0.23833853 -0.2599127
00000000: 496f 14be 108d ab3e 4230 d8bc 57a7 31be
00000010: 606b a1bd 99ee 673e 308b 8b3d f4a1 52be
00000020: 4f6c ffbc b88f 84be 98fd 943d da84 8ebe
00000030: 7317 383d ea7e 61be 2b15 86be 6f2c 723e
00000040: 20e2 07be 205d 1c3d 1e52 8dbe dff8 10be
00000050: 389b 48be ad12 36be 0a04 8d3d 28dd 2bbe
00000060: cb11 9bbb 3176 21bd dea8 2fbe f4a8 0bbe
00000070: dd85 153c a5d2 893d 7009 88be 3e5a a9be
00000080: 3485 a8be ad49 a7be dca3 273d b0a5 bcbe
00000090: 9eba 103e a863 3c3e 7546 8dbc d2aa b8bd
000000a0: fad2 86be 40a7 babe cc82 c3be d6d6 db3d
000000b0: f66a 50be 94c5 df3d 040f 74be 4713 85be

dense.0.denselayer2.norm2.running_mean f4 [48]
0.30013302 -0.857017 0.21823484 0.03227925 0.28118485 -1.2000428 0.72177166 0.44058043
0.6170379 0.20892239 -1.03688 -0.050103623 -0.087645516 0.74954647 1.1105531 -0.8833619
-0.15083657 -0.4668622 0.47908473 1.1534492 0.0960785 -1.2341533 -0.3941475 -0.14132592
-1.2816561 -1.2900598 0.9567985 0.48689085 -0.33434117 0.2679494 0.9237184 0.49292848
0.6441185 0.025625972 -0.11140024 0.4824008 -0.44909242 -0.18781768 -0.55002177 0.81855595
0.99852324 0.8457305 0.5194243 -0.92876107 0.36472622 0.80634505 0.81380045 0.5451476
00000000: 09ab 993e 7765 5bbf f478 5f3e 3f37 043d
00000010: 76f7 8f3e 019b 99bf 07c6 383f c293 e13e
00000020: 32f6 1d3f c0ef 553e 7cb8 84bf 7539 4dbd
00000030: 7e7f b3bd 47e2 3f3f 9b26 8e3f 0124 62bf
00000040: e774 1abe 9008 efbe 984a f53e 39a4 933f
00000050: cec4 c43d bcf8 9dbf b3cd c9be beb7 10be
00000060: 4f0d a4bf ae20 a5bf bff0 743f c249 f93e
00000070: c42e abbe aa30 893e cf78 6c3f 1f61 fc3e
00000080: f3e4 243f 8fed d13c cf25 e4bd 3dfd f63e
00000090: 71ef e5be 4753 40be 3ace 0cbf e28c 513f
000000a0: 389f 7f3f cb81 583f fef8 043f 49c3 6dbf
000000b0: 65bd ba3e a16c 4e3f 3a55 503f cb8e 0b3f

dense.0.denselayer2.norm2.running_var f4 [48]
1.4035703 1.3265339 2.1208382 1.1921226 1.3234807 2.5153651 1.360702 1.988212
3.4686055 2.8087811 5.2980423 1.2242639 1.1536874 5.341936 4.04549 1.838955
1.5770849 0.98181367 2.1284068 3.804707 1.2119793 21.39387 5.9920597 2.3110366
20.504269 12.828456 4.5591006 2.2734601 1.1594958 0.7764108 5.3121204 3.8329058
2.8910184 2.1099453 0.6568132 1.7170695 0.9282452 2.7441025 1.3559511 1.5089731
3.8142915 5.144337 2.5831473 4.29457 2.836783 1.462483 3.3220036 4.2504354
00000000: 31a8 b33f ddcb a93f d0bb 0740 7997 983f
00000010: d167 a93f befb 2040 7c2b ae3f bb7d fe3f
00000020: a2fd 5d40 12c3 3340 9089 a940 aeb4 9c3f
00000030: 07ac 933f 24f1 aa40 a774 8140 e162 eb3f
00000040: ebdd c93f 2458 7b3f d137 0840 5280 7340
00000050: 2322 9b3f a526 ab41 f4be bf40 06e8 1340
00000060: be08 a441 5b41 4d41 27e4 9140 5f80 1140
00000070: 5c6a 943f dcc2 463f e4fc a940 544e 7540
00000080: 7206 3940 5809 0740 e924 283f efc8 db3f
00000090: 7aa1 6d3f 609f 2f40 ce8f ad3f 0826 c13f
000000a0: 5a1d 7440 699e a440 4952 2540 1e6d 8940
000000b0: da8d 3540 a532 bb3f b59b 5440 9103 8840

dense.0.denselayer2.conv2.weight f4 [12, 48, 3, 3]
-0.1188174 0.08003823 -0.030280083 0.135039 0.12521432 0.103705734 -0.31259474 0.059745897
-0.1401269 0.25155663 -0.036734287 0.45790398 -0.12115157 -0.4807314 0.0065998863 0.27897853
-0.11231523 0.26032346 0.16520682 -0.071955524 0.085693195 -0.08992067 0.16999291 -0.08494567
-0.124259144 -0.11256882 0.1067791 0.12421576 -0.07058583 0.13825664 0.025430083 0.16704752
-0.10717759 -0.18281509 0.096860304 -0.13592836 -0.31435728 0.20024435 -0.03501262 0.1724208
0.22313493 0.15950152 -0.15908243 -0.025963394 -0.20097308 0.123648316 -0.03249035 0.30052698
-0.1537308 -0.40335283 -0.12665963 0.17906296 -0.16405345 0.078136735 -0.03029383 0.12182645
0.06115686 0.11515072 0.13538289 -0.07114877 -0.070846565 0.12238124 -0.0479372 -0.40188503
-0.019179065 -0.30396262 -0.06864329 0.14339745 0.018014729 -0.44716203 -0.032846708 -0.27543694
-0.20064026 -0.01390459 -0.09947754 -0.06670834 0.15599401 0.014713538 -0.2717243 -0.00921533
-0.08634204 0.097352535 0.051631443 0.077095956 0.027326988 0.07641123 0.039551713 -0.19561607
0.019841136 -0.06840117 0.23382804 -0.02578302 0.26136863 -0.14244866 -0.30079466 -0.14819425
0.25386566 -0.142344 -0.028502613 0.21859951 0.10216539 -0.18454655 -0.042210322 0.060456485
0.18262452 0.045449518 0.031545047 -0.19815178 0.111872874 0.14451969 -0.030377483 0.05224807
0.10211514 0.10232593 -0.021460945 0.15592165 -0.056626905 -0.249889 0.022856234 -0.1743365
0.063523695 -0.059858344 0.039805695 -0.10410766 0.025480932 -0.26198485 -0.23653607 0.009522834
-0.28510013 0.02239205 -0.10089463 0.0010492645 -0.18598971 0.056511164 -0.32096848 0.13128966
-0.045908313 0.29993105 -0.12924097 -0.47967467 -0.057315186 0.11851901 -0.12351593 0.115834594
0.084086224 0.020308025 -0.07924126 -0.0009358562 0.019508626 -0.06523824 0.1878643 0.058138024
-0.1161375 0.31448346 -0.05213012 0.27993628 -0.12690829 -0.26360413 -0.15081936 0.14491457
-0.03596075 0.022654826 -0.22835167 -0.15069169 -0.4665356 -0.0816852 0.12613472 -0.0011973202
-0.2457557 -0.0749642 -0.35611185 -0.25886336 0.035786126 -0.3625626 0.030967277 -0.09880187
-0.007146047 -0.26833218 0.000737798 -0.4184516 0.01242054 0.08957463 0.08131544 0.12283647
0.014843949 0.011129931 -0.202037 0.10241978 -0.06966822 0.15692963 0.084571205 0.11657513
-0.0541431 -0.18565755 -0.10110666 0.08382883 -0.11550574 0.052494872 0.036004774 0.0970221
0.19191878 -0.023117008 -0.30975282 0.020518115 0.14838758 -0.13884462 0.16967186 0.23392592
-0.20011729 0.21015994 -0.04152376 0.23295234 -0.16255878 -0.1944704 -0.06470998 0.1041093
0.15581293 -0.04997715 0.29956284 0.00255873 -0.234711 -0.09467129 0.109790355 -0.07327686
0.19944884 0.22487113 -0.014913421 0.2814295 -0.015216759 -0.41398475 0.09075164 0.21154515
-0.13018279 0.25302035 -0.22588952 -0.0040422105 -0.13254233 0.059286017 -0.04246669 -0.10022691
-0.22425017 -0.024936594 -0.3205003 -0.070714936 -0.13049096 -0.092035435 -0.10448842 0.15575753
0.022752363 -0.18041496 -0.014358759 -0.31380117 0.117926806 0.14161187 0.031231672 -0.051827453
00000000: 8956 f3bd 15eb a33d f00d f8bc aa47 0a3e
00000010: 2f38 003e ac63 d43d 6b0c a0be 1db8 743d
00000020: 6d7d 0fbe 08cc 803e b176 16bd 6472 ea3e
00000030: 501e f8bd 6d22 f6be dc43 d83b 46d6 8e3e
00000040: 8705 e6bd 1e49 853e fa2b 293e 6b5d 93bd
00000050: ea7f af3d 5428 b8bd 9f12 2e3e fff7 adbd
00000060: 947b febd 7b8a e6bd 00af da3d d564 fe3d
00000070: 4e8f 90bd 2693 0d3e c052 d03c 810e 2b3e
00000080: ed7f dbbd e133 3bbe b25e c63d ce30 0bbe
00000090: 70f3 a0be db0c 4d3e 6569 0fbd 148f 303e
000000a0: 7c7d 643e 5e54 233e 81e6 22be 2fb1 d4bc
000000b0: e3cb 4dbe 543b fd3d 9a14 05bd acde 993e
000000c0: 9b6b 1dbe 4384 cebe 10b3 01be 485c 373e
000000d0: a1fd 27be 2706 a03d c42a f8bc 2580 f93d
000000e0: 9e7f 7a3d 24d4 eb3d d0a1 0a3e 72b6 91bd
000000f0: 0118 91bd 04a3 fa3d cc59 44bd e0c3 cdbe
00000100: 6a1d 9dbc fda0 9bbe da94 8cbd c8d6 123e
00000110: a093 933c 6cf2 e4be 458a 06bd 1206 8dbe
00000120: a474 4dbe 14d0 63bc e1ba cbbd 629e 88bd
00000130: e5bc 1f3e 0d11 713c 731f 8bbe e5fb 16bc
00000140: 18d4 b0bd c460 c73d 7e7b 533d 7ce4 9d3d
00000150: d9dc df3c 7e7d 9c3d fa00 223d 944f 48be
00000160: e189 a23c ea15 8cbd 9e70 6f3e e936 d3bc
00000170: 1cd2 853e 10de 11be c201 9abe 3cc0 17be
00000180: aefa 813e a0c2 11be 507e e9bc 8dd8 5f3e
00000190: 173c d13d c5f9 3cbe bbe4 2cbd 38a1 773d
000001a0: ec01 3b3e 4629 3a3d 6135 013d 4de8 4abe
000001b0: 9b1d e53d f8fc 133e 33da f8bc 1202 563d
000001c0: be21 d13d 4290 d13d ddce afbc eda9 1f3e
000001d0: 9df1 67bd e7e2 7fbe ff3c bb3c 4485 32be
000001e0: b618 823d 062e 75bd 4c0b 233d 6636 d5bd
000001f0: 63bd d03c e122 86be 8336 72be a905 1c3c
00000200: a5f8 91be 886f b73c d8a1 cebd 7987 893a
00000210: 1674 3ebe 4078 673d fb55 a4be cc70 063e
00000220: 5b0a 3cbd 9090 993e bf57 04be eb97 f5be
00000230: 54c3 6abd 18ba f23d ebf5 fcbd b03a ed3d
00000240: 6635 ac3d 045d a63c 3e49 a2bd 3f54 75ba
00000250: 8ed0 9f3c a09b 85bd 805f 403e 2322 6e3d
00000260: 7fd9 edbd fa03 a13e 6586 55bd cf53 8f3e
00000270: 3ff4 01be 1ff7 86be 6470 1abe 7c64 143e
00000280: 944b 13bd 9d96 b93c 05d5 69be ec4e 1abe
00000290: c1dd eebe 924a a7bd 7629 013e 66ef 9cba
000002a0: 62a7 7bbe d586 99bd 4b54 b6be bd89 84be
000002b0: 7994 123d cea1 b9be 16af fd3c a358 cabd
000002c0: 6329 eabb d662 89be c968 413a 4a3f d6be
000002d0: 857f 4b3c e772 b73d b688 a63d b091 fb3d
000002e0: 0934 733c 505a 363c cae2 4ebe 76c1 d13d
000002f0: 36ae 8ebd 29b2 203e ab33 ad3d f1be ee3d
00000300: 28c5 5dbd 031d 3ebe 0211 cfbd 73ae ab3d
00000310: 468e ecbd dd04 573d be79 133d 86b3 c63d
00000320: 5b86 443e e15f bdbc ec97 9ebe 9b15 a83c
00000330: eaf2 173e 492d 0ebe 76be 2d3e 478a 6f3e
00000340: 8ceb 4cbe 2b34 573e d114 2abd 0f8b 6e3e
00000350: cf75 26be 4023 47be aa86 84bd 4237 d53d
00000360: 6d8d 1f3e d7b4 4cbd 4d60 993e 5eb0 273b
00000370: 1558 70be 05e3 c1bd c4d9 e03d 2e12 96bd
00000380: 513c 4c3e 9e44 663e 6c57 74bc 8717 903e
00000390: b74f 79bc cff5 d3be ffdb b93d 4b9f 583e
000003a0: a34e 05be e28b 813e 954f 67be 8574 84bb
000003b0: 2db9 07be e5d5 723d 8df1 2dbd c443 cdbd
000003c0: d6a1 65be d447 ccbc 9e18 a4be fed2 90bd
000003d0: 6c9f 05be 137d bcbd 06fe d5bd e77e 1f3e
000003e0: 2a63 ba3c b3be 38be 0041 6bbc 8caa a0be
000003f0: 9c83 f13d b402 113e 90d9 ff3c 0649 54bd

dense.0.denselayer3.norm1.weight f4 [56]
0.9567618 0.67326295 0.72212005 0.67080224 0.77259475 0.78958124 0.83726054 0.87193626
0.65595454 0.8396176 0.7921225 0.6734662 0.9087369 0.7217039 0.9458181 0.78915995
0.7724298 0.86960846 0.6947076 0.7455326 0.78730404 0.6599444 0.76083994 0.8201321
0.9400919 0.783093 0.6686253 0.9119024 0.771034 0.79436105 0.6003005 0.53631264
1.1471493 1.0839136 1.1772102 1.1930856 1.1193135 1.1815062 1.1879249 1.2555969
1.202263 1.2788287 1.1521392 1.13761 1.262215 1.2858672 1.3658764 1.1362196
1.0288041 1.2516288 1.1379685 1.2213124 1.2370359 1.3228948 1.388295 1.4290949
00000000: 57ee 743f f65a 2c3f dcdc 383f b2b9 2b3f
00000010: c5c8 453f ff21 4a3f b556 563f 3737 5f3f
00000020: a3ec 273f 2ef1 563f 8ac8 4a3f 4868 2c3f
00000030: fba2 683f 96c1 383f 2321 723f 6306 4a3f
00000040: f6bd 453f a99e 5e3f 5bd8 313f 39db 3e3f
00000050: c28c 493f 1ef2 283f 68c6 423f 2df4 513f
00000060: dda9 703f c878 483f 072b 2b3f 7072 693f
00000070: 7c62 453f 3f5b 4b3f 4bad 193f c94b 093f
00000080: cad5 923f aebd 8a3f d3ae 963f 07b7 983f
00000090: aa45 8f3f 983b 973f ec0d 983f 66b7 a03f
000000a0: c1e3 993f a9b0 a33f 4c79 933f 349d 913f
000000b0: 4390 a13f 4c97 a43f 0ad5 ae3f a56f 913f
000000c0: daaf 833f 5f35 a03f f4a8 913f f753 9c3f
000000d0: 3157 9e3f 9e54 a93f a7b3 b13f 95ec b63f

dense.0.denselayer3.norm1.bias f4 [56]
0.048451014 -0.2352693 -0.068604596 -0.23886812 -0.1830934 -0.07649082 -0.07767263 -0.12114147
-0.21300714 -0.2026102 -0.05143781 -0.29183713 -0.021766365 -0.25634405 -0.026366383 -0.15421888
-0.25423604 -0.14659266 -0.3185105 -0.16117436 -0.15931316 -0.3182999 -0.17558707 -0.11885789
-0.060787953 -0.1512066 -0.3424808 0.035065793 -0.21686873 -0.12865178 -0.3515696 -0.32908523
-0.008438927 -0.022200814 0.0960894 0.24905269 -0.022222964 0.0067748157 -0.047508407 -0.117236555
0.042658024 -0.18790835 0.08770592 -0.08986055 0.23230448 0.4907503 -0.029042963 -0.21647044
0.1176262 -0.040033825 -0.09675897 -0.17431377 -0.060746502 -0.20235516 0.1354395 -0.23234625
00000000: 9274 463d 6fea 70be 9180 8cbd d899 74be
00000010: d67c 3bbe 38a7 9cbd d412 9fbd 0519 f8bd
00000020: 8b1e 5abe 0c79 4fbe 74b0 52bd ad6b 95be
00000030: 604f b2bc 873f 83be 50fe d7bc 8eeb 1dbe
00000040: 3a2b 82be 631c 16be cf13 a3be e40a 25be
00000050: fd22 23be 34f8 a2be 19cd 33be c46b f3bd
00000060: cafc 78bd e7d5 1abe a559 afbe 26a1 0f3d
00000070: d612 5ebe 4bbd 03be ee00 b4be dc7d a8be
00000080: 6d43 0abc 7bde b5bc 85ca c43d ab07 7f3e
00000090: ef0c b6bc 46ff dd3b 2d98 42bd b819 f0bd
000000a0: 2eba 2e3d 0c6b 40be 299f b33d cf08 b8bd
000000b0: 3ae1 6d3e a043 fb3e 82eb edbc 6daa 5dbe
000000c0: 01e6 f03d 82fa 23bd 9129 c6bd 4f7f 32be
000000d0: 53d1 78bd 3136 4fbe a7b0 0a3e 2dec 6dbe

dense.0.denselayer3.norm1.running_mean f4 [56]
0.26935348 0.2813303 0.06216346 1.3876034 0.12594457 0.40332547 1.4081366 1.118546
0.21211268 1.1617646 2.013497 0.16582209 0.07282897 0.10689237 1.1290995 0.31852347
0.022788975 0.08284308 0.020582084 0.95030504 0.019305635 1.4548666 0.64679503 0.024505725
0.039726403 0.040168308 0.022731818 0.28001368 0.63580716 0.3624022 0.27580032 1.7893018
-2.0263872 -2.7061577 -2.857355 -3.579135 -3.7229218 -1.8886524 -3.399829 -3.4157658
-3.014123 -4.240897 -3.2428617 -3.9553132 -1.6890533 -1.625782 -1.5278969 -1.6890624
-1.8965836 -1.6603959 -2.8969114 -2.5925872 -2.2082798 -1.7751936 -1.7935734 -2.0010614
00000000: b3e8 893e 860a 903e 1d9f 7e3d fd9c b13f
00000010: 9df7 003e ad80 ce3e d23d b43f 842c 8f3f
00000020: 1134 593e b4b4 943f 23dd 0040 44cd 293e
00000030: 5b27 953d 63ea da3d 5586 903f 8215 a33e
00000040: f2af ba3c a2a9 a93d c29b a83c 3147 733f
00000050: da26 9e3c 1239 ba3f 5c94 253f 3bc0 c83c
00000060: 27b8 223d 8687 243d 1438 ba3c f45d 8f3e
00000070: 42c4 223f c88c b93e b335 8d3e d707 e53f
00000080: 54b0 01c0 b031 2dc0 e8de 36c0 8c10 65c0
00000090: 5a44 6ec0 5dbf f1bf cc96 59c0 e89b 5ac0
000000a0: 64e7 40c0 6eb5 87c0 0c8b 4fc0 da23 7dc0
000000b0: e632 d8bf a019 d0bf 2092 c3bf 3233 d8bf
000000c0: 40c3 f2bf da87 d4bf ff66 39c0 f3ec 25c0
000000d0: 7554 0dc0 8b39 e3bf d093 e5bf 6411 00c0
