Trained Model/8-8 4-network-1500moststabledata.pt (torch_old, 673471 bytes, 154 tensors)

conv.0.weight f4 [4]
000000 42 03 74 3f c9 e8 90 3f a0 05 72 3f c3 63 6c 3f
       0.9531747 1.132104 0.94539833 0.92339724

conv.0.bias f4 [4]
000000 bc c1 e9 be 15 66 2e 3f be 39 df 3e 83 d3 a5 be
       -0.4565562 0.68124515 0.4359874 -0.32387933

conv.0.running_mean f4 [4]
000000 5d a4 3e 3d ff da 5b 3d d3 4e 44 3d 8c 30 56 3d
       0.046543468 0.053675648 0.047926735 0.05229239

conv.0.running_var f4 [4]
000000 a0 c2 35 3d 74 0c 50 3d 48 e4 3a 3d 6e fb 4a 3d
       0.044375062 0.050793126 0.045627862 0.04955619

conv.1.weight f4 [32, 4, 1, 1]
000000 e0 9f 40 be 74 b0 2e 3f 33 47 5e 3f 8c f4 5b bf
       -0.18810987 0.68237996 0.8682739 -0.85920024
000010 a2 d0 97 bf c8 50 85 be 49 3e 87 3e 3e 4b 83 3e
       -1.1860545 -0.26038194 0.26414707 0.25643343
000020 71 94 fb 3e 49 61 31 bf f2 a0 f0 3e 29 de 8f be
       0.4913669 -0.6928907 0.46997792 -0.28099182
000030 c4 60 38 3f c8 dc ca be 65 90 16 3f 77 20 91 be
       0.7202265 -0.39621568 0.5881408 -0.2834508
000040 17 3e 22 bf 3c 2a 64 bf 5a ac 77 bf 6b c5 cf be
       -0.6337599 -0.89126945 -0.9674736 -0.40580305
000050 c4 81 c1 bd da 3c f3 3f 5e 8a cb 3d 99 2f a9 3e
       -0.09448579 1.9002945 0.09938501 0.33044127
000060 80 1b e1 3e 41 16 a4 3f eb c8 11 3d 4b a6 2c 3f
       0.43966293 1.2819291 0.035592 0.6744124
000070 1f 04 1a bf 23 ba 2a 40 d3 92 8e 3e 75 5d 0e 3e
       -0.6016254 2.667611 0.27846393 0.13902839
000080 35 d1 2c bf 2c 96 d3 be a4 1c 49 bf 73 33 6e be
       -0.67506725 -0.4132551 -0.7855933 -0.23261814
000090 54 0e 34 be 68 8b d1 be f6 b9 c9 be 00 93 13 3c
       -0.17583591 -0.4092667 -0.3939969 0.0090072155
0000a0 33 06 00 3f e4 8c 3d 3e d6 ea 04 40 99 69 db 3c
       0.5000946 0.18510777 2.0768332 0.026783751
0000b0 ae 16 ca be ca 51 2f bd 4e a8 62 bf 82 20 e5 3c
       -0.39470428 -0.04280261 -0.8853806 0.027969602
0000c0 36 28 87 be b0 60 33 3f de f2 8d bf 46 9e cb 3e
       -0.26397866 0.7006941 -1.1089742 0.3976919
0000d0 d4 c7 08 be 72 30 36 3f 72 b5 ec be b1 4f fc 3e
       -0.13357478 0.7116767 -0.46232182 0.4927955
0000e0 24 d7 72 3f 2b eb b0 be 4d 22 f5 3e 75 92 a1 3e
       0.9485953 -0.3455442 0.47877732 0.3155705
0000f0 5c 39 15 bf 90 be 4f 3d 14 a1 c4 be a1 14 28 bf
       -0.5829065 0.050718844 -0.38404143 -0.6565648
000100 32 c7 a2 bd 8a c0 70 be 3e 1b b2 be af 0c 75 bf
       -0.0794815 -0.23510948 -0.3478641 -0.9572248
000110 d7 94 a2 bf 68 af 8f be b6 ac b1 bf c3 d6 96 3e
       -1.2701672 -0.28063512 -1.3880832 0.29460725
000120 0c 3a f8 be 23 3f 50 3e 76 cd 9d be 51 d9 9e be
       -0.48481786 0.20336585 -0.30820817 -0.31025174
000130 b0 bc 56 3f df f2 03 bf b0 17 a8 3c f0 0b 96 bf
       0.83881664 -0.51542467 0.020519108 -1.1722393
000140 6a 0e 94 bf 1a 53 9b 3d f3 3e b5 bd ae b7 f3 bf
       -1.1566899 0.0758421 -0.08849897 -1.904043
000150 a3 d2 55 be f0 1f ca 3f 4c 82 5a 3e dd ba 93 be
       -0.20881133 1.5790997 0.21338767 -0.28853503
000160 cc ea 8a 3e a0 12 bc bc 28 7b e9 be c8 dd ac bd
       0.2713226 -0.0229581 -0.45601773 -0.08440739
000170 52 e0 4d bf ad 8c 03 bc 21 c8 c0 be b8 59 4b 3f
       -0.8042041 -0.008029145 -0.37652686 0.79433775
000180 61 2d aa bf 67 d0 2a 3e ae a5 80 be ac e5 8e be
       -1.3295099 0.16681062 -0.25126404 -0.279096
000190 c2 fd 0c 3f dc d0 3a 3f a0 90 d2 3e a0 fa 12 3f
       0.55074704 0.72974944 0.41125965 0.57413673
0001a0 38 ed 21 3f a1 45 2a bf 78 b7 31 3f 7b 8b 79 bf
       0.6325259 -0.66512495 0.69420576 -0.97478455
0001b0 cc 3b 59 3f db bd 14 3e 34 66 77 3f 38 41 92 bd
       0.8485687 0.14525549 0.96640325 -0.07141346
0001c0 a2 8a f7 be 43 b1 93 3e b6 47 39 bf 12 4b 32 3f
       -0.48347956 0.28846177 -0.7237505 0.696458
0001d0 15 f5 6d bf fe 5c d4 3e 05 89 ec 3e ec 62 83 bf
       -0.9295209 0.41477197 0.46198288 -1.0264564
0001e0 7e 0c 37 bf c8 3c b3 3d e2 39 67 bf e8 e7 03 be
       -0.71503437 0.087518275 -0.903227 -0.12881434
0001f0 4e c6 ed be 23 98 64 3f ac 5a de 3e 06 b8 8e be
       -0.46440357 0.8929464 0.43428552 -0.27874774

conv.1.bias f4 [32]
000000 c4 5d e2 3e 1e b7 70 3f ef 90 86 3e 93 28 a2 be
       0.44212162 0.94029415 0.2628245 -0.3167158
000010 6f 58 ca 3e 77 79 06 3e a4 23 af 3e 68 85 a6 bd
       0.39520594 0.13132273 0.3420688 -0.08130914
000020 30 59 21 3f 9c 6f f0 be 5d 82 6e 3e 49 59 5b 3f
       0.63026714 -0.4696015 0.23291917 0.85683113
000030 11 3f 57 bc 33 2b e3 3d 4c 04 e8 3d 50 57 0e 3f
       -0.013137595 0.11092224 0.113289446 0.5560198
000040 6f 94 84 3f f0 de 8f 3f a5 aa 80 3f 2d 4c b2 3d
       1.0357798 1.123991 1.0052077 0.087059356
000050 ea 4a f9 3f d3 61 72 bf 10 7b a6 be e5 d0 d6 bd
       1.9475987 -0.9468052 -0.32515764 -0.10489062
000060 9a 62 ae 3f d6 4c fe 3e 36 8c 0b bd 05 47 a3 be
       1.3623841 0.49667996 -0.034069262 -0.3189012
000070 6f 8e a9 3d 0e 24 01 3f 00 94 51 3f 45 99 62 bf
       0.0827912 0.5044564 0.81866455 -0.8851512

dense.0.denselayer1.norm1.weight f4 [32]
000000 cb 37 1b 3d 9b 6c 35 3f bb 77 d9 3f e3 ee b3 3e
       0.037895005 0.70868844 1.6989664 0.35143194
000010 6a fc 30 3f f5 f6 89 3f 09 e5 31 3f e4 ec cc 3f
       0.69135153 1.077849 0.69490105 1.6009793
000020 21 21 35 3f 00 00 80 3f 5f 28 88 3e 47 88 48 3f
       0.70753676 1.0 0.265933 0.7833294
000030 68 e8 9a 3f ff c4 73 3f f7 bd 48 3e f8 e7 32 3f
       1.2102175 0.9522247 0.19603716 0.69885206
000040 91 00 a1 3f 99 1c 49 3f fc 66 4c 3f 5c 88 9e 3f
       1.2578298 0.7855926 0.7984464 1.2385364
000050 27 f3 1e 3f f5 33 bc 3f 00 00 80 3f bb 1e 91 3f
       0.6208977 1.4703356 1.0 1.1337503
000060 28 2c 37 3f 46 2e 31 3e 2b da 94 3f 2c ec 23 3f
       0.7155175 0.17302808 1.162908 0.64032245
000070 9d 88 67 3f 0b e2 e6 3f d0 6e 46 3f 39 5b 44 3f
       0.9044283 1.8037733 0.77512836 0.76701695

dense.0.denselayer1.norm1.bias f4 [32]
000000 21 ba 35 bf fa 5e 7b be e3 fc 51 3e da 58 17 bf
       -0.70987135 -0.2454795 0.20506625 -0.5911995
000010 28 18 9a be 71 5c f3 bd 0d be 03 bf 53 da 3f 3f
       -0.30096555 -0.11882866 -0.5146187 0.7494251
000020 0f 71 9a be 00 00 00 00 2e f8 a9 bf 5e c0 6d be
       -0.30164382 0.0 -1.3278863 -0.23217914
000030 ad 02 cf 3e b0 f9 a4 3d c5 86 99 bf 33 35 99 be
       0.4043173 0.080554366 -1.1994253 -0.299234
000040 b8 01 c7 3e 8d 34 68 be ec e9 86 be ca f8 d0 3e
       0.388685 -0.22676297 -0.26350343 0.4081481
000050 86 2d 8b be 1d 60 9b 3e 00 00 00 00 01 25 df 3e
       -0.2718317 0.30346766 0.0 0.4358292
000060 38 7a 6b be c4 cd 36 bf fb b0 e0 3e 27 cb 3d bf
       -0.22995842 -0.71407723 0.43885025 -0.7413811
000070 72 c7 1d bd dd a5 a4 bd be 66 67 be 08 c0 a7 3e
       -0.038520284 -0.080394484 -0.22597787 0.32763696

dense.0.denselayer1.norm1.running_mean f4 [32]
000000 a4 24 d3 3f 3b d6 ba 3f f2 a9 48 3e f4 21 77 3e
       1.6495557 1.4596628 0.19596079 0.24134046
000010 e0 3f d3 3e 54 1f b4 3f b5 01 50 3f 7e 75 05 40
       0.4125967 1.407206 0.81252605 2.0852962
000020 ba 07 48 3f 00 00 00 00 5e 4b 83 3f 06 71 57 3f
       0.7813679 0.0 1.0257375 0.84156835
000030 94 6f 8a 3e 80 a0 d3 3e 47 95 87 3e c6 aa 8e 3f
       0.27038252 0.4133339 0.26481077 1.1145866
000040 aa 1c a5 3f 64 a5 a7 3f f4 8e b6 3f 19 12 37 3e
       1.2899373 1.3097348 1.4262376 0.17877997
000050 7f d4 58 40 f4 e8 d1 3e 00 00 00 00 4d ee 2a 3e
       3.3879697 0.40998042 0.0 0.16692467
000060 8a 19 12 40 e0 4a 3c 3f 33 4a 8c 3e 8b e0 b6 3e
       2.2828088 0.7355175 0.2740036 0.35718188
000070 ce 7e 67 3e 08 fa e1 3f 1e 80 91 3f 32 76 61 3e
       0.22606966 1.7654428 1.1367223 0.22017744

dense.0.denselayer1.norm1.running_var f4 [32]
000000 63 79 f1 3e 69 1a db 3d d0 80 49 3f 2f d8 98 3f
       0.47162923 0.10698397 0.7871218 1.1940974
000010 8d ff 9b 3c 5c c1 c0 40 3d 57 8c 40 ff b9 21 41
       0.019042755 6.0236034 4.385649 10.107909
000020 25 73 8b 3d 04 00 00 00 01 64 be 40 db 1d 14 3d
       0.068090715 6e-45 5.9497075 0.036161285
000030 75 aa a9 3f ff 03 c9 3f 90 06 b8 3f 2d c3 0d 3e
       1.3255144 1.5704345 1.4377003 0.13843985
000040 b1 db 3d 3e 78 8e b4 3d 53 e5 d2 3d 75 b6 27 3f
       0.18540837 0.08816236 0.102976464 0.6551278
000050 50 2d a1 3f 63 c8 15 40 04 00 00 00 39 56 01 3f
       1.2591953 2.3403556 6e-45 0.5052219
000060 3d ef 84 3e 9e ce 22 40 1e fa c4 3f 09 27 23 40
       0.25963774 2.543861 1.538883 2.5492575
000070 97 39 6d 3f 0d 20 bb 3e 26 38 86 3d 6d 7b 19 3f
       0.92666 0.3654789 0.06553678 0.5995396

dense.0.denselayer1.conv1.weight f4 [48, 32, 1, 1]
000000 95 6d a7 bd 28 dc 96 bd 10 00 22 3d 45 00 4d 3e
       -0.08175198 -0.0736621 0.03955084 0.20019634
000010 9e 0f 24 be 11 6b 39 3f 83 f5 92 3e d6 3c 5a 40
       -0.16021582 0.72428995 0.28702936 3.4099631
000020 cc dd f2 bb 86 50 6f bd be d6 4f 3d 7e a2 39 be
       -0.007411694 -0.058426403 0.050741903 -0.18128392
000030 15 07 b7 3c aa c3 0e 3d 33 97 87 bd 22 db 6a be
       0.022342244 0.03485457 -0.06620636 -0.22935155
000040 d6 b8 0a c0 44 25 35 bd 17 28 d7 3d b6 12 de bd
       -2.1675315 -0.044224992 0.105056934 -0.108434126
000050 04 76 d9 be 0f 7f 7b 40 93 48 fd bd 6f c2 fd 3d
       -0.4247285 3.92963 -0.12367358 0.12390601
000060 29 f9 0b bf 35 2b bd 3e f9 e5 0e be 48 01 b9 3e
       -0.54677063 0.36947027 -0.13954915 0.3613379
000070 27 97 8e ba 82 92 ca 3d e9 d8 26 bd 8c aa 21 3f
       -0.0010878787 0.098912254 -0.040734205 0.6315086
000080 e8 15 0d 3f 9a f4 e1 3d cd e1 c9 bc ec 56 2a 3e
       0.5511155 0.11032982 -0.024643803 0.1663472
000090 ce 4c c4 3d e4 ad 9e 3e 2e 2b 85 bd a8 1f a6 3e
       0.09584962 0.30992043 -0.065023765 0.32446027
0000a0 2a 0a 8a bd 3f 1f 23 3e ac 81 9f 3e 9b e6 4e bc
       -0.0674022 0.15929888 0.3115362 -0.012628223
0000b0 c4 fb 4e be a6 19 34 be 8d b4 f2 3d 50 35 92 3c
       -0.20213228 -0.17587909 0.118508436 0.017847687
0000c0 fa 71 2d 3d f9 84 36 3e be be 0d 3e 4e 64 28 3e
       0.042345025 0.17824163 0.13842294 0.16444513
0000d0 d1 45 73 3e d9 07 01 3f f8 c4 ef bc bd b8 23 be
       0.23757102 0.504026 -0.029268727 -0.15988441
0000e0 c7 07 b0 3d 26 3c a7 3c ec c1 d1 3d 32 0a b4 3e
       0.085952334 0.020414423 0.10242066 0.35164028
0000f0 77 7a 07 be 1b 05 17 40 cc 0b 8a bd 5a 5b 1e 3f
       -0.1323031 2.3596866 -0.06740531 0.6185814
000100 35 c4 10 bf 55 6c 9e bd 56 d5 0a bf 82 93 fa be
       -0.5654939 -0.077355064 -0.54231775 -0.48940665
000110 91 f4 59 3e f6 2f 55 be 74 45 88 3d 85 c6 8a 3d
       0.21284701 -0.20819077 0.06653872 0.06776146
000120 8d 10 27 3c f8 26 98 3c b7 01 c5 be 9a 29 9b 3d
       0.010196817 0.01857327 -0.3847787 0.07576294
000130 aa 1e 43 be 53 9c 8c 3b 71 37 fc be 3a 22 21 bd
       -0.19054666 0.0042910962 -0.49261048 -0.03933928
000140 86 5d 0b bf 9d c2 40 3d 51 1c 15 be 1c 05 22 bf
       -0.5443958 0.047060598 -0.14561583 -0.63289046
000150 1b d6 ac be a4 1f 4f bc a8 08 03 3d 83 92 3e bd
       -0.337571 -0.012641821 0.031990677 -0.046526443
000160 b8 ca 05 bd 07 b8 57 be 21 bc e8 be ea 6f a1 be
       -0.03266403 -0.21066295 -0.4545603 -0.31530696
000170 63 d8 60 3d 18 36 73 be 35 ab 1c bd e6 10 d8 bd
       0.054893862 -0.23751104 -0.038249213 -0.10550098
000180 bb 15 98 be 97 07 65 3d 83 04 01 bf ac c0 ca be
       -0.2970408 0.05591544 -0.5039751 -0.39600122
000190 b8 ce df bd 18 3c f1 bd 0b 7e 0e be 51 b7 18 bd
       -0.109281 -0.1177904 -0.13915269 -0.0372842
0001a0 77 ce 8a bd d4 a1 34 bd 75 ad c0 be c5 c3 a3 3d
       -0.06777661 -0.044099644 -0.37632337 0.079963244
0001b0 92 cf 04 3e 56 1a b4 bc 03 3b b7 be 0a 5f 7a 3d
       0.12969807 -0.021985214 -0.3578721 0.061125793
0001c0 6d c2 47 be a3 39 48 3c 17 de fc bc 40 e9 97 be
       -0.19507761 0.012220773 -0.03086762 -0.29670143
0001d0 75 95 87 be f9 70 c2 bc ca 11 9a 3d 54 1c 0f bd
       -0.26481214 -0.02373551 0.07522924 -0.034939125
0001e0 7e ea 44 3d 83 2b 86 be ba 84 ad be 3d 36 a5 be
       0.04807519 -0.26205072 -0.33890325 -0.32267943
0001f0 7e 34 36 bd 31 91 28 3d bb c4 1c 3e af 1a 75 3d
       -0.044483654 0.04115409 0.15309422 0.0598399
000200 e9 a5 98 bd ff be cf bd de d3 01 bd 8c 33 09 3e
       -0.0745352 -0.101438515 -0.031696193 0.1339857
000210 34 e8 93 3d f8 83 90 3f 27 9b 1d 40 6b 82 82 3f
       0.072220236 1.1290274 2.4625947 1.019605
000220 e1 60 77 bd da 5a ed 3d 9c ca 62 3d 10 b6 a4 3d
       -0.060395125 0.11589594 0.055369005 0.08042538
000230 25 e7 68 3f 36 dc 69 3f 37 d8 be 3d df fd a8 bd
       0.909777 0.9135164 0.093185835 -0.08251547
000240 37 e1 d8 be 90 3d ed 3d ce 7a 9a bd c9 3f f0 bd
       -0.42359325 0.11584008 -0.075429544 -0.11730916
000250 18 34 67 3e 6a 6d 64 3f 2c 25 09 be 26 f5 23 3f
       0.22578466 0.8922945 -0.13393086 0.6404594
000260 04 d3 5b 3d 92 72 12 be 45 d4 0c 3c 81 3a 98 3e
       0.053668037 -0.14301518 0.008595531 0.29732135
000270 43 c5 3e 3f 1f 01 b4 bd f6 3e 38 3e 6a 41 66 3e
       0.7451975 -0.08789276 0.17992768 0.22485891
000280 3b 29 b1 bd ee f5 8e bd 00 f0 2a bf 78 81 ee be
       -0.08650442 -0.06980501 -0.6677246 -0.46583152
000290 c9 63 98 3d aa 09 8b bd a2 26 9d be 1c 40 bd 3d
       0.074409075 -0.06788953 -0.30693537 0.092407435
0002a0 c3 50 bf 3d 93 6c 2e 3e d6 c4 a8 be e4 45 8c 3c
       0.09341576 0.17033605 -0.32962674 0.01712317
0002b0 71 f0 30 bf 33 a4 1b bf 5f 99 11 bf 9f e4 04 be
       -0.69116884 -0.60797423 -0.5687465 -0.12977837
0002c0 65 10 1d 3f 13 75 5a bd ff 6e 43 bd 04 70 2c bf
       0.6135314 -0.053334307 -0.047713276 -0.6735842
0002d0 c9 37 87 3e 06 6c 8b bd 80 df 63 bb 69 95 33 bf
       0.26409748 -0.06807713 -0.0034770668 -0.70149857
0002e0 e8 ad df 3e 18 a1 d6 be 1f 62 19 bf 9e f1 1e bf
       0.43687367 -0.4191978 -0.59915346 -0.6208743
0002f0 85 76 2e bf ca a9 72 3d ec b6 19 3e 0e 69 51 be
       -0.68149596 0.059243955 0.15011185 -0.20450231
000300 23 3c de 3d 24 1d 3a be 92 eb f0 bc f5 af 9f 3c
       0.10851314 -0.18175179 -0.029409204 0.019493083
000310 7a ca d5 3c 39 8c c6 bf 77 b3 2c bf c0 ae 3b c0
       0.026097525 -1.5511543 -0.6746134 -2.932541
000320 4b 62 9a 3d 69 29 e7 bd 5a 50 ca 3d be 94 c0 bd
       0.07538279 -0.11287195 0.09878607 -0.0940337
000330 bb 57 06 c0 9f 78 ed bf b9 2e 9b 3d 5d f0 f6 bd
       -2.0991046 -1.8552436 0.07577271 -0.120575644
000340 e3 7e 91 3d 6b 10 3e be 04 93 fb 3c 3d 67 0d 3e
       0.0710428 -0.1856095 0.030709751 0.13808914
000350 3c 46 a9 3d 25 6f f3 bf aa 72 d7 3d 7a e0 04 c0
       0.08265349 -1.9018294 0.10519917 -2.076201
000360 1f a5 2f be 2c 00 df bd a0 80 d9 3d 80 c5 be 3d
       -0.17152832 -0.10888705 0.106202364 0.09315014
000370 7d 60 04 c0 4b 42 ed be 70 17 1c be d3 62 df bf
       -2.0683892 -0.4633964 -0.15243316 -1.7452034
000380 2f ea 21 3c 7f 75 30 3e 77 cf 2f be f2 d4 9b bd
       0.009882494 0.17232321 -0.17168985 -0.076089755
000390 2b 1f 41 be 77 72 19 40 a7 9d 77 3f e4 cf a9 3f
       -0.18859546 2.3976114 0.96724933 1.3266568
0003a0 0c 66 88 be 4e bf 8d bd e6 fc b4 3d 59 58 38 bd
       -0.26640356 -0.06921254 0.08837299 -0.04500613
0003b0 42 b3 1c 3f bc 4b 22 3f e7 5d 64 3c b1 03 63 bd
       0.61211026 0.6339681 0.013938404 -0.055423442
0003c0 9a f0 09 bf 90 1a b4 3d e0 1b 0c 3e fb ab 92 3d
       -0.53882754 0.08794129 0.13682508 0.07161709
0003d0 d9 f6 13 3e 32 0d 22 3f f2 11 e6 3d 60 25 34 3f
       0.14449634 0.63301384 0.112338915 0.7036953
0003e0 cd 1e ab bc 78 d4 ac 3e dc db 15 3e 24 a8 9a 3d
       -0.02088871 0.3375585 0.14634651 0.075516015
0003f0 53 e3 d0 3e b3 07 ba 3c 46 af 03 3e 7e b7 ec bd
       0.40798435 0.02270875 0.1285983 -0.11558436

dense.0.denselayer1.norm2.weight f4 [48]
000000 af e2 72 3f f1 22 1b 3f 9e b8 15 3f a5 76 24 3f
       0.9487714 0.6060019 0.5848483 0.6424354
000010 2e 68 9d 3f 2a b0 91 3f 78 3b 32 3f 08 78 95 3f
       1.2297418 1.1381886 0.6962199 1.1677256
000020 24 d5 91 3f 47 f1 3f 3f cf 17 34 3f c1 1f 0c 3f
       1.139317 0.74977535 0.7034883 0.5473595
000030 9b d5 91 3f 9d f1 b4 3f 8c 50 36 3f e0 69 28 3f
       1.1393312 1.4136235 0.71216655 0.6578655
000040 6f ae 71 3f f4 ff 91 3f 5a cb bd 3f 2a 20 37 3f
       0.9440679 1.1406236 1.4827683 0.71533453
000050 f6 fb 8f 3f 26 7a 39 3f 65 7e 9b 3f 27 cd 37 3f
       1.1248767 0.7245201 1.2147948 0.7179741
000060 ed a5 a4 3f 85 f6 02 3f 58 e4 4b 3f 5d e5 ab 3f
       1.2863137 0.5115741 0.796453 1.3429371
000070 08 fa 9e 3f d7 98 5d 3f 7c 2a 96 3f ca 2b 28 3f
       1.2420053 0.8656134 1.1731715 0.65691817
000080 16 bb 34 3f 54 fe 90 3f 07 da b1 3f 80 a1 8a 3f
       0.7059797 1.1327615 1.3894662 1.0830536
000090 89 c9 a4 3f e1 61 3d 3f 13 9d 24 3f 87 98 9f 3f
       1.2874004 0.73977476 0.64302176 1.2468423
0000a0 c9 e0 28 3f 34 e9 3c 3f a9 69 a5 3f 95 ea 7b 3e
       0.65967995 0.7379334 1.292287 0.24601205
0000b0 07 e7 39 3f e1 19 96 3f 8d d9 a4 3f d8 8f 7a 3f
       0.72618145 1.1726648 1.2878891 0.9787574

dense.0.denselayer1.norm2.bias f4 [48]
000000 cd 3f 61 bb 44 84 1a bf a6 06 4c be 50 1b 98 be
       -0.0034370304 -0.6035807 -0.19924411 -0.29708338
000010 81 e1 20 3e ba 97 78 3e cf 19 7b 3e b4 15 05 3e
       0.15711023 0.24276629 0.24521564 0.1299656
000020 67 11 ce 3d 31 98 6a be 40 af 8a be 2e 52 c4 be
       0.10061913 -0.22909619 -0.2708683 -0.38343948
000030 ee 40 fc 3d 1b 27 8f 3e 25 c7 19 be 4a ec 40 be
       0.12317072 0.27959523 -0.15017374 -0.18840137
000040 9a 26 9c bb 38 10 13 3e dd 80 8a 3e 4f ca 78 be
       -0.004765344 0.14361656 0.2705144 -0.24295925
000050 78 7b 0c 3e fb bb 4c be 1e 37 0b 3e ac 9c 78 be
       0.13718975 -0.19993584 0.13595244 -0.24278516
000060 34 9c 48 3e e4 f8 33 be 75 f6 28 be 86 4e 4d 3e
       0.19590837 -0.17575413 -0.16500266 0.20049486
000070 5d 8b 3a 3e 39 52 b0 bd d4 40 c2 3d c3 0f 7f be
       0.18217225 -0.08609433 0.09485021 -0.24908356
000080 68 2b 6e be 13 a1 22 3e 55 1d 76 3e 57 6d df 3d
       -0.23258746 0.15881757 0.24034627 0.10909527
000090 2e b7 b5 3e cd ff 75 be 51 08 92 be ab 6c 4f 3e
       0.35491318 -0.24023362 -0.2852197 0.20256297
0000a0 ad f5 8a be 7d ef 74 be b1 17 26 3e d3 bf df bd
       -0.2714056 -0.23919483 0.16219975 -0.109252594
0000b0 72 03 59 be af 1e 17 3e 10 e5 7d 3e f6 4c 11 bd
       -0.2119272 0.14757799 0.24794412 -0.035473786

dense.0.denselayer1.norm2.running_mean f4 [48]
000000 0c d0 36 40 30 de da 3f 38 52 aa bf 91 50 2b bf
       2.8564482 1.7099056 -1.3306341 -0.6691981
000010 b6 fc 16 40 a0 ff a8 bf 04 0f d1 c0 0c 5d 13 40
       2.3591743 -1.320301 -6.533083 2.3025541
000020 ca 45 7a 40 20 68 40 bf 58 5b 2e bf a4 da 57 40
       3.9105096 -0.7515888 -0.6810813 3.3727198
000030 a5 8a 39 40 d1 74 4e 40 88 88 af c0 cf 0d 9b c0
       2.8990872 3.22588 -5.4854164 -4.8454356
000040 f7 84 7f 40 0d c1 0a 40 c0 11 65 40 e9 6c 4b bf
       3.9924905 2.168033 3.5792084 -0.7946306
000050 00 f9 71 3f b8 d3 d4 bf 5c 62 7f 40 10 d9 60 bf
       0.9452057 -1.6627111 3.9903784 -0.8783121
000060 e3 80 10 40 3d e6 f3 bf fb be 84 40 07 34 64 40
       2.2578666 -1.9054638 4.148313 3.5656755
000070 ce 71 79 40 7b c5 c4 3f 8e fd 67 40 22 22 6b bf
       3.897571 1.5372766 3.6248507 -0.9184896
000080 81 2d bd bf a1 14 f9 3f 91 1e 73 40 9c 23 01 40
       -1.4779512 1.945942 3.7987406 2.0177984
000090 3d a0 4b 3e 77 1a c9 be 85 0f 58 bf a9 dc 3b 40
       0.19885345 -0.39278004 -0.8439868 2.935343
0000a0 6d 6e 4f bf 4b 01 a4 bf 5c 61 5b 40 94 24 8d c0
       -0.8102787 -1.2812895 3.4278173 -4.410715
0000b0 d7 b3 72 bf 35 e0 f9 3f 36 64 5b 40 30 fa 72 40
       -0.94805664 1.9521548 3.4279914 3.7965202

dense.0.denselayer1.norm2.running_var f4 [48]
000000 ad 03 2b 43 41 59 51 40 56 b0 b1 40 dc 27 4f 40
       171.01436 3.2710726 5.5527754 3.2368078
000010 03 cd 9c 42 97 2f 99 41 91 0f b3 43 9f 09 8c 42
       78.40041 19.148237 358.1216 70.01879
000020 ba 10 27 43 d8 e1 4e 40 e5 8c 51 3f 1f 98 ed 42
       167.06534 3.2325344 0.81855613 118.79711
000030 82 62 ba 42 17 ef d4 42 5d 62 9f 43 62 e5 7a 43
       93.1924 106.46697 318.76846 250.89603
000040 d7 5c 27 43 58 02 f2 42 59 61 01 43 ac 53 c8 40
       167.36266 121.00458 129.38026 6.260214
000050 7c fc 44 41 8a 9d fd 41 ff fa 06 43 05 c2 0a 41
       12.311642 31.701923 134.98045 8.672368
000060 40 63 97 42 1d 3e 1e 42 a9 38 2c 43 ac 86 fb 42
       75.69385 39.560658 172.22133 125.76303
000070 4c 3d 1c 43 1d 0a 07 43 71 b1 f8 42 77 26 1b 40
       156.23944 135.0395 124.346565 2.4242227
000080 93 40 d6 41 55 f2 a3 42 e8 5d fe 42 9a f1 95 42
       26.78153 81.973305 127.18341 74.97188
000090 91 1e 85 41 d7 be 37 3f 2a 41 45 40 cc 79 be 42
       16.639925 0.71775573 3.0821023 95.237885
0000a0 d7 d5 1c 40 91 b1 4b 41 e4 52 d7 42 9e c3 1f 43
       2.4505517 12.730851 107.661896 159.76413
0000b0 31 1e 11 40 7e 3d 8d 42 67 b9 2f 43 5d 6f 11 43
       2.2674677 70.6201 175.72423 145.43501

dense.0.denselayer1.conv2.weight f4 [12, 48, 3, 3]
000000 d4 22 d6 be 2d 27 1a 3e 27 9c 04 bf c6 be b1 3d
       -0.41823447 0.15054007 -0.5180077 0.08678965
000010 90 70 6b bd 1b bf b8 3d 93 59 1d bf 74 06 3f 3e
       -0.057480395 0.090208255 -0.61464804 0.18654805
000020 3d 49 d8 be 6e 89 46 be cc 7b 9e 3d 2d 38 e0 3d
       -0.42243376 -0.19388363 0.07738456 0.10948215
000030 b6 9d b4 3d 3e 5f 30 3c 31 73 2e 3e f9 f0 07 3e
       0.088191435 0.010764895 0.1703613 0.13275518
000040 bf 57 b1 3e 57 06 4b 3d 18 fd 92 bc b3 0d d4 3c
       0.34637257 0.049566593 -0.01794295 0.025885439
000050 40 6e 3a be c6 60 6a 3d fe cc cf 3d 58 9c c6 bd
       -0.1820612 0.057221197 0.10146521 -0.09697789
000060 7d 49 09 be 37 95 3d bc 61 ff c1 bd 78 11 63 bc
       -0.1340694 -0.01157122 -0.09472538 -0.013859145
000070 f6 bd ad bd d6 f4 47 bc 32 79 c0 3d d4 4e 80 bc
       -0.08483498 -0.0122043695 0.09398116 -0.015662588
000080 6b 02 7c 3c 3c 2f f6 3c 50 c4 7e bd 16 8a 97 3c
       0.015381436 0.03005182 -0.062198937 0.018498462
000090 e0 a7 c2 be 69 25 9c 3d 83 75 14 bf d4 19 0e 3d
       -0.38018703 0.07624323 -0.5799181 0.0346926
0000a0 91 8d 40 bd d2 7b 93 3c 58 8e 26 bf 2a 64 88 3d
       -0.04701001 0.018003378 -0.6506095 0.0665973
0000b0 10 46 e1 be 27 83 24 bf b5 86 cf 3e 0f 7c ee be
       -0.43998766 -0.6426262 0.4053246 -0.46579024
0000c0 a4 be 52 3e 63 f0 95 3f aa b6 99 3e 51 91 5d bf
       0.20580536 1.1713985 0.30022174 -0.8654986
0000d0 b8 81 f5 3d 1b be 53 bf 9a 9c 63 bf 58 ff 1b 3f
       0.119876325 -0.8271195 -0.8891083 0.609365
0000e0 4f 5d 35 bf 9e 58 d6 3e a5 a3 a1 3f ae c0 23 3f
       -0.708455 0.41864485 1.2628065 0.6396588
0000f0 14 82 8a bf 7c ef c6 3e 77 1b 8b bf da 91 de be
       -1.0820947 0.38854587 -1.0867757 -0.4347065
000100 dd d9 0c 3e 97 3d 00 bf e6 0b 3b 3d 46 48 d8 bd
       0.13754983 -0.5009398 0.045665644 -0.1056066
000110 0d 36 f1 3c 4e a4 14 bf aa e5 c1 3d 31 d6 de be
       0.029444719 -0.5806321 0.09467633 -0.4352279
000120 41 4c 89 bf 91 9a 04 3f 18 a8 97 bf 81 35 d7 3e
       -1.0726396 0.5179835 -1.1848173 0.42033008
000130 99 74 75 3e c2 bd f3 3e 10 e5 97 bf ae 07 01 3f
       0.2397026 0.4760571 -1.1866779 0.50402343
000140 a1 a2 9a bf 1a d1 56 bd 90 20 07 bc b8 e7 12 3d
       -1.208088 -0.05244551 -0.00824751 0.035865515
000150 da da cf bc e6 17 89 3c 77 0c 91 bc 7a b2 0b 3c
       -0.025372911 0.016735028 -0.017706139 0.008526439
000160 22 67 9f 3d f8 a9 3b bc da 8d 8d 3a f0 ba 8a bd
       0.07783343 -0.011454098 0.0010799721 -0.06773937
000170 48 ad 7d bd 49 40 34 3d 15 a6 9e 3b f6 1f 34 bd
       -0.061932832 0.04400662 0.004841576 -0.043975793
000180 78 f4 a2 3d e3 27 3c 3d a5 f0 22 bd e1 49 8a bf
       0.07956785 0.045936476 -0.039780278 -1.0803796
000190 ad 7d f2 3e 2b 71 96 bf 68 c0 00 3f 63 7c 60 3e
       0.47361508 -1.1753286 0.5029359 0.2192245
0001a0 c6 3e d8 3e 43 93 97 bf 63 bc fc 3e 9f 4c 96 bf
       0.42235392 -1.1841816 0.49362478 -1.1742133
0001b0 74 42 c4 be 6b d4 ab 3d 0e 1c 13 bf de fd 4a 3d
       -0.3833195 0.08390125 -0.57464683 0.049558513
0001c0 db b9 cf bc 7b 2b 33 3d 46 1d 1f bf 4c a7 de 3c
       -0.025357177 0.043742638 -0.6215404 0.027179383
0001d0 77 ef ec be f2 20 b5 be 24 b7 e9 3d 01 3a 13 bf
       -0.46276447 -0.35376698 0.114118844 -0.5751038
0001e0 e4 bd 3c 3d 1b 40 c0 bc f8 9c c6 3c 97 12 25 bf
       0.04607953 -0.023468068 0.02424477 -0.6448149
0001f0 0e 0d 45 3d c7 32 f1 be 95 64 09 bf ca 03 e4 3e
       0.048108153 -0.47109053 -0.536691 0.4453414
000200 cd 91 b2 be 14 af c7 3e 5b 00 84 3f ee f6 c9 3e
       -0.34876862 0.39000762 1.0312608 0.39446205
000210 1f d2 3f bf 6c 81 61 3e 23 e2 4a bf 0f 31 e9 be
       -0.74929994 0.22022027 -0.7925131 -0.4554524
000220 a5 3e ba 3e f2 e6 e9 be a0 75 42 3e a6 9c 5c 3f
       0.3637592 -0.4568401 0.18990183 0.86176527
000230 07 39 67 3e bf c2 3b bf 94 bd ce 3d 2d 0b 42 bf
       0.22580348 -0.73344034 0.10094753 -0.757983
000240 ed 50 8c bf 1f 71 01 3f ef 52 8e bf 2a 9f f4 3e
       -1.0962197 0.50563234 -1.1119059 0.47777683
000250 f6 72 a5 3e 66 b7 c6 3e 09 1c 94 bf e8 3a 09 3f
       0.3231427 0.38811797 -1.1571056 0.5360551
000260 73 9f 9f bf f6 cf d4 be 6b c5 12 3e 4f 97 08 bf
       -1.2470535 -0.41564912 0.14333121 -0.5335588
000270 ea b1 95 3d 79 b8 ed bc 21 45 5d 3d b1 6e 1b bf
       0.07309325 -0.029018627 0.054021005 -0.60715777
000280 9b 55 8d 3d cd ad c9 be f8 e5 8e bf e2 4a fb 3e
       0.069010936 -0.39390412 -1.1163931 0.4908057
000290 55 ee 96 bf 3d ad d8 3e 75 b7 a2 3e 3c 2f da 3e
       -1.1791483 0.4231967 0.31780592 0.42614162
0002a0 b4 fe 94 bf 6c 90 05 3f 88 5a 98 bf 40 a7 33 bd
       -1.1640229 0.52173495 -1.1902628 -0.043860674
0002b0 f5 a6 26 bc b2 d1 24 bc d0 26 1c bc 03 60 f8 3c
       -0.010171642 -0.010059761 -0.009530738 0.03031922
0002c0 98 58 15 bd 41 47 22 3d 7a 3d 26 bd 78 aa 26 3c
       -0.036461443 0.039618734 -0.040585972 0.010172479
0002d0 36 dd 22 bf 5a 53 c2 3e 41 f9 e3 be 37 ed 93 3e
       -0.6361879 0.37954217 -0.44526103 0.28891918
0002e0 57 26 99 3f a1 fb aa 3e b4 a5 61 bf 17 4c 01 3e
       1.1964825 0.33395103 -0.8814347 0.12626682
0002f0 54 a0 4d bf 80 18 85 bd 46 3f ee 3b 6f 27 d0 bd
       -0.80322766 -0.06498814 0.0072707264 -0.10163771
000300 1b a4 00 bd e3 de 43 3e 46 60 80 bd f2 06 80 bd
       -0.031406503 0.19127993 -0.06268363 -0.06251325
000310 6d 21 36 3c 30 27 07 be cc 8c 92 bf a1 e3 02 3f
       0.011116368 -0.13198543 -1.1449218 0.51128584
000320 cb 7d 90 bf 52 40 e2 3e 00 f7 7d 3e 5d 69 ea 3e
       -1.1288389 0.44189698 0.24801254 0.4578351
000330 00 a2 95 bf 8f 58 fe 3e 09 e2 a0 bf 0f c1 47 bd
       -1.1690063 0.4967694 -1.256898 -0.0487681
000340 2b 21 43 bd 97 15 7a bd ac 6c b0 3b 0b b1 0d 3d
       -0.047639053 -0.061055746 0.0053840484 0.03459267
000350 43 e1 b1 bd 4c 31 60 3c 68 75 44 bd 8f b4 1a bd
       -0.086855434 0.013683628 -0.04796353 -0.03776985
000360 32 c5 bd be 04 c0 8a 3d 22 df 13 bf 0f 90 ea 3d
       -0.3706451 0.06774905 -0.5776235 0.11453258
000370 bb ad a2 bc 28 82 a3 3c 0d a1 17 bf 20 88 cf 3d
       -0.019858232 0.019959524 -0.5923012 0.10133386
000380 88 9a e9 be 83 39 2d be f3 35 42 3e 03 fa 28 be
       -0.4562571 -0.1691647 0.18965892 -0.16501622
000390 d2 5c 3a 3e 96 e2 7d 3e 7e 81 02 3e 02 ac 9e be
       0.1819947 0.24793467 0.1274471 -0.30990607
0003a0 97 b8 78 3e 9b d5 0d be fc 27 87 bf 93 f2 ff 3e
       0.24289165 -0.13851015 -1.0559077 0.49989757
0003b0 d4 1e 93 bf 45 b4 fc 3e b1 6e 7b 3e 02 84 e3 3e
       -1.1493783 0.49356285 0.24553944 0.4443665
0003c0 16 26 94 bf 26 2f 03 3f 0b c2 a0 bf 67 f9 8c bf
       -1.1574123 0.5124382 -1.2559217 -1.1013612
0003d0 e0 68 ea 3e 30 5d 93 bf 4a 7f d8 3e d4 4c 8c 3e
       0.45783138 -1.1512814 0.42284614 0.27402365
0003e0 ef 48 e9 3e e4 5a 9a bf d3 87 10 3f 76 ad 9f bf
       0.45563456 -1.2058988 0.5645725 -1.2474811
0003f0 4d a7 89 bf 1e 24 f6 3e b8 03 8d bf 9c 6b e0 3e
       -1.0754181 0.4807443 -1.101676 0.438321

dense.0.denselayer2.norm1.weight f4 [44]
000000 f6 b5 b0 3e d6 27 36 3f 54 f6 c1 3e 01 42 15 3e
       0.34513825 0.71154535 0.37883246 0.1457596
000010 f1 47 39 3f 5c 6b 34 3f 04 b9 06 3e 4e 86 d5 3e
       0.723754 0.7047632 0.13156515 0.4170403
000020 d5 3e 3a 3f 00 00 80 3f 3f 4c 83 3e 65 ad 43 3f
       0.72752124 1.0 0.2564411 0.76436454
000030 42 6c 1a 3f ea 11 07 3e a6 52 12 3e b7 b7 35 3f
       0.6032144 0.13190427 0.1428934 0.7098345
000040 1e b4 1c 3f 18 dd 3b 3f 53 d4 3a 3f 05 01 56 3f
       0.61212337 0.7338424 0.7298023 0.83595306
000050 d4 26 0c 3f 45 79 10 3f 00 00 80 3f 01 a9 21 3e
       0.54746747 0.5643504 1.0 0.15787126
000060 6c 89 2f 3f bf 58 1c 3e f0 f1 58 3f 21 da 4d 3e
       0.68569064 0.15268229 0.8474417 0.20102741
000070 c7 8f f7 3e 7b 59 5e 3f 7c e7 46 3f 4f 44 bc 3e
       0.4835188 0.86855286 0.7769697 0.36770865
000080 e6 47 ad 3f 40 b7 25 40 dc c8 cb 3f ad c0 e8 3f
       1.3537567 2.5893097 1.5920672 1.81838
000090 80 b1 e4 3f 53 1c 13 40 26 4d d9 3f 32 c1 77 3f
       1.7866669 2.2986038 1.6976669 0.9677917
0000a0 a8 19 be 3f 5a f8 ae 3f 7a 65 dd 3f bb 47 b7 3f
       1.485158 1.3669541 1.7296593 1.4318765

dense.0.denselayer2.norm1.bias f4 [44]
000000 dc fd ae be c7 e7 89 be 5a 37 ce be b9 c0 4e bf
       -0.34178054 -0.26934645 -0.40276605 -0.8076282
000010 db 9e 8e be a5 49 1c be 53 27 51 bf 8e ea e8 be
       -0.27855572 -0.15262468 -0.8170063 -0.4549145
000020 ef 8a 8d be 00 00 00 00 af 26 1f bf 11 e6 7a be
       -0.2764506 0.0 -0.621684 -0.24501826
000030 7e e8 98 be 8f 97 58 bf c3 2b 51 bf 5f 89 98 be
       -0.29864877 -0.8460626 -0.817074 -0.29792306
000040 60 12 c9 be 54 6d 98 be a8 81 9a be da 68 b2 3d
       -0.39271832 -0.2977091 -0.30177045 0.08711405
000050 a3 80 ca be d2 f0 8b be 00 00 00 00 79 4c 57 bf
       -0.39551267 -0.2733217 0.0 -0.84101063
000060 26 fb 81 be 6f 0b 33 bf 80 57 d5 3d a4 e9 10 bf
       -0.25386924 -0.6993932 0.1041708 -0.5660651
000070 f1 f4 dc be d8 95 bd 3d 9d a0 81 be 2a a0 a1 be
       -0.43155625 0.09257096 -0.2531785 -0.31567508
000080 c1 9f af 3e 48 cf b5 be f4 c0 df 3e 86 b1 7a 3e
       0.3430157 -0.35509706 0.437019 0.24481782
000090 ae ec ae 3e bf 13 87 3e 8d c6 d0 3e d1 97 2b bf
       0.34164947 0.26382253 0.40776482 -0.6702853
0000a0 0e 28 61 3e 9e 4a 1f 3f e1 54 4d bd 2f 90 19 3f
       0.21987936 0.6222323 -0.050129775 0.5998563

dense.0.denselayer2.norm1.running_mean f4 [44]
000000 a4 24 d3 3f 3b d6 ba 3f f2 a9 48 3e f4 21 77 3e
       1.6495557 1.4596628 0.19596079 0.24134046
000010 e0 3f d3 3e 54 1f b4 3f b5 01 50 3f 7e 75 05 40
       0.4125967 1.407206 0.81252605 2.0852962
000020 ba 07 48 3f 00 00 00 00 5e 4b 83 3f 06 71 57 3f
       0.7813679 0.0 1.0257375 0.84156835
000030 94 6f 8a 3e 80 a0 d3 3e 47 95 87 3e c6 aa 8e 3f
       0.27038252 0.4133339 0.26481077 1.1145866
000040 aa 1c a5 3f 64 a5 a7 3f f4 8e b6 3f 19 12 37 3e
       1.2899373 1.3097348 1.4262376 0.17877997
000050 7f d4 58 40 f4 e8 d1 3e 00 00 00 00 4d ee 2a 3e
       3.3879697 0.40998042 0.0 0.16692467
000060 8a 19 12 40 e0 4a 3c 3f 33 4a 8c 3e 8b e0 b6 3e
       2.2828088 0.7355175 0.2740036 0.35718188
000070 ce 7e 67 3e 08 fa e1 3f 1e 80 91 3f 32 76 61 3e
       0.22606966 1.7654428 1.1367223 0.22017744
000080 de 49 44 c1 6a e0 2c c1 5e 60 7d c0 b4 ab ba c0
       -12.268034 -10.804789 -3.9590068 -5.83346
000090 e2 a8 00 c1 59 d5 e4 c0 e6 ad fa c0 d4 e8 9b c1
       -8.041231 -7.1510434 -7.833728 -19.488686
0000a0 a2 03 10 c1 6a 51 11 c0 fb 3c 3c c1 16 80 e0 c0
       -9.000887 -2.2705941 -11.764888 -7.0156355

dense.0.denselayer2.norm1.running_var f4 [44]
000000 63 79 f1 3e 69 1a db 3d d0 80 49 3f 2f d8 98 3f
       0.47162923 0.10698397 0.7871218 1.1940974
000010 8d ff 9b 3c 5c c1 c0 40 3d 57 8c 40 ff b9 21 41
       0.019042755 6.0236034 4.385649 10.107909
000020 25 73 8b 3d 04 00 00 00 01 64 be 40 db 1d 14 3d
       0.068090715 6e-45 5.9497075 0.036161285
000030 75 aa a9 3f ff 03 c9 3f 90 06 b8 3f 2d c3 0d 3e
       1.3255144 1.5704345 1.4377003 0.13843985
000040 b1 db 3d 3e 78 8e b4 3d 53 e5 d2 3d 75 b6 27 3f
       0.18540837 0.08816236 0.102976464 0.6551278
000050 50 2d a1 3f 63 c8 15 40 04 00 00 00 39 56 01 3f
       1.2591953 2.3403556 6e-45 0.5052219
000060 3d ef 84 3e 9e ce 22 40 1e fa c4 3f 09 27 23 40
       0.25963774 2.543861 1.538883 2.5492575
000070 97 39 6d 3f 0d 20 bb 3e 26 38 86 3d 6d 7b 19 3f
       0.92666 0.3654789 0.06553678 0.5995396
000080 d4 2f be 44 40 5f 99 44 07 8e be 44 45 a9 77 44
       1521.4946 1226.9766 1524.4384 990.64484
000090 ad 79 05 45 b0 8e a3 44 a5 e0 ff 44 ea 5c ff 44
       2135.6047 1308.459 2047.0201 2042.9036
0000a0 90 16 b4 44 cc b3 66 44 e9 11 0e 45 3f 29 f5 44
       1440.7051 922.8093 2273.1194 1961.289

dense.0.denselayer2.conv1.weight f4 [48, 44, 1, 1]
000000 b2 4b 42 3e e5 d7 98 3d 52 f4 b0 3c f9 24 be 3d
       0.18974188 0.074630536 0.021600876 0.09284396
000010 74 be fd 3d 69 44 c6 be e3 87 1e 3d da 9f a2 be
       0.12389842 -0.38724068 0.03870381 -0.31762582
000020 4a 93 e3 3d c8 14 63 bd 59 b2 8a 3d 1d 39 91 bd
       0.111120775 -0.05543974 0.06772298 -0.070909716
000030 28 46 8e be aa 43 19 be d5 27 81 3d dc b3 54 bd
       -0.277879 -0.14967218 0.063064255 -0.05192934
000040 8c d9 0b be 40 09 19 bd 83 1f a8 bd 42 b3 d3 3d
       -0.13657206 -0.037362337 -0.082091354 0.10336925
000050 d9 61 df bb ad 04 83 be c8 7a 0b be 35 4b 0d 3e
       -0.0068170843 -0.25589505 -0.13621056 0.1379822
000060 5a a5 86 bd 50 0d f8 bc cf 05 18 3e c0 66 b6 3d
       -0.06574507 -0.030279785 0.14845966 0.08906317
000070 51 b9 93 be bd df 97 3d f7 72 3a 3e 7f 1b 27 be
       -0.28852323 0.074157216 0.18207918 -0.16319083
000080 c6 d1 ca 3d 00 64 ee be 83 50 7a be f8 e7 e5 3f
       0.09903292 -0.4656067 -0.24444775 1.7961416
000090 0b e0 d1 3e 72 a8 62 3f 6a 80 10 3d ab 05 ce 3d
       0.40991244 0.8853828 0.035278715 0.10059675
0000a0 f4 7b c2 3d c8 5b 5d bd 02 26 95 be 58 1e ce 3e
       0.094962984 -0.054042608 -0.2913056 0.40257525
0000b0 03 0f f3 be 2b ba 10 3d ba 6f 19 bf 65 49 d0 bd
       -0.4747239 0.035333794 -0.59936106 -0.10170249
0000c0 ea 39 92 bd 2e 77 26 3e 1f c4 22 be 48 c6 65 bd
       -0.071399525 0.16256401 -0.15895127 -0.0560973
0000d0 40 f6 06 3e 22 97 fc bd 95 fc 14 bf fb 52 02 3d
       0.13179874 -0.12333514 -0.5819791 0.031817418
0000e0 c8 bc b7 3d cf f9 00 be a5 92 63 bd 01 27 80 3d
       0.08971554 -0.12595294 -0.055559773 0.062574394
0000f0 bb 6b ae bd 57 dc 2b be 1d 2b d7 bd 82 e8 49 bf
       -0.08516642 -0.16783272 -0.1050627 -0.78870404
000100 5b 4b f8 3d f8 fa 69 3e e4 40 86 3d 99 8b dc bd
       0.12123748 0.22849643 0.06555346 -0.10768814
000110 4b ba b8 3d 7d 21 4e bd 1e 01 21 bf 4f ba c4 be
       0.090199076 -0.050324906 -0.6289233 -0.38423392
000120 8b 0d b9 3d 01 d4 0e 3f bb cd 66 bd 32 c2 1b 3e
       0.09035786 0.5579224 -0.056348544 0.15210798
000130 f0 d3 fa 3e b3 d8 d4 bf 75 ce 04 bf 20 fd ae 3d
       0.4898982 -1.6628631 -0.5187753 0.085443735
000140 09 c5 35 3f f0 bd 5a bf 27 9c 22 3f d5 6c 84 be
       0.71003777 -0.8544607 0.6351952 -0.25864282
000150 5d d6 90 be dd bb 26 bf 3b d1 6b bd 40 5f f0 be
       -0.28288546 -0.65130407 -0.057572585 -0.4694767
000160 fa 01 37 bd c3 77 91 3e 1c 32 78 be f5 d4 ff 3c
       -0.04467962 0.28411683 -0.24237865 0.031229476
000170 42 56 5f bd 14 7c ec 3f 63 80 c9 3e 69 d7 06 40
       -0.05452562 1.8475366 0.39355764 2.1068976
000180 35 61 b5 bc c4 31 03 3e a7 22 48 bd ed 3d 38 3e
       -0.022141078 0.12811953 -0.048861172 0.17992373
000190 cf 8c a6 3f 8d 26 0a 3f f3 a3 e5 bd 7e a8 49 bd
       1.3011721 0.53965074 -0.112129115 -0.049232952
0001a0 d7 c0 d5 3d fd f8 8c 3e a7 b3 0a bc 94 80 73 be
       0.10437172 0.27533713 -0.008465684 -0.23779517
0001b0 70 b9 12 3d 0b 57 04 40 1a f6 07 be 11 66 b0 3e
       0.03582138 2.0678127 -0.13277474 0.3445287
0001c0 8d 0e 8e 3e c1 9a 2d 3f 9f 41 5c be 15 61 13 3e
       0.27745476 0.6781426 -0.21509407 0.14392503
0001d0 cd 09 8d 3f ba 5f 52 3d bb 9f 18 3e 9b 84 69 3f
       1.1018616 0.051360823 0.14904682 0.91217965
0001e0 db ea fa bd 86 07 55 be f0 5d 0b be 6a df c9 3e
       -0.122518264 -0.20803651 -0.13610053 0.39428264
0001f0 8e 54 e7 3e 83 ec 81 be c3 72 08 3e 18 56 13 bf
       0.45181698 -0.25375757 0.13325028 -0.57553244
000200 0f 29 91 3e d7 0a 17 be 5c d9 85 be 09 3f 9c 3e
       0.28351638 -0.14750229 -0.26142395 0.30516842
000210 a7 d0 9b be 35 6b 9c 3c cc 8a b0 be 3a 50 da be
       -0.30432627 0.019094089 -0.34480894 -0.42639333
000220 9b cc d3 3d 17 c4 3d 3e a5 3b 3c 3d 4f da 89 3e
       0.1034176 0.18531834 0.04595532 0.2692437
000230 39 4b a5 bd 4c 24 d4 bd 02 a5 8b be e0 0f 8e bc
       -0.08070988 -0.103584856 -0.27274328 -0.017341554
000240 bd 7d 91 3e a0 49 39 bd 09 c2 70 be 9c c8 22 3e
       0.28416243 -0.04523623 -0.23511519 0.15896839
000250 2b 5e 79 be c8 c5 01 be 62 ed 97 3d 95 f9 c9 be
       -0.24352328 -0.12673104 0.07418324 -0.39448228
000260 9d 91 52 bc 9f ac 8c 3e 00 02 7c 3c c9 38 38 3e
       -0.0128521 0.2747545 0.015381336 0.17990412
000270 a7 c6 15 3d 5a 6c 34 be 66 82 0e bf b4 ec ac be
       0.036566403 -0.17619458 -0.5566772 -0.3377434
000280 b2 5f ed 3d b9 9a fc 3d 92 ce a0 bd d4 0b 1b 3d
       0.11590518 0.123341985 -0.078519 0.037853077
000290 b0 45 f6 bd ed 40 40 bf 0e 46 c0 be 81 8d 14 3f
       -0.120250106 -0.7509907 -0.37553447 0.5802842
0002a0 a2 22 23 3f c6 0d bc 3f a0 ac f1 3d 01 99 9e be
       0.6372472 1.4691703 0.11800504 -0.30976108
0002b0 d0 f3 ff 3d e1 22 20 bf 67 0f b2 be f9 30 73 be
       0.124976754 -0.6255322 -0.34777376 -0.2374915
0002c0 39 d0 f4 3d 46 92 c2 3d d3 c7 93 3d 8b fe 18 3d
       0.11953778 0.09500556 0.07215848 0.037352126
0002d0 02 4b b4 bb 0f 8e 2b 3d 48 5c a5 3a 9c 10 a0 3d
       -0.0055021057 0.041883525 0.0012616003 0.07815668
0002e0 5f cc ff bd 10 97 c3 3c 6a bd b5 3d 5a 7e a2 bd
       -0.124901526 0.023875743 0.088740185 -0.07934256
0002f0 e0 95 f5 3c 1b cc 22 3d 45 51 df bc cf 39 94 bd
       0.029978693 0.03974543 -0.027260432 -0.072375886
000300 07 1f c9 3d e1 f3 0b 3e ea c8 58 3c d3 55 f4 3d
       0.09820371 0.13667251 0.013231495 0.11930432
000310 59 ee cd 3d 56 68 84 3e 2c ca 3b bd d0 82 03 3e
       0.10055227 0.25860852 -0.045847103 0.1284287
000320 95 ff bc 3c 49 9e 9f 3e 19 4f 2e 3e 2d 15 8e 3c
       0.02307109 0.3117545 0.17022361 0.017344082
000330 ae da cb 3c 45 49 aa bd 9d c6 2a 3e 4e 9f 6c 3d
       0.024884548 -0.08314756 0.16677327 0.057769112
000340 30 21 a6 be 3b 41 0d be 4a 73 11 bf 7b ff e9 bd
       -0.32447195 -0.13794415 -0.5681654 -0.11425682
000350 2e 8f b7 3f e5 a7 d1 3c de a7 d2 3f 16 65 15 3e
       1.434057 0.025592754 1.6457479 0.14589342
000360 08 64 d2 bd 7f d9 61 bd c8 34 07 be c4 d7 db be
       -0.10272986 -0.05513906 -0.13203728 -0.42938054
000370 bf ef 99 3e 12 93 f7 3a 21 a4 83 3e a7 7c 9a bd
       0.30065724 0.0018888435 0.25711158 -0.07543307
000380 68 71 8c bd ce 2f 47 bf 4c b1 c1 be 7b 78 23 bf
       -0.06857568 -0.7780732 -0.3783058 -0.63855714
000390 fa ff c0 3d 00 3c 67 b9 de 83 c0 3a 45 fb 25 3d
       0.09423824 -0.00022052228 0.0014687737 0.040522832
0003a0 f5 a8 56 bf 90 ef 04 bf e5 46 8d bc b4 d7 f6 3d
       -0.8385156 -0.51928043 -0.01724572 0.12052861
0003b0 08 1a 01 3e b1 4d 35 bc f8 6b c8 bd ae 05 6c 3e
       0.12607586 -0.011065886 -0.097862184 0.23049042
0003c0 02 b5 02 bc 71 62 47 bf cf e0 15 be fc 08 5f be
       -0.007977726 -0.77884585 -0.14636539 -0.21780771
0003d0 42 7f b5 bb 0e a8 cc bd 22 20 45 3e 74 09 1b 3e
       -0.005538852 -0.099929914 0.19250539 0.15140325
0003e0 13 f7 66 bf bb 6b ad 3d 9a 74 da 3d 44 85 34 bf
       -0.90220755 0.084678136 0.10666771 -0.7051585
0003f0 bb f2 c3 3e c9 b1 1e bf 75 68 c8 3e 43 c0 24 bf
       0.38271126 -0.6199003 0.39142194 -0.6435587

dense.0.denselayer2.norm2.weight f4 [48]
000000 8b 21 94 3f 1d f3 71 3f 31 aa b5 3f 58 3a 5c 3f
       1.1572737 0.94511586 1.4192563 0.86026525
000010 96 a6 99 3f 14 92 6c 3f 25 2b 55 3f 93 70 a8 3f
       1.2003963 0.924104 0.8326896 1.3159355
000020 dc da b4 3f 2e 89 8f 3f b3 81 af 3f c3 2a 98 3f
       1.412929 1.1213739 1.3711456 1.188805
000030 7d c2 4e 3f 23 46 46 3f 8d a6 55 3f 35 72 96 3f
       0.80765516 0.7745077 0.8345726 1.1753603
000040 7b e6 a6 3f cd 91 bc 3f 4f 87 3f 3f bc 1a 69 3f
       1.3039087 1.4731995 0.7481584 0.9105642
000050 4a 20 d4 3f ac b3 94 3f 63 30 2e 3f 20 d3 7e 3f
       1.6572354 1.1617332 0.6804258 0.995409
000060 e9 dd b2 3f c7 44 9b 3f 6f 2b 3e 3f 10 91 dd 3f
       1.3973972 1.2130364 0.74285024 1.7309895
000070 e6 16 9d 3f 60 2b 46 3f da 41 18 3f d3 ac 8f 3f
       1.2272613 0.77409935 0.5947548 1.1224617
000080 f7 5d b0 3f ac 12 44 3f 2a ba 15 3f a7 06 98 3f
       1.3778676 0.7659099 0.5848719 1.187703
000090 ae dc 5c 3f e4 22 7b 3f 2e bd 91 3f f3 2a 9a 3f
       0.8627423 0.98100114 1.1385858 1.2044357
0000a0 0b df 7d 3f 99 ed 93 3f a9 1f 3e 3f 81 5f 33 3f
       0.9916846 1.1556884 0.7426706 0.700676
0000b0 f3 5f 68 3f 11 46 b8 3f c7 c6 87 3f 62 90 99 3f
       0.90771407 1.4396383 1.0607537 1.1997187

dense.0.denselayer2.norm2.bias f4 [48]
000000 c9 63 9b be 69 bb 95 be 0d 2e 84 be c4 1d de 3d
       -0.30349568 -0.29244545 -0.25816384 0.10845521
000010 b2 ef 97 be 17 02 7f be ea 7c 45 bf 92 36 bd 3d
       -0.2967506 -0.24903141 -0.7714373 0.09238924
000020 84 23 b0 be 38 f5 8d be 21 2d 65 be cd 96 53 3e
       -0.34402096 -0.2772615 -0.22380497 0.20662995
000030 c2 12 ab bf a2 88 41 bf 6b c9 4f bf 7a 61 68 be
       -1.33651 -0.7559911 -0.81166714 -0.22693434
000040 01 4a b1 be 94 55 90 be b8 2f 4b bf 35 98 62 bf
       -0.34626773 -0.2819029 -0.7936969 -0.885135
000050 28 00 2b bf 26 00 0b 3e 4e 00 a4 bf ef c3 70 bf
       -0.66797113 0.13574275 -1.2812593 -0.9404897
000060 65 61 fd be 6c 69 bc be cc 10 15 bf 37 a8 15 bf
       -0.4948837 -0.3679918 -0.58228755 -0.584598
000070 dd 86 a1 be c5 00 a9 bf f5 f4 75 bf 6c 8d 1b bf
       -0.31548205 -1.320336 -0.960769 -0.6076267
000080 03 39 f4 be b1 d1 1a bf 4b 3c 27 bf b6 70 9e be
       -0.47699746 -0.60476214 -0.65326375 -0.30945367
000090 0c 90 9c bd 8d 65 41 bf 48 94 0b bf 73 53 25 bd
       -0.07644662 -0.7554558 -0.54523134 -0.040362787
0000a0 d0 bf 26 3e cc c6 a5 bf 32 66 a9 be 31 33 88 bf
       0.16284108 -1.2951293 -0.3308578 -1.0640622
0000b0 ce 48 1c bf 36 13 80 bf 08 96 0a 3f e3 f2 20 bf
       -0.6104859 -1.0005863 0.5413518 -0.62870616

dense.0.denselayer2.norm2.running_mean f4 [48]
000000 b7 83 0a 40 4d 40 e3 bf b2 9f a2 3f 2f 58 16 3f
       2.1642892 -1.7753998 1.2704985 0.5872831
000010 56 08 8c 3f f7 f9 24 c0 07 5f df bf fd 9f b7 3f
       1.0940044 -2.5777566 -1.7450875 1.43457
000020 f6 02 d3 3f f7 1b 27 bf 88 85 ae bf 0a e7 26 40
       1.6485279 -0.65277046 -1.36345 2.6078515
000030 a3 bd c3 3f b1 d3 80 bf 65 98 49 3e 83 b7 10 c0
       1.5292248 -1.0064603 0.1968704 -2.2612007
000040 f9 e8 07 3d 2f bb 52 3f 4b 6c 1d c0 28 84 ea bf
       0.033181164 0.8231687 -2.4597347 -1.8321581
000050 a3 e9 06 c0 e1 df 17 bf 99 ca d6 3f 39 b7 83 3d
       -2.10801 -0.5932599 1.6780578 0.06431431
000060 6e 65 3d c0 37 fd 27 c0 3b 64 1d 3f cd 8e 6f bf
       -2.9593158 -2.62483 0.61481065 -0.9357727
000070 d8 35 85 3f 01 5b 43 be b5 3c 17 c0 08 f6 1a be
       1.0407057 -0.19077684 -2.3630803 -0.15132916
000080 bc 34 f8 3f 95 0d 65 bf d6 4e 28 3f b8 2f 00 c0
       1.9391093 -0.8947385 0.65745294 -2.0029125
000090 38 02 03 40 3c 1c 17 c0 85 50 d0 3f 61 f5 99 bf
       2.0470104 -2.3610983 1.6274573 -1.2028009
0000a0 a8 1e d4 3f f9 28 72 c0 67 08 eb bf 23 85 3c 3f
       1.6571856 -3.7837508 -1.8361939 0.7364065
0000b0 03 73 96 3f 1d 41 67 3f 0c ee d3 3f 36 f8 12 40
       1.1753849 0.9033373 1.6557021 2.2963996

dense.0.denselayer2.norm2.running_var f4 [48]
000000 19 be b0 40 24 ba a7 40 5b 1a 85 41 69 62 78 40
       5.5232053 5.2414722 16.637869 3.8810065
000010 db 92 99 40 5a cf e1 40 96 2c 85 40 f3 21 91 40
       4.7991767 7.0565615 4.1616926 4.535394
000020 46 63 c2 41 fb a2 21 41 9c 7c b8 40 8a 57 a9 40
       24.298473 10.10229 5.765211 5.291936
000030 fe e5 34 40 4a 6d a8 40 57 51 b2 40 eb 89 d2 40
       2.8265376 5.263341 5.572429 6.5793357
000040 4d 8a 52 41 0c 0d 50 41 25 86 88 40 7c d0 84 40
       13.158765 13.003185 4.266375 4.1504498
000050 f7 df 99 40 9d cc a9 40 70 25 21 40 ea b8 99 40
       4.8085895 5.306227 2.51791 4.8038225
000060 a0 ee 39 40 51 fd 95 40 6f 39 51 40 53 70 ad 40
       2.9051895 4.6871724 3.2691305 5.4199615
000070 56 d7 53 41 3e c0 53 40 3e 25 a1 40 35 69 ae 40
       13.240072 3.3086085 5.035796 5.4503427
000080 62 6b 79 41 6f 8d 51 40 5c 2f 73 40 99 ca c6 40
       15.5887165 3.2742574 3.7997656 6.212231
000090 8c 63 34 40 c6 29 c0 40 03 cb b9 40 5f 6e a7 40
       2.8185759 6.0050993 5.8060317 5.232223
0000a0 9a f7 82 40 e8 f4 cd 40 e6 c3 68 40 0a b2 14 40
       4.092725 6.436146 3.6369567 2.3233666
0000b0 17 01 0e 41 2e 85 e8 40 2d 76 93 40 82 23 66 41
       8.875266 7.2662573 4.6081758 14.383669
