Trained Model/8-8 4-network-10000notstabledata.pt (torch_old, 673471 bytes, 154 tensors)

conv.0.weight f4 [4]
1.8616174 1.2376488 0.6551628 2.324162
00000000: 7b49 ee3f 476b 9e3f c0b8 273f 12bf 1440

conv.0.bias f4 [4]
-0.18737236 0.6072628 3.074054 -0.5190788
00000000: 8ade 3fbe 9375 1b3f 4dbd 4440 59e2 04bf

conv.0.running_mean f4 [4]
0.041089587 0.048628073 0.042499907 0.047217757
00000000: 8e4d 283d 3b2e 473d 6214 2e3d 6867 413d

conv.0.running_var f4 [4]
0.03939893 0.046261176 0.040692225 0.04498501
00000000: c660 213d 5c7c 3d3d e4ac 263d 3442 383d

conv.1.weight f4 [32, 4, 1, 1]
-0.15396029 -0.67221564 -0.38204294 -0.4401743 -1.3186153 -0.79798955 0.3119383 -0.2597949
-2.2718136 1.0131468 2.523794 -1.7629881 -0.3107099 6.2975564 0.26785234 -0.22617027
2.388559 0.033486683 0.9889528 -0.46268052 0.5760468 0.65546966 4.285837 -1.1446407
-0.19518839 -1.0618585 -1.1125869 -0.68036264 1.6549646 -0.5626169 0.22925615 -0.43576646
-0.71175134 -0.055991687 -0.45678046 0.31334588 2.0450327 0.21047421 1.4000324 -0.8926318
-2.1535127 -1.039608 0.13223186 -1.5294144 -0.10020303 7.00698 0.3011359 -0.09211988
-0.1682765 3.6052241 1.6449298 -2.0652478 -1.1313344 0.17847514 4.9493685 -4.467051
0.05479431 -0.79212415 -0.22822228 -1.1656185 0.3374969 -0.45015022 -0.41944858 0.18620546
0.20724684 -0.29777998 -0.6302917 -1.2966006 0.24029529 0.6999434 -0.3461472 3.002912
0.042025477 2.116032 -0.13309194 -1.2127535 0.3140766 0.38094628 -0.42403066 0.07723937
-0.718825 2.7592425 1.1500336 -0.16284272 -1.1727607 3.1081302 1.798447 -0.009766592
-0.069977984 -0.7919525 0.024010336 -0.61386967 0.07454097 -0.1323899 -0.09615129 0.10183078
1.8060167 -0.8171194 0.1971768 -0.38824314 1.7022219 -0.13799866 0.14241165 -0.33844635
0.03922798 0.1571736 -0.17940582 -0.44477803 -0.09623684 15.964099 0.27981448 0.27705312
0.22489987 0.14917511 -0.34104618 -0.08328668 -0.45646828 2.993477 0.6343134 -0.423837
2.3516886 1.1638117 1.5902045 -0.20524861 -0.12081975 -0.9072136 -0.034620587 -0.47237056
00000000: c4a7 1dbe 5316 2cbf 229b c3be 875e e1be
00000010: 63c8 a8bf 0b49 4cbf 60b6 9f3e d603 85be
00000020: 6565 11c0 cbae 813f d785 2140 98a9 e1bf
00000030: 5e15 9fbe 9585 c940 f123 893e 2e99 67be
00000040: 27de 1840 5529 093d 032c 7d3f 76e4 ecbe
00000050: ce77 133f dccc 273f 9425 8940 9683 92bf
00000060: 77df 47be fbea 87bf 3f69 8ebf 3f2c 2ebf
00000070: e1d5 d33f a907 10bf 20c2 6a3e c81c dfbe
00000080: 5635 36bf 8a57 65bd 21df e9be df6e a03e
00000090: d1e1 0240 8d86 573e 4334 b33f 8583 64bf
000000a0: 27d3 09c0 e011 85bf ca67 073e dac3 c3bf
000000b0: 3f37 cdbd 2e39 e040 7c2e 9a3e 59a9 bcbd
000000c0: ad50 2cbe febb 6640 0f8d d23f 052d 04c0
000000d0: 91cf 90bf 30c2 363e 3a61 9e40 15f2 8ec0
000000e0: 0070 603d a6c8 4abf 1ab3 69be fd32 95bf
000000f0: 65cc ac3e 177a e6be f7c1 d6be a5ac 3e3e
00000100: 8438 543e 9e76 98be cc5a 21bf 02f7 a5bf
00000110: f80f 763e 7e2f 333f 353a b1be b62f 4040
00000120: e822 2c3d 116d 0740 4149 08be 823b 9bbf
00000130: a6ce a03e 640b c33e 8c1a d9be ad2f 9e3d
00000140: ea04 38bf 6e97 3040 4d34 933f 3ec0 26be
00000150: 061d 96bf 9beb 4640 8333 e63f 0e04 20bc
00000160: 9e50 8fbd 66bd 4abf 53b1 c43c 9026 1dbf
00000170: f0a8 983d 3891 07be f8ea c4bd a88c d03d
00000180: 8e2b e73f bd2e 51bf b7e8 493e cec7 c6be
00000190: 68e2 d93f 854f 0dbe 5cd4 113e d748 adbe
000001a0: 85ad 203d 1ef2 203e 29b6 37be f2b9 e3be
000001b0: d217 c5bd f36c 7f41 d843 8f3e e8d9 8d3e
000001c0: 274c 663e 5cc1 183e 9b9d aebe 3592 aabd
000001d0: 36b6 e9be 2195 3f40 5d62 223f 2a01 d9be
000001e0: 1182 1640 c8f7 943f d28b cb3f b12c 52be
000001f0: 5870 f7bd 273f 68bf 51ce 0dbd 8eda f1be

conv.1.bias f4 [32]
0.25024036 1.2483554 0.9752473 -1.4328105 0.54860216 0.5320165 0.07202603 -0.08567957
0.37798232 0.53052527 0.897553 0.032121804 0.12516424 3.2703862 0.937601 -0.4676194
0.9029468 -0.05814601 -1.6063039 -0.5260606 -2.4569886 0.75973773 0.69287217 -0.068986416
0.010816973 0.13421349 -0.42826024 -0.015639821 -0.734026 -1.7069348 0.5790354 0.60846996
00000000: 811f 803e 1cca 9f3f cfa9 793f 5666 b7bf
00000010: 3171 0c3f 3c32 083f 6282 933d c578 afbd
00000020: e686 c13e 81d0 073f 09c6 653f 2792 033d
00000030: 0e2b 003e 024e 5140 9e06 703f cf6b efbe
00000040: 8627 673f 832a 6ebd 5e9b cdbf e8ab 06bf
00000050: 4d3f 1dc0 2c7e 423f 1260 313f c048 8dbd
00000060: ac39 313c 436f 093e ed44 dbbe 151f 80bc
00000070: 21e9 3bbf d77c dabf aa3b 143f b0c4 1b3f

dense.0.denselayer1.norm1.weight f4 [32]
0.73037267 6.585496 3.6054301 2.5237982 2.478242 0.0988815 0.7418502 0.11991859
-0.065251194 0.13732296 0.72360474 0.15891641 -0.014254793 3.3042452 0.7727991 0.97909075
0.67227674 -0.046651687 1.4170129 0.14936078 2.5041437 1.6431824 0.7769123 1.0
0.104521975 1.6996053 1.0278941 0.13177784 0.7603156 0.08240942 0.69859457 0.735435
00000000: b4f9 3a3f 62bc d240 5ebf 6640 e985 2140
00000010: 849b 1e40 6282 ca3d e5e9 3d3f e197 f53d
00000020: 6ba2 85bd 649e 0c3e 293e 393f fcba 223e
00000030: ef8c 69bc c178 5340 29d6 453f b1a5 7a3f
00000040: 541a 2c3f d715 3fbd ae60 b53f 08f2 183e
00000050: e443 2040 cd53 d23f b9e3 463f 0000 803f
00000060: 9e0f d63d ab8c d93f 0992 833f c5f0 063e
00000070: 0ba4 423f 45c6 a83d 18d7 323f 7845 3c3f

dense.0.denselayer1.norm1.bias f4 [32]
-0.26399642 5.2777777 1.7087723 0.19782431 1.5870445 -0.5584672 -0.2633394 -0.8212131
0.43452248 -0.76896244 -0.290145 -1.0274668 -0.06386062 1.3318552 -0.25061747 -0.012644241
-0.24805744 -0.016994651 -0.9913264 -0.7780522 -0.64099795 -0.87710863 -0.27203763 0.0
-0.7565223 0.48360163 0.013979881 -0.7376642 -0.22645365 -0.9884322 0.45301744 -0.26278725
00000000: 8a2a 87be 8ee3 a840 0db9 da3f 7592 4a3e
00000010: 4624 cb3f b5f7 0ebf 6cd4 86be 063b 52bf
00000020: bb79 de3e b9da 44bf e38d 94be 0884 83bf
00000030: 5bc9 82bd 3b7a aa3f ef50 80be ca29 4fbc
00000040: c502 7ebe 5e38 8bbc 91c7 7dbf 6e2e 47bf
00000050: 7118 24bf 318a 60bf 8448 8bbe 0000 0000
00000060: 72ab 41bf a29a f73e df0b 653c 90d7 3cbf
00000070: 77e3 67be e509 7dbf e7f1 e73e 0d8c 86be

dense.0.denselayer1.norm1.running_mean f4 [32]
6e-45 2.6640038 10.822719 3.3881447 3.5152051 14.593676 6e-45 0.6649476
0.10493354 5.229844 3.436171 5.274292 8.4686775 22.297918 1.1195294 6e-45
0.16821252 1.5509772 0.016529744 0.053407267 2.9970908 8.395655 1.1004125 0.0
0.7102797 0.6709676 6e-45 10.400443 6e-45 2.3825517 5.8373246 0.7006909
00000000: 0400 0000 0a7f 2a40 db29 2d41 5dd7 5840
00000010: 1ff9 6040 b27f 6941 0400 0000 023a 2a3f
00000020: 65e7 d63d e25a a740 3aea 5b40 00c7 a840
00000030: b47f 0741 2362 b241 bd4c 8f3f 0400 0000
00000040: e73f 2c3e 6c86 c63f 6369 873c 94c1 5a3d
00000050: 56d0 3f40 9a54 0641 51da 8c3f 0000 0000
00000060: e4d4 353f 88c4 2b3f 0400 0000 3768 2641
00000070: 0400 0000 ba7b 1840 5dcb ba40 7b60 333f

dense.0.denselayer1.norm1.running_var f4 [32]
6e-45 0.6999072 11.623675 53.446457 26.454227 19.159365 6e-45 10.326226
0.22247842 23.560194 1.1652348 71.753586 1.6926911 26.156435 0.06613368 6e-45
0.0017988908 48.584286 0.19354935 0.05782015 9.836271 16.383709 0.0751939 6e-45
11.782429 10.514296 6e-45 416.3961 6e-45 7.8413587 29.808441 0.04848482
00000000: 0400 0000 1e2d 333f 93fa 3941 2cc9 5542
00000010: 42a2 d341 6146 9941 0400 0000 3938 2541
00000020: 62d1 633e 477b bc41 6a26 953f d681 8f42
00000030: 1aaa d83f 6140 d141 1871 873d 0400 0000
00000040: c2c8 eb3a 4f56 4242 cd31 463e d2d4 6c3d
00000050: 5e61 1d41 d611 8341 42ff 993d 0400 0000
00000060: d484 3c41 8e3a 2841 0400 0000 b332 d043
00000070: 0400 0000 69ec fa40 b077 ee41 0598 463d

dense.0.denselayer1.conv1.weight f4 [48, 32, 1, 1]
-0.1812807 -2.7700036 0.67439324 2.0547502 -0.564144 0.11947777 -0.3131396 -0.02771674
-0.6980576 -0.5246934 -0.12832181 3.2931902 0.20043407 0.86368006 -0.19444151 -0.13725667
0.047771234 -0.4786243 -0.070677824 0.0063192225 7.22056 5.5016823 0.12229261 -0.106278606
-1.1092336 -2.082943 0.04871359 2.7345414 0.064534366 1.6405969 0.7652184 -0.037747726
0.057705104 -3.6693094 -0.4337228 -0.31681627 2.5389464 1.1770924 0.024199469 0.32169607
0.014196749 0.45691875 -0.110435344 -0.5758276 0.44399083 9.73117 -0.05764354 -0.044594217
0.026786042 -0.89655805 -0.07090613 0.10441741 -0.3920607 -0.10876114 -0.06726485 -0.12911303
0.1445687 2.2011256 -0.123949245 -0.34809384 0.13847856 0.097276665 0.9780344 -0.08512484
0.102776 0.08498025 0.15438375 -0.053968444 -0.16573426 0.031670276 -0.04438205 -0.47233787
0.013421562 -0.5038377 -0.07854594 0.08598593 -0.49750912 -0.38281167 -0.086425245 -0.15475182
-0.022024088 -0.12514324 -0.44876084 -0.12925749 -0.02345744 0.09334022 0.12936814 0.07949363
-0.35575083 -0.3792367 0.1388355 0.035642065 0.009434264 -0.0076526953 -0.19142665 0.102958694
-0.11610307 -4.8302383 -0.66706514 -0.5828644 2.1362095 1.9875777 -0.068394266 0.20339493
-0.2987997 0.22448935 -0.11784209 -0.038394533 -0.20669295 13.1260395 0.06447733 0.10071916
-0.18159018 -1.1557381 -0.05684189 -0.07977954 -0.387317 -0.21539782 0.021278547 -0.15825804
0.36868373 1.7910836 0.15650238 0.09099228 -0.15656368 0.3066657 1.1238365 0.17422341
0.014923209 -3.1421704 -0.07870598 -0.70408016 2.6021364 0.64061123 -0.08522118 -0.11893544
-0.50632304 0.2979606 -0.20431295 -0.14430036 2.3824599 4.907429 0.013068206 0.13290466
0.025473367 -0.2685341 0.13401094 -0.09127921 -0.3596428 -0.46659616 0.08463551 0.12009899
0.23472299 2.43422 0.16355285 0.052801766 0.15933523 0.26727775 2.3222902 -0.18025225
0.22815505 8.49913 2.2723932 -1.4482173 -0.4797094 -0.4260448 0.5027633 -0.85929334
-0.93596214 -1.0454586 0.3784991 -0.46713325 -0.25567394 -1.0919937 0.0580749 0.008790729
0.31344983 -1.0675867 -0.71658343 -0.9178743 -0.8457812 -0.72845984 -0.1000263 -0.041544616
-0.9746217 -0.28455415 0.1664063 -0.12868527 0.17232265 0.15892166 -2.274618 0.00043050924
0.14147799 -0.02374465 0.20725593 -0.16718185 -0.70403403 -0.11617842 -0.061211694 -0.81291157
0.1295011 -0.76975733 0.05389626 -0.22358349 -0.7385737 -0.76107955 -0.17773299 -0.096641876
0.11268902 -0.059954736 -0.5369308 -0.054082673 -0.04061907 0.011339908 0.043394048 -0.022000492
-0.83108395 -0.5617286 0.090399906 -0.12213068 -0.07468575 -0.043800857 0.038172886 -0.21127051
-0.09047542 0.25822893 0.24729066 0.10717813 -0.7242743 -0.6104549 0.13804843 -0.6747408
-0.07960243 -0.64629716 -0.060480822 0.09878602 -0.67285824 -0.8372916 -0.09518023 -0.0015442967
-0.07613295 -0.123212576 -0.6443698 0.018619232 -0.042461842 -0.06727411 -0.17948598 0.14456825
-0.5344449 -0.5796112 0.11985933 -0.099679925 0.0936361 -0.116955705 -0.051919106 -0.24008237
00000000: a6a1 39be bd47 31c0 09a5 2c3f 0781 0340
00000010: be6b 10bf c3b0 f43d d553 a0be 370e e3bc
00000020: e7b3 32bf 4f52 06bf cb66 03be a1c3 5240
00000030: 973e 4d3e 231a 5d3f ad1b 47be 038d 0cbe
00000040: c5ab 433d 3f0e f5be 89bf 90bd 7b11 cf3b
00000050: d40e e740 c80d b040 8c74 fa3d 99a8 d9bd
00000060: 5efb 8dbf f04e 05c0 e787 473d ba02 2f40
00000070: 982a 843d 14ff d13f 5ae5 433f 5c9d 1abd
00000080: 305c 6c3d f7d5 6ac0 ea10 debe be35 a2be
00000090: 197e 2240 f7aa 963f f73d c63c 59b5 a43e
000000a0: 7b99 683c 41f1 e93e ed2b e2bd 7069 13bf
000000b0: c452 e33e dfb2 1b41 a21b 6cbd 6da8 36bd
000000c0: 676e db3c d484 65bf 3c37 91bd ccd8 d53d
000000d0: 2ebc c8be 29be debd 27c2 89bd 3536 04be
000000e0: d109 143e 3edf 0c40 1ad9 fdbd 5b39 b2be
000000f0: 53cd 0d3e fd38 c73d 7660 7a3f ef55 aebd
00000100: 397c d23d 200a ae3d c616 1e3e 040e 5dbd
00000110: 3eb6 29be b1b8 013d f4c9 35bd 45d6 f1be
00000120: 1ce6 5b3c 82fb 00bf b2dc a0bd 6419 b03d
00000130: 84b9 febe e4ff c3be b8ff b0bd 4377 1ebe
00000140: dc6b b4bc 8d25 00be fbc3 e5be 135c 04be
00000150: d129 c0bc 2829 bf3d 1579 043e 8ecd a23d
00000160: f924 b6be 502b c2be e52a 0e3e 6afd 113d
00000170: 2c92 1a3c 76c3 fabb 5905 44be 02dc d23d
00000180: 72c7 edbd 5091 9ac0 c8c4 2abf 9a36 15bf
00000190: a8b7 0840 f268 fe3f 4b12 8cbd c346 503e
000001a0: 46fc 98be 89e0 653e 3257 f1bd 9643 1dbd
000001b0: 51a7 53be 4204 5241 b10c 843d d945 ce3d
000001c0: c7f2 39be 3aef 93bf 0bd3 68bd 7563 a3bd
000001d0: 6a4e c6be 3f91 5cbe 5950 ae3c 650e 22be
000001e0: 1dc4 bc3e 3a42 e53f 2942 203e 295a ba3d
000001f0: 3b52 20be 4903 9d3e e0d9 8f3f 9f67 323e
00000200: 7a80 743c 5219 49c0 9a30 a1bd 993e 34bf
00000210: 6789 2640 19ff 233f 7188 aebd 6d94 f3bd
00000220: 639e 01bf 4b8e 983e 6a37 51be 79c3 13be
00000230: 397a 1840 a909 9d40 071c 563c 2918 083e
00000240: 86ad d03c 4d7d 89be 2a3a 093e 98f0 babd
00000250: 1a23 b8be b1e5 eebe 6255 ad3d 76f6 f53d
00000260: 395b 703e 43ca 1b40 667a 273e aa46 583d
00000270: c628 233e a1d8 883e 67a0 1440 0c94 38be
00000280: 7aa1 693e 70fc 0741 e46e 1140 2f5f b9bf
00000290: 789c f5be 8b22 dabe 18b5 003f a6fa 5bbf
000002a0: 379b 6fbf 96d1 85bf a2ca c13e 172c efbe
000002b0: b2e7 82be 73c6 8bbf f2df 6d3d fd06 103c
000002c0: 7f7c a03e aea6 88bf 0372 37bf cff9 6abf
000002d0: 1e85 58bf 587c 3abf 97da ccbd b02a 2abd
000002e0: cf80 79bf 15b1 91be 6a66 2a3e 12c6 03be
000002f0: 5975 303e 5cbc 223e 5793 11c0 f9b5 e139
00000300: 9bdf 103e 2484 c2bc e63a 543e b831 2bbe
00000310: 933b 34bf f4ee edbd 1db9 7abd f91a 50bf
00000320: f09b 043e d10e 45bf 53c2 5c3d 12f3 64be
00000330: 2a13 3dbf 1cd6 42bf a3ff 35be 2dec c5bd
00000340: 80c9 e63d 1993 75bd 4c74 09bf cb85 5dbd
00000350: 2f60 26bd 05cb 393c f5bd 313d 603a b4bc
00000360: ebc1 54bf 72cd 0fbf 9623 b93d a61f fabd
00000370: d8f4 98bd 8768 33bd 2c5b 1c3d 4c57 58be
00000380: 2d4b b9bd 9536 843e c339 7d3e 3580 db3d
00000390: 0a6a 39bf c646 1cbf 915c 0d3e d0bb 2cbf
000003a0: 9906 a3bd bb73 25bf bdba 77bd 5350 ca3d
000003b0: 7040 2cbf be58 56bf daed c2bd 006a caba
000003c0: 98eb 9bbd e056 fcbd 6bf5 24bf 5c87 983c
000003d0: 78ec 2dbd 02c7 89bd 2ccb 37be b309 143e
000003e0: 62d1 08bf 6661 14bf cf78 f53d fd24 ccbd
000003f0: 49c4 bf3d 7986 efbd 21a9 54bd 27d8 75be

dense.0.denselayer1.norm2.weight f4 [48]
0.8557916 1.4729286 0.7489995 1.3769535 1.3099097 2.1071444 0.68150735 0.7721695
0.81323516 1.6400574 1.0271984 0.7691906 0.5659971 0.022236483 1.3300728 0.7284633
1.3925941 1.1583252 0.9214413 1.0382559 4.709237 0.5486352 0.6533741 0.6710343
3.7805479 2.0498974 1.2211828 5.5225854 0.0023659896 4.8855734 0.6180246 0.9101698
0.8245156 1.3855404 1.3321387 0.9448209 0.60053074 1.3453751 1.7285882 0.7025286
1.0403129 0.81366956 1.6319172 0.6630893 2.6882887 1.3072592 0.73417217 1.4303674
00000000: 2915 5b3f ed88 bc3f 6ebe 3f3f 0340 b03f
00000010: 1fab a73f 74db 0640 4477 2e3f e6ac 453f
00000020: 2e30 503f 67ed d13f 3d7b 833f ade9 443f
00000030: 30e5 103f 4929 b63c d33f aa3f 927c 3a3f
00000040: 8640 b23f 0044 943f 94e3 6b3f 92e5 843f
00000050: 12b2 9640 5b73 0c3f 8643 273f e7c8 2b3f
00000060: 7ff4 7140 8531 0340 b84f 9c3f 05b9 b040
00000070: b80e 1b3b 9e56 9c40 dc36 1e3f e300 693f
00000080: 7413 533f 6359 b13f 8583 aa3f c8df 713f
00000090: 62bc 193f 4035 ac3f 6142 dd3f ead8 333f
000000a0: f928 853f a64c 503f aae2 d03f 38c0 293f
000000b0: ec0c 2c40 4554 a73f b5f2 3b3f 4716 b73f

dense.0.denselayer1.norm2.bias f4 [48]
-0.11044113 0.27698356 -0.21282996 0.25197175 0.23577388 -0.11009586 -0.26030815 -0.23589973
0.30748388 0.29625398 0.08627714 -0.25121504 -0.19779722 -0.8668838 0.24374111 -0.23345159
0.25649565 0.12261192 -0.035219464 0.09050586 -0.6019334 -0.44566736 -0.29856658 -0.28008184
-0.47156203 -0.17858937 0.32961982 -0.60970324 -0.38832006 -0.62964976 -0.25469548 -0.03064074
0.15159455 0.25414252 0.6945852 -0.039128862 -0.24648036 0.21190849 -0.45835206 -0.20550281
0.19523755 -0.13821214 -0.89822733 -0.19738212 0.6864957 0.24906945 -0.26387087 1.1472977
00000000: f62e e2bd cad0 8d3e 19f0 59be 7102 813e
00000010: b56e 713e f079 e1bd 1c47 85be b38f 71be
00000020: 876e 9d3e 9aae 973e 12b2 b03d 429f 80be
00000030: 5b8b 4abe 19ec 5dbf 4597 793e ef0d 6fbe
00000040: 6653 833e f51b fb3d 4942 10bd 235b b93d
00000050: 4f18 1abf 832e e4be b8dd 98be e366 8fbe
00000060: 9470 f1be 22e0 36be eec3 a83e 8315 1cbf
00000070: e3d1 c6be ba30 21bf 7267 82be 4a02 fbbc
00000080: 9a3b 1b3e f81e 823e 56d0 313f 9645 20bd
00000090: 5965 7cbe 8afe 583e 1fad eabe 546f 52be
000000a0: 5aec 473e 7c87 0dbe 3af2 65bf 8a1e 4abe
000000b0: 2fbe 2f3f 100c 7f3e 151a 87be a7da 923f

dense.0.denselayer1.norm2.running_mean f4 [48]
-10.599988 -1.5233054 -0.34485063 -4.3467875 -6.185869 56.709568 -2.5652542 -0.7766237
15.983167 -14.17218 -11.217583 0.37966666 -1.8204932 -3.43603 -10.654671 -2.4698765
-0.5377483 -6.9433646 -8.004253 -13.304321 19.895184 -4.810648 -2.2183197 0.6198924
18.894709 56.13008 4.825963 21.101147 -11.14881 22.625769 -2.6149065 -7.9959946
-7.2028127 -0.8989632 14.577971 -9.693243 -1.3001077 -11.718854 11.993399 -1.9002205
1.5552751 -6.1496286 41.113083 -0.9698778 62.87632 -9.651105 0.1453425 13.50818
00000000: 8d99 29c1 acfb c2bf 4390 b0be e218 8bc0
00000010: a4f2 c5c0 99d6 6242 202d 24c0 d0d0 46bf
00000020: 0dbb 7f41 40c1 62c1 387b 33c1 ab63 c23e
00000030: ec05 e9bf eae7 5bc0 8879 2ac1 7512 1ec0
00000040: dfa9 09bf 0b30 dec0 6c11 00c1 80de 54c1
00000050: 5629 9f41 d4f0 99c0 f3f8 0dc0 45b1 1e3f
00000060: 5d28 9741 3485 6042 4a6e 9a40 26cf a841
00000070: 8761 32c1 9301 b541 a15a 27c0 30df ffc0
00000080: 717d e6c0 7422 66bf 5f3f 6941 8617 1bc1
00000090: ee69 a6bf 6d80 3bc1 f6e4 3f41 6d3a f3bf
000000a0: 4113 c73f c2c9 c4c0 cc73 2442 e949 78bf
000000b0: 5a81 7b42 ed6a 1ac1 aad4 143e 8121 5841

dense.0.denselayer1.norm2.running_var f4 [48]
1047.8494 542.2621 3.2631853 680.2724 410.9014 710.9577 11.657161 16.467989
1769.8938 1407.9269 1460.8479 1.4023416 4.1958575 72.43248 1542.0784 1.3287126
514.30927 632.75366 1430.6433 1423.2053 504.04138 805.2213 27.380003 3.4424667
495.7708 691.3043 525.8669 483.19553 130.08273 518.1974 9.996431 1740.047
532.5329 630.6417 456.23047 1350.406 4.2366548 918.82367 155.5986 16.995005
631.9032 1095.3331 237.97337 3.2337112 818.23096 2558.9795 1.2339882 504.37073
00000000: 2efb 8244 c690 0744 07d8 5040 6f11 2a44
00000010: 6173 cd43 4bbd 3144 bb83 3a41 71be 8341
00000020: 9a3c dd44 a9fd af44 229b b644 ee7f b33f
00000030: 7744 8640 6edd 9042 82c2 c044 4113 aa3f
00000040: cb93 0044 3c30 1e44 96d4 b244 92e6 b144
00000050: 4c05 fc43 2a4e 4944 3f0a db41 6051 5c40
00000060: aae2 f743 7ad3 2c44 7b77 0344 0799 f143
00000070: 2e15 0243 a28c 0144 62f1 1f41 8181 d944
00000080: 1b22 0544 12a9 1d44 801d e443 fecc a844
00000090: ad92 8740 b7b4 6544 3e99 1b43 c5f5 8741
000000a0: cef9 1d44 a9ea 8844 2ff9 6d43 20f5 4e40
000000b0: c88e 4c44 acef 1f45 53f3 9d3f 742f fc43

dense.0.denselayer1.conv2.weight f4 [12, 48, 3, 3]
0.4387805 0.18389928 -3.1060236 0.23647131 1.3978153 0.23874798 -2.7956705 0.2902676
0.410851 -0.01839765 -0.3601516 3.072446 -0.21927185 -0.15883292 -0.37304688 3.0303245
-0.14399259 -0.21588822 0.06977171 -0.051920597 0.073178366 -0.0994639 -0.31663898 -0.08941151
0.13722226 -0.05111664 0.028944472 -0.07533685 -0.3647796 3.0353398 -0.22839531 -0.13753492
-0.31406233 3.0456612 -0.19833405 -0.27481213 -0.02222354 -0.34310138 3.1241117 -0.23862366
-0.16265576 -0.36421072 2.98474 -0.21614124 -0.21187569 -0.22349393 0.12298631 0.9521183
-0.7487234 -1.8275633 -0.8843433 1.196025 -0.53582746 0.102669865 0.15313427 -0.06359587
0.1201145 -0.15132588 -0.33788493 -0.057010576 0.1993275 0.0337706 0.15688021 0.0034496256
-0.08808389 0.120229684 -0.17478378 -0.3246523 -0.0850531 0.18299468 -0.088960014 0.027473224
0.04840337 -0.28515032 2.897458 -0.09207594 -0.14164606 -0.29096776 2.9376383 -0.26132354
-0.31754097 0.39838803 0.20244211 -3.2530434 0.23988251 1.5388201 0.19575301 -2.8925042
0.18418026 0.3831702 0.4204707 0.18333878 -3.1333253 0.22674398 1.4714196 0.24557704
-2.8892045 0.2039219 0.3932367 -0.041401565 -0.07821677 -0.1670183 -0.10573289 -0.17646867
-0.020777367 -0.08126792 -0.09536126 -0.045868065 0.060414467 0.002904903 -0.06317389 -0.1256003
-0.11801135 0.13152562 -0.08413483 -0.053899672 0.14159815 -0.010191235 0.16037048 -0.93860376
-0.016440747 0.3383289 0.053282164 -1.2876271 0.15957353 0.1004571 0.38465753 0.21684399
-3.1322289 0.20184782 1.4702066 0.18542401 -2.930175 0.2813901 0.44800285 0.042795435
0.009469505 0.04303276 -0.016250163 -0.048789382 0.013120201 -0.0067157457 -0.040699173 0.15944913
-0.023512825 -0.406188 3.039788 -0.1725994 -0.18268667 -0.32987648 3.025688 -0.15884282
-0.2702031 0.44349608 0.2674829 -3.1235814 0.27305576 1.540101 0.2836247 -2.869183
0.18813963 0.39468732 0.4084345 0.22497927 -3.0461392 0.21934798 1.3822134 0.24244867
-2.8763056 0.2715201 0.4301535 0.43391377 0.20635511 -3.116209 0.2178655 1.5183226
0.25974092 -2.880294 0.2420706 0.41386458 -1.3620664 -1.5475359 -0.9075786 -1.5554913
-1.7555952 -1.498531 -1.2413245 -0.08616216 -0.08395249 0.4258504 0.27340016 -3.0482419
0.28775218 1.4031676 0.30793577 -2.7277172 0.21543151 0.43907526 0.14536181 0.18855076
0.25892887 -0.12851088 -0.3575798 -0.051197577 0.029030405 0.049116764 0.1279137 -0.12810682
0.07998091 0.13468866 -0.09960971 -0.09757843 -0.111821435 -0.06394053 -0.059708152 -0.027667074
-1.464534 -1.1156629 -0.74221915 -1.0282522 -1.3107514 -1.2287469 -0.7383308 -0.07822512
-0.15658197 -0.22925986 0.16247422 0.9826341 -0.6261053 -1.7890006 -0.78355205 1.2467585
-0.5479156 0.057382632 -0.09861472 -0.34910196 3.0017564 -0.21251766 -0.12943546 -0.33152896
2.9336536 -0.20804207 -0.31828249 -1.5523663 -1.3537326 -0.8160824 -1.7840695 -1.9158388
-1.3763502 -1.5391854 0.045253247 -0.110756956 -0.40608507 -0.5396591 1.749009 -0.46492106
00000000: d6a7 e03e 1850 3c3e 17c9 46c0 8925 723e
00000010: 9deb b23f 5a7a 743e 44ec 32c0 f49d 943e
00000020: 105b d23e abb6 96bc ca65 b8be f5a2 4440
00000030: cd88 60be 19a5 22be 0000 bfbe d6f0 4140
00000040: cb72 13be cd11 5dbe 78e4 8e3d b1aa 54bd
00000050: 8ade 953d bbb3 cbbd 811e a2be 621d b7bd
00000060: fe83 0c3e af5f 51bd f51c ed3c 354a 9abd
00000070: 64c4 babe 0243 4240 76e0 69be f4d5 0cbe
00000080: c7cc a0be 1dec 4240 1518 4bbe 2db4 8cbe
00000090: 240e b6bc fcaa afbe 72f1 4740 c359 74be
000000a0: 3b8f 26be d479 babe fb05 3f40 2154 5dbe
000000b0: f1f5 58be 98db 64be 3fe0 fb3d 06be 733f
000000c0: 56ac 3fbf 98ed e9bf 5364 62bf 5917 993f
000000d0: fd2b 09bf 9444 d23d 3bcf 1c3e 8d3e 82bd
000000e0: 97fe f53d 2cf5 1abe 41ff acbe ec83 69bd
000000f0: 821c 4c3e 0a53 0a3d 35a5 203e 1d13 623b
00000100: 5465 b4bd fb3a f63d 85fa 32be d438 a6be
00000110: 5230 aebd f562 3b3e ab30 b6bd 870f e13c
00000120: 9d42 463d 39ff 91be f46f 3940 4f92 bcbd
00000130: aa0b 11be baf9 94be 4402 3c40 33cc 85be
00000140: bb94 a2be 84f9 cb3e fc4c 4f3e dd31 50c0
00000150: c3a3 753e 0ff8 c43f 7a73 483e ca1e 39c0
00000160: c099 3c3e e22e c43e f047 d73e 29bd 3b3e
00000170: 6788 48c0 932f 683e 7a57 bc3f 8c78 7b3e
00000180: bae8 38c0 e7d0 503e 5256 c93e b094 29bd
00000190: 1d30 a0bd d806 2bbe 7c8a d8bd 34b4 34be
000001a0: 4c35 aabc cc6f a6bd c44c c3bd 27e0 3bbd
000001b0: 2975 773d 2f60 3e3b 5061 81bd 5d9d 00be
000001c0: efaf f1bd a7ae 063e e24e acbd e7c5 5cbd
000001d0: 1bff 103e 23f9 26bc 2938 243e 5648 70bf
000001e0: bfae 86bc 7239 ad3e 663e 5a3d f7d0 a4bf
000001f0: 3e67 233e 74bc cd3d d5f1 c43e 5a0c 5e3e
00000200: 7076 48c0 32b1 4e3e bb2f bc3f cbdf 3d3e
00000210: fd87 3bc0 5d12 903e a160 e53e 444a 2f3d
00000220: fc25 1b3c 1f43 303d 101f 85bc 60d7 47bd
00000230: 1df6 563c c20f dcbb 2db4 26bd a246 233e
00000240: f89d c0bc e0f7 cfbe e38b 4240 e6bd 30be
00000250: 3712 3bbe 92e5 a8be dfa4 4140 b1a7 22be
00000260: 1058 8abe eb11 e33e 85f3 883e c2e8 47c0
00000270: f7cd 8b3e 0822 c53f 4237 913e b2a0 37c0
00000280: ada7 403e 7514 ca3e 541e d13e f760 663e
00000290: f2f3 42c0 c29c 603e 5eec b03f 7744 783e
000002a0: 6415 38c0 af04 8b3e 143d dc3e f229 de3e
000002b0: c14e 533e f86f 47c0 2218 5f3e 6558 c23f
000002c0: c3fc 843e bd56 38c0 5be1 773e 0fe6 d33e
000002d0: 3158 aebf a815 c6bf 1257 68bf 571a c7bf
000002e0: 58b7 e0bf ddcf bfbf b9e3 9ebf c975 b0bd
000002f0: 48ef abbd 1009 da3e 1bfb 8b3e 6516 43c0
00000300: 4154 933e ff9a b33f c2a9 9d3e eb92 2ec0
00000310: 149a 5c3e 79ce e03e bad9 143e 7313 413e
00000320: 5392 843e 5b98 03be b314 b7be 8db4 51bd
00000330: 2cd1 ed3c a92e 493d cffb 023e 6f2e 03be
00000340: 08cd a33d d3eb 093e 2d00 ccbd 33d7 c7bd
00000350: a302 e5bd 41f3 82bd 8990 74bd 0fa6 e2bc
00000360: da75 bbbf 0bce 8ebf 1302 3ebf c59d 83bf
00000370: b4c6 a7bf 9447 9dbf 3f03 3dbf 7e34 a0bd
00000380: 0657 20be 19c3 6abe a45f 263e e98d 7b3f
00000390: 7048 20bf f9fd e4bf de96 48bf c895 9f3f
000003a0: 3244 0cbf 0d0a 6b3d 84f6 c9bd 7ebd b2be
000003b0: c71c 4040 3b9e 59be bb8a 04be 2abe a9be
000003c0: fbc0 3b40 fb08 55be ecf5 a2be f0b3 c6bf
000003d0: 1c47 adbf c7ea 50bf 645c e4bf 353a f5bf
000003e0: 3e2c b0bf 0704 c5bf 785b 393d 8bd4 e2bd
000003f0: 62ea cfbe 1927 0abf 87df df3f 220a eebe

dense.0.denselayer2.norm1.weight f4 [44]
0.7240702 0.74705446 2.9509192 0.089179866 0.8166593 0.13070531 0.71721774 0.12813033
0.3324153 1.1752139 0.7491141 0.10306703 -0.0020538042 0.06904356 0.7318916 1.0313821
0.62620634 0.705402 0.64431256 0.16023684 1.1217049 0.047864236 0.7531005 1.0
0.115830235 0.025848871 0.9743861 0.1487852 0.8473724 0.9509004 0.13001823 0.68407995
1.644643 2.391372 1.5313827 2.1861615 2.2490044 2.449953 1.8125271 2.4075756
1.9227003 2.4118824 3.0356555 1.6221875
00000000: aa5c 393f f63e 3f3f dcdb 3c40 efa3 b63d
00000010: 9510 513f 9dd7 053e 959b 373f 9934 033e
00000020: 5732 aa3e 696d 963f f1c5 3f3f cf14 d33d
00000030: 1e99 06bb b666 8d3d 3f5d 3b3f 5404 843f
00000040: 0f4f 203f 3a95 343f abf1 243f 2015 243e
00000050: 0794 8f3f 4a0d 443d 32cb 403f 0000 803f
00000060: 6738 ed3d 03c1 d33c 5e71 793f 265b 183e
00000070: 66ed 583f 356e 733f 8023 053e dd1f 2f3f
00000080: a983 d23f 3d0c 1940 5904 c43f 12ea 0b40
00000090: b0ef 0f40 08cc 1c40 e300 e83f b815 1a40
000000a0: 0b1b f63f 485c 1a40 2e48 4240 d7a3 cf3f

dense.0.denselayer2.norm1.bias f4 [44]
-0.2661249 -0.3015769 0.4864974 -0.7518293 0.3660306 -0.7967857 -0.2836084 -0.7700883
0.20333634 0.96115977 -0.26388425 -0.7394493 -0.5843396 -0.6170278 -0.33717918 0.032724574
-0.31117463 0.2510336 -1.204863 -0.84241337 0.8335738 -0.4295668 -0.26054627 0.0
-0.70639056 -0.1471998 0.02657443 -0.8034388 -0.16967006 0.72239935 -0.78102803 -0.2554841
2.4012456 3.5325513 1.9575181 1.490591 2.1531637 1.8791969 2.8725142 4.5279727
3.2339864 1.9393923 -0.025928212 2.3565497
00000000: 8641 88be 4a68 9abe 3016 f93e e377 40bf
00000010: 5d68 bb3e 26fa 4bbf 1f35 91be 8224 45bf
00000020: 6737 503e 910e 763f d61b 87be 8d4c 3dbf
00000030: 4897 15bf 89f5 1dbf c0a2 acbe 340a 063d
00000040: 4852 9fbe 7a87 803e f338 9abf 67a8 57bf
00000050: 1865 553f 2ef0 dbbe 5266 85be 0000 0000
00000060: 03d6 34bf 8bbb 16be 9eb2 d93c 2aae 4dbf
00000070: fdbd 2dbe 2aef 383f 74f1 47bf d0ce 82be
00000080: 02ae 1940 5215 6240 f48f fa3f b0cb be3f
00000090: 6fcd 0940 8689 f03f 46d7 3740 27e5 9040
000000a0: a2f9 4e40 023e f83f 6767 d4bc b6d1 1640

dense.0.denselayer2.norm1.running_mean f4 [44]
6e-45 2.6640038 10.822719 3.3881447 3.5152051 14.593676 6e-45 0.6649476
0.10493354 5.229844 3.436171 5.274292 8.4686775 22.297918 1.1195294 6e-45
0.16821252 1.5509772 0.016529744 0.053407267 2.9970908 8.395655 1.1004125 0.0
0.7102797 0.6709676 6e-45 10.400443 6e-45 2.3825517 5.8373246 0.7006909
-3.3603501 -17.515255 -8.008629 -19.431932 -19.794617 -19.758163 -11.027468 -15.243538
-13.403638 -17.22305 -30.277796 -6.7308216
00000000: 0400 0000 0a7f 2a40 db29 2d41 5dd7 5840
00000010: 1ff9 6040 b27f 6941 0400 0000 023a 2a3f
00000020: 65e7 d63d e25a a740 3aea 5b40 00c7 a840
00000030: b47f 0741 2362 b241 bd4c 8f3f 0400 0000
00000040: e73f 2c3e 6c86 c63f 6369 873c 94c1 5a3d
00000050: 56d0 3f40 9a54 0641 51da 8c3f 0000 0000
00000060: e4d4 353f 88c4 2b3f 0400 0000 3768 2641
00000070: 0400 0000 ba7b 1840 5dcb ba40 7b60 333f
00000080: fa0f 57c0 3e1f 8cc1 5823 00c1 9974 9bc1
00000090: 605b 9ec1 b810 9ec1 8270 30c1 88e5 73c1
000000a0: 4d75 56c1 cec8 89c1 ed38 f2c1 e462 d7c0

dense.0.denselayer2.norm1.running_var f4 [44]
6e-45 0.6999072 11.623675 53.446457 26.454227 19.159365 6e-45 10.326226
0.22247842 23.560194 1.1652348 71.753586 1.6926911 26.156435 0.06613368 6e-45
0.0017988908 48.584286 0.19354935 0.05782015 9.836271 16.383709 0.0751939 6e-45
11.782429 10.514296 6e-45 416.3961 6e-45 7.8413587 29.808441 0.04848482
16086.918 38217.29 16104.381 27506.926 31353.057 39819.46 25132.24 34112.35
32188.049 49777.273 27132.541 18162.959
00000000: 0400 0000 1e2d 333f 93fa 3941 2cc9 5542
00000010: 42a2 d341 6146 9941 0400 0000 3938 2541
00000020: 62d1 633e 477b bc41 6a26 953f d681 8f42
00000030: 1aaa d83f 6140 d141 1871 873d 0400 0000
00000040: c2c8 eb3a 4f56 4242 cd31 463e d2d4 6c3d
00000050: 5e61 1d41 d611 8341 42ff 993d 0400 0000
00000060: d484 3c41 8e3a 2841 0400 0000 b332 d043
00000070: 0400 0000 69ec fa40 b077 ee41 0598 463d
00000080: ac5b 7b46 4a49 1547 86a1 7b46 dae5 d646
00000090: 1df2 f446 768b 1b47 7b58 c446 5a40 0547
000000a0: 1978 fb46 4671 4247 15f9 d346 ebe5 8d46

dense.0.denselayer2.conv1.weight f4 [48, 44, 1, 1]
0.12937449 -0.028712181 2.2817528 -0.27055407 -1.4844288 -0.36980134 0.057420418 -0.27826563
-0.86783534 -1.3420013 0.030849177 -0.036688507 -0.6717706 -0.5585157 -0.016601378 -0.11383715
0.13453075 -1.1623778 0.81664354 -0.099693604 -1.1534181 -0.5418049 -0.043224845 0.1312604
-0.21986724 -0.87529105 0.01995 -0.15611067 0.20467477 -1.1868274 -0.28615865 0.0005389446
-0.5961703 0.8439537 0.7463703 0.49019185 -0.8658509 -1.4012077 -0.7073435 0.25479522
0.41183993 4.124205 0.20973876 -1.5000854 0.12153236 0.029755926 0.9426857 0.22333047
-0.37861443 -0.13683313 0.104982816 -0.0963355 0.6260333 -0.59130883 0.0059651486 -0.013013062
0.09833659 -0.19269028 -0.024994275 0.14920841 -0.010855532 0.62065107 -1.0564214 -0.04226412
0.678545 0.35799557 0.035185058 0.13748443 -0.10921825 -0.15765107 -0.027501589 0.07000725
-0.21247023 0.5661588 0.104636915 0.019951867 -0.14843352 0.6566957 2.4682763 -2.014477
0.7588957 -0.55386114 -1.1394712 3.745872 1.2353657 -1.9956571 1.7139624 1.304956
0.047528625 -0.058370434 -0.9867905 -0.5472834 1.2160356 0.15610896 0.07976578 -0.17432629
-1.244799 1.5147208 -0.14608456 -0.35121593 -0.3304078 0.04423721 0.10834704 0.07256127
-0.016977305 -1.2676576 0.23167688 -0.025926927 -1.3449603 -0.76031965 -0.048603937 0.13087589
0.10569436 0.10483897 -0.14961956 -0.28730363 0.15155686 -1.3389032 -0.09213248 -0.13905911
1.0023887 -1.8092375 -1.0869256 0.13349907 1.5145257 0.056007147 0.56688374 -0.79483587
-1.640321 0.54737824 3.66472 0.27281833 0.026433546 -0.19104853 3.0072122 -0.38729766
-2.438671 -0.29691228 0.021521915 -0.19726121 -1.008202 -2.6393704 0.031062493 -0.26192847
-1.6571325 -0.6218452 -0.19604969 0.019575723 0.06431126 -1.2361549 -0.7264388 -0.11550491
-1.0169758 -0.55414176 -0.12085595 0.12995344 -0.27046478 -1.7718908 -0.1103227 -0.17171413
-0.01840673 -0.99424464 -0.23599118 -0.17054462 0.82077444 0.21280855 1.6870694 0.13836485
0.52478206 1.0138675 1.5921507 1.571977 0.4915106 -1.2641561 0.87655973 2.0415418
-0.0551458 -0.14986563 0.35418984 0.19512 0.20413785 0.10898544 -0.12803738 0.06615912
-0.30506796 0.2392696 -0.13892052 -0.045835454 0.07570762 0.039950106 0.036011804 0.12805322
-0.062112775 -0.5183693 -0.55476713 -0.0764682 -0.65955085 0.12190563 -0.03289842 0.099655
-0.08884213 -0.0018253033 -0.11204193 -0.11238553 -0.006699983 -0.54043245 -0.12655771 0.006029569
-0.386007 1.0836494 0.79375803 -0.23127435 2.0675821 -2.649336 -2.3091476 1.4455893
0.8471611 0.39336067 -5.8897896 -1.1859132 -0.07320742 -0.031692877 -2.532112 0.12435979
2.3509195 0.5377685 0.0038388737 0.706403 -0.11808933 2.4005647 -0.033218212 0.05301731
0.06905767 0.46285364 0.29014778 -0.058204394 0.112356655 -0.18331677 1.7729487 0.0363757
-0.35837916 0.0061869845 0.22313741 -0.01917094 0.8239458 0.94380677 -0.092503764 0.028099388
0.023275647 -0.24631608 0.09307874 -0.006629845 -0.4734056 1.6226559 0.08930315 0.06816788
00000000: bf7a 043e cf35 ebbc 3d08 1240 1086 8abe
00000010: c301 bebf 9a56 bdbe ac31 6b3d d578 8ebe
00000020: 752a 5ebf b3c6 abbf 6ab7 fc3c b046 16bd
00000030: 28f9 2bbf e3fa 0ebf 9dff 87bc 7423 e9bd
00000040: 6ec2 093e ccc8 94bf 8d0f 513f 292c ccbd
00000050: 34a3 93bf bab3 0abf 890c 31bd 2069 063e
00000060: e124 61be 1313 60bf 2f6e a33c 7adb 1fbe
00000070: 4396 513e f6e9 97bf 6383 92be f647 0d3a
00000080: 9e9e 18bf 5a0d 583f 2012 3f3f 6dfa fa3e
00000090: 68a8 5dbf c65a b3bf 7714 35bf 8574 823e
000000a0: afdc d23e 7df9 8340 c2c5 563e cc02 c0bf
000000b0: f5e5 f83d b3c2 f33c da53 713f beb0 643e
000000c0: c0d9 c1be fc1d 0cbe 3b01 d73d 8c4b c5bd
000000d0: b843 203f 0460 17bf 4b77 c33b bd34 55bc
000000e0: b264 c93d 9a50 45be cbc0 ccbc 17ca 183e
000000f0: 67db 31bc fde2 1e3f d138 87bf 241d 2dbd
00000100: 20b5 2d3f 324b b73e 351e 103d b8c8 0c3e
00000110: d1ad dfbd 486f 21be 034b e1bc f65f 8f3d
00000120: cc91 59be c8ef 103f e14b d63d 1972 a33c
00000130: f5fe 17be 361d 283f 3df8 1d40 31ed 00c0
00000140: fd46 423f d8c9 0dbf 31da 91bf 5ebc 6f40
00000150: 7720 9e3f b171 ffbf 1f63 db3f cc08 a73f
00000160: 60ad 423d d615 6fbd 4d9e 7cbf c41a 0cbf
00000170: 0ea7 9b3f 07db 1f3e 3e5c a33d 9782 32be
00000180: 9355 9fbf 5fe2 c13f 3197 15be 93d2 b3be
00000190: 362b a9be 1432 353d 0ee5 dd3d 019b 943d
000001a0: fd13 8bbc 9b42 a2bf b43c 6d3e b564 d4bc
000001b0: a927 acbf 4fa4 42bf ec14 47bd 5404 063e
000001c0: 4976 d83d d0b5 d63d df35 19be 7619 93be
000001d0: b931 1b3e 2e61 abbf f4af bcbd 8365 0ebe
000001e0: 464e 803f 1895 e7bf 6120 8bbf fbb3 083e
000001f0: fadb c13f c067 653d 4b1f 113f 5d7a 4bbf
00000200: 0af6 d1bf fb20 0c3f c68a 6a40 d8ae 8b3e
00000210: 2a8b d83c 3aa2 43be 2a76 4040 e14b c6be
00000220: 3013 1cc0 e304 98be ba4e b03c d8fe 49be
00000230: c30c 81bf 72eb 28c0 c576 fe3c 7d1b 86be
00000240: eb1c d4bf 3f31 1fbf 40c1 48be 445d a03c
00000250: 9fb5 833d 533a 9ebf e5f7 39bf d78d ecbd
00000260: 432c 82bf 3cdc 0dbf 5383 f7bd 8412 053e
00000270: 5c7a 8abe 51cd e2bf def0 e1bd d4d5 2fbe
00000280: b6c9 96bc d186 7ebf aca7 71be 40a3 2ebe
00000290: 461e 523f 7cea 593e e4f1 d73f 84af 0d3e
000002a0: 1e58 063f 69c6 813f 98cb cb3f 8b36 c93f
000002b0: 47a7 fb3e decf a1bf 3866 603f 9fa8 0240
000002c0: 90e0 61bd 6076 19be 5f58 b53e 8acd 473e
000002d0: 8309 513e c233 df3d 3b1c 03be 6f7e 873d
000002e0: de31 9cbe 1703 753e 2e41 0ebe f5bd 3bbd
000002f0: 990c 9b3d b9a2 233d 1d81 133d 6220 033e
00000300: f769 7ebd dab3 04bf 3805 0ebf 5c9b 9cbd
00000310: 53d8 28bf a9a9 f93d 7ec0 06bd ec17 cc3d
00000320: ddf2 b5bd 043f efba 3d76 e5bd 622a e6bd
00000330: 888b dbbb c859 0abf 5898 01be b193 c53b
00000340: b6a2 c5be 06b5 8a3f ba33 4b3f 2fd3 6cbe
00000350: 4453 0440 b98e 29c0 13c9 13c0 1209 b93f
00000360: 8ddf 583f 9266 c93e 2879 bcc0 01cc 97bf
00000370: c6ed 95bd 64d0 01bd 1f0e 22c0 58b0 fe3d
00000380: 7775 1640 32ab 093f 9d95 7b3b d4d6 343f
00000390: d2d8 f1bd daa2 1940 d20f 08bd ae28 593d
000003a0: 1c6e 8d3d 27fb ec3e 408e 943e bb67 6ebd
000003b0: 3f1b e63d 64b7 3bbe fcef e23f b0fe 143d
000003c0: 797d b7be 30bc ca3b 227e 643e 600c 9dbc
000003d0: 1dee 523f 529d 713f 9d72 bdbd b030 e63c
000003e0: 92ac be3c 483a 7cbe 11a0 be3d 2c3f d9bb
000003f0: 3862 f2be 30b3 cf3f 92e4 b63d 9a9b 8b3d

dense.0.denselayer2.norm2.weight f4 [48]
2.0335004 1.7175161 1.2725314 1.8073428 1.3797475 1.628676 2.0222547 1.5492514
2.4731276 1.6443814 1.1023558 2.288146 1.4968288 2.9668026 2.0386298 1.3279028
1.4491211 1.662203 1.499407 2.8510394 1.3969561 1.5225406 1.3966668 1.1467624
1.5697294 1.2229536 1.3325553 1.6119416 2.3730597 1.9233433 1.8463541 1.5608884
1.3853395 1.6334583 1.4260988 2.0715184 1.2502286 1.2187276 1.9464476 2.104607
1.0496831 2.5303452 1.2428157 1.5790889 1.6837113 1.6835505 1.3748978 1.4187335
00000000: df24 0240 91d7 db3f 4fe2 a23f 0257 e73f
00000010: 919b b03f 7578 d03f 9f6c 0140 df4d c63f
00000020: b947 1e40 177b d23f ff19 8d3f fc70 1240
00000030: 1698 bf3f 18e0 3d40 e978 0240 b8f8 a93f
00000040: cd7c b93f 11c3 d43f 92ec bf3f 6e77 3640
00000050: 75cf b23f 9ce2 c23f fac5 b23f 1cc9 923f
00000060: e5ec c83f be89 9c3f 2c91 aa3f 1a54 ce3f
00000070: 36e0 1740 1d30 f63f 5555 ec3f 31cb c73f
00000080: ce52 b13f 2915 d13f 688a b63f c293 0440
00000090: 7e07 a03f 44ff 9b3f 3225 f93f e2b1 0640
000000a0: 045c 863f 2df1 2140 9614 9f3f 961f ca3f
000000b0: da83 d73f 957e d73f a7fc af3f 0f99 b53f

dense.0.denselayer2.norm2.bias f4 [48]
-0.72127175 0.048928775 -0.10182685 0.010962652 -0.29413342 -1.2705487 5.9634337 0.028442726
-0.16196343 0.22444241 -0.6699074 -0.106915936 -1.4303287 0.014943287 0.07930745 0.0950527
-2.935165 -0.4578806 0.21208255 -2.3707755 0.0053406176 -1.9956046 -0.15167901 -0.85721135
-0.15108527 -0.039771896 -1.867354 -0.28091964 -1.2102504 -0.5750965 -0.06529614 0.27618346
1.4820534 0.13780473 -0.42477456 -1.6382297 -0.086599335 -0.23362322 0.07652107 -0.83025765
-1.2015456 -0.7513849 -0.96342033 -1.3053907 -0.18802607 -0.12550822 -0.26295573 -0.29754
00000000: 44a5 38bf 8a69 483d 988a d0bd b29c 333c
00000010: a898 96be 57a1 a2bf 73d4 be40 b800 e93c
00000020: bed9 25be 3bd4 653e 0d7f 2bbf bef6 dabd
00000030: 0315 b7bf b0d4 743c f26b a23d fdaa c23d
00000040: bed9 3bc0 536f eabe 2b2c 593e c9ba 17c0
00000050: 5900 af3b f96f ffbf be51 1bbe 3472 5bbf
00000060: 19b6 1abe dbe7 22bd 7505 efbf b3d4 8fbe
00000070: 7ce9 9abf 8639 13bf fcb9 85bd eb67 8d3e
00000080: edb3 bd3f af1c 0d3e 0d7c d9be 83b1 d1bf
00000090: fe5a b1bd ed3a 6fbe 14b7 9c3d c48b 54bf
000000a0: 3fcc 99bf c35a 40bf b7a2 76bf 0b17 a7bf
000000b0: e889 40be 3a85 00be 22a2 86be 2a57 98be

dense.0.denselayer2.norm2.running_mean f4 [48]
3.4196634 24.509375 -7.78452 25.081495 -0.051437646 13.283582 5.419281 -4.796982
-1.4296471 -10.187759 12.209398 15.786708 20.8447 14.938717 -12.856365 4.495708
23.288836 -40.138817 -2.3412263 26.854092 -7.1819215 0.0010854475 -16.663422 -3.2187743
-33.404625 -38.46273 8.633472 -7.614403 -0.46661702 -10.370233 8.496357 24.000338
-4.6789355 21.342606 7.533031 -17.708532 -8.543486 -12.801232 -14.174953 -16.163372
-12.124245 -0.26642644 -4.7272367 8.201824 27.059477 -9.992197 0.56438696 -5.4121027
00000000: c4db 5a40 3313 c441 ca1a f9c0 e7a6 c841
00000010: 48b0 52bd 8d89 5441 c06a ad40 e080 99c0
00000020: adfe b6bf 1001 23c1 b259 4341 5b96 7c41
00000030: f2c1 a641 fc04 6f41 acb3 4dc1 d7dc 8f40
00000040: 894f ba41 268e 20c2 a7d6 15c0 2ed5 d641
00000050: 4dd2 e5c0 9345 8e3a b04e 85c1 6600 4ec0
00000060: 569e 05c2 d6d9 19c2 b422 0a41 30a9 f3c0
00000070: 6de8 eebe 79ec 25c1 14f1 0741 b100 c041
00000080: d7b9 95c0 a8bd aa41 970e f140 13ab 8dc1
00000090: 1eb2 08c1 d9d1 4cc1 9ccc 62c1 964e 81c1
000000a0: e8fc 41c1 0c69 88be 8645 97c0 ac3a 0341
000000b0: cf79 d841 0ae0 1fc1 aa7b 103f f22f adc0

dense.0.denselayer2.norm2.running_var f4 [48]
39.848095 53.13046 50.318844 58.550373 61.483597 52.22837 145.51665 69.927986
201.10922 77.23615 43.825314 59.448204 80.73295 327.91766 167.15381 56.23269
43.062664 33.458122 61.16982 167.92723 49.322254 71.33479 77.297195 60.512184
51.243896 70.17632 82.10474 46.604507 113.02546 35.9749 71.33547 73.271286
59.567734 64.40906 45.92676 46.385532 40.089333 23.903666 48.3425 80.49188
46.244793 62.348763 65.08021 64.470505 86.67917 72.50486 85.6619 15.758237
00000000: 7364 1f42 9785 5442 7f46 4942 9533 6a42
00000010: 34ef 7542 dae9 5042 4384 1143 21db 8b42
00000020: f61b 4943 e978 9a42 1f4d 2f42 f6ca 6d42
00000030: 4577 a142 76f5 a343 6027 2743 46ee 6042
00000040: 2b40 2c42 1ed5 0542 e5ad 7442 5fed 2743
00000050: fd49 4542 6aab 8e42 2a98 9a42 7a0c 7242
00000060: c0f9 4c42 475a 8c42 a035 a442 046b 3a42
00000070: 090d e242 4ce6 0f42 c3ab 8e42 e68a 9242
00000080: 5c45 6e42 70d1 8042 01b5 3742 c98a 3942
00000090: 7a5b 2042 b53a bf41 b85e 4142 d8fb a042
000000a0: abfa 3842 2265 7942 1129 8242 e6f0 8042
000000b0: bc5b ad42 7d02 9142 e552 ab42 bd21 7c41

dense.0.denselayer2.conv2.weight f4 [12, 48, 3, 3]
-1.5225612 -1.4109768 -1.174624 -0.28888524 1.3311007 -2.4662657 -1.8973143 0.38537654
-1.4120424 0.35584682 -0.5845832 -0.7377792 1.8447528 -0.084044 -1.3079134 0.6349931
1.7388918 0.063141145 -0.45784414 -0.20174411 -0.028683241 0.36239988 0.57376176 0.8474302
-1.4389275 0.35696152 -0.5685452 -2.0357192 -0.5672386 0.96655923 2.8214905 0.47128773
-0.93570143 -0.21877751 2.1678824 -1.3210487 -1.9131138 0.109916 -2.0079796 0.7683891
1.5100334 0.42558533 -1.8910842 0.13036166 -2.698614 -0.3641985 -0.9108152 0.65636104
-0.9177845 -2.770265 -2.1511424 0.37462312 -1.3322325 0.1787658 0.12494799 0.27633426
-0.46547553 -0.11523634 -0.28702796 0.5904087 -0.45799738 -0.07467454 0.03821389 -2.10604
-0.14439176 1.1926082 1.0197766 0.9114032 -1.1113694 -0.7873324 1.3894229 -3.5569735
0.7837339 0.86838573 -0.5566617 -3.9891474 0.698985 0.46411446 -5.7992954 -3.811007
1.3160999 -1.4606174 0.47280732 -0.11884724 0.84810776 2.2587414 -0.25847661 -0.87849575
0.6128502 -0.70628214 0.42542446 3.3710103 -1.1359237 -0.69324183 -1.1178004 3.3048732
-1.1599535 -1.4494891 0.4244906 0.036525983 0.82563215 1.2258866 1.482569 1.8654567
0.35821688 -0.7726534 1.1612265 -0.29318613 2.325468 -0.30781776 1.0469412 -1.8301429
-3.969769 0.49085197 0.24408016 -2.7736685 1.5336272 0.3613801 0.9163721 -0.70034134
-1.775946 -0.41743374 0.8401676 -4.975246 -1.672929 -0.010901006 -0.88054055 -0.43371144
-0.37919617 -1.7374482 -0.21527489 0.051264763 -4.1829424 -1.0883794 -0.75395685 0.28750464
0.14688271 -1.7688601 -0.21343695 0.7631625 0.48556092 -0.18049839 -0.54617333 0.5139754
0.57321066 -0.5748519 2.3834345 -3.166356 -1.8335211 -1.3136438 3.8733437 -2.9928236
1.1668955 -1.3695307 -0.2900053 -1.7071563 1.3274531 2.8369617 0.7317041 -0.19398783
1.4904258 -1.7029568 0.11903547 -0.60430133 -1.6240765 -0.6086291 1.1249182 -0.66279316
0.6765796 -0.25907415 -0.99852586 -0.44882518 1.4193194 -0.12015817 -0.9154129 0.39020318
1.3664845 -5.7282395 -0.47814354 0.10021792 -1.334132 0.2307447 -0.62220585 3.1073265
0.6021903 0.7181407 1.4349307 1.4402567 -1.5640439 -0.23405677 2.1501207 0.27648616
-3.4454682 -2.5823123 1.863825 -3.9446332 -3.2740607 -0.10545164 -0.50664854 -0.31234077
-0.8788066 2.0162013 1.6824564 -0.81828403 -2.016484 0.6625325 -1.3367208 0.57253104
-0.5556754 -1.6232772 -0.4953688 0.11759429 0.9410589 2.4098427 0.15101053 0.46159
-0.9702684 0.66783667 0.32102695 1.3766389 1.7603273 1.2185341 -0.5081632 0.3940588
-1.1860746 0.028481724 -1.100164 0.001960878 -0.51907194 0.9914603 -1.268314 0.8530194
-0.100357436 -0.7795605 1.1291672 0.34027284 -0.5688168 -2.7174869 -2.0021617 0.16914399
-4.499342 -3.6749904 1.4840205 0.8503931 0.2405245 -0.14825813 4.8469048 4.2032075
0.39463827 -1.0367342 3.9880097 0.8499947 0.94363654 0.6886289 -0.32171604 -2.5880203
00000000: 49e3 c2bf e39a b4bf 145a 96bf c4e8 93be
00000010: 8261 aa3f 4cd7 1dc0 32db f2bf 1350 c53e
00000020: cebd b4bf 8e31 b63e 3fa7 15bf 19df 3cbf
00000030: dc20 ec3f 431f acbd b569 a7bf e88e 223f
00000040: 0294 de3f 2550 813d 8c6a eabe 0296 4ebe
00000050: 1ef9 eabc 7a8c b93e 0de2 123f 30f1 583f
00000060: c72e b8bf a9c3 b63e 2e8c 11bf 3949 02c0
00000070: 8d36 11bf 6d70 773f 4d93 3440 a04c f13e
00000080: 218a 6fbf 3607 60be 96be 0a40 2018 a9bf
00000090: eae0 f4bf a41b e13d bd82 00c0 26b5 443f
000000a0: c648 c13f 52e6 d93e 0c0f f2bf 877d 053e
000000b0: 17b6 2cc0 3a78 babe 2f2b 69bf 4707 283f
000000c0: edf3 6abf 064c 31c0 51ac 09c0 9ace bf3e
000000d0: 9886 aabf 620e 373e bbe4 ff3d af7b 8d3e
000000e0: cf52 eebe 0801 ecbd 54f5 92be 0625 173f
000000f0: a27e eabe f7ee 98bd 2b86 1c3d 5cc9 06c0
00000100: 6fdb 13be 63a7 983f 0a88 823f b851 693f
00000110: 5a41 8ebf 9e8e 49bf 9cd8 b13f 74a5 63c0
00000120: c9a2 483f 874e 5e3f 6281 0ebf 314e 7fc0
00000130: aef0 323f 69a0 ed3e d493 b9c0 8ae7 73c0
00000140: f675 a83f 83f5 babf cd13 f23e 2f66 f3bd
00000150: 971d 593f 388f 1040 0c57 84be 19e5 60bf
00000160: c0e3 1c3f e8ce 34bf 3cd1 d93e a2be 5740
00000170: f365 91bf 4c78 31bf 1514 8fbf 0b83 5340
00000180: 5b79 94bf dc88 b9bf d556 d93e 459c 153d
00000190: a15c 533f dae9 9c3f d2c4 bd3f 49c7 ee3f
000001a0: 3468 b73e 9dcc 45bf 12a3 943f 7e1c 96be
000001b0: 78d4 1440 4a9a 9dbe 2b02 863f 1f42 eabf
000001c0: b210 7ec0 f350 fb3e 26f0 793e c983 31c0
000001d0: e54d c43f d006 b93e 5d97 6a3f 9249 33bf
000001e0: 3352 e3bf e0b9 d5be 3915 573f 3735 9fc0
000001f0: 8a22 d6bf 229a 32bc 1b6b 61bf 6d0f debe
00000200: 0026 c2be b464 debf 0571 5cbe 00fb 513d
00000210: aada 85c0 0450 8bbf 5103 41bf cf33 933e
00000220: 6c68 163e 026a e2bf 378f 5abe 9e5e 433f
00000230: 719b f83e 92d4 38be 04d2 0bbf e493 033f
00000240: efbd 123f 7e29 13bf 318a 1840 94a5 4ac0
00000250: d2b0 eabf 7b25 a8bf dde4 7740 6c8a 3fc0
00000260: d55c 953f c84c afbf 937b 94be 1984 dabf
00000270: fce9 a93f c890 3540 f650 3b3f bfa4 46be
00000280: 46c6 be3f 7dfa d9bf dec8 f33d 7eb3 1abf
00000290: bde1 cfbf 1ecf 1bbf 52fd 8f3f d0ac 29bf
000002a0: 5234 2d3f 5ea5 84be 649f 7fbf 6acc e5be
000002b0: 42ac b53f 7d15 f6bd 8058 6abf b6c8 c73e
000002c0: f7e8 ae3f bd4d b7c0 3bcf f4be 0e3f cd3d
000002d0: d6c4 aabf 5748 6c3e e248 1fbf 70de 4640
000002e0: 2529 1a3f 12d8 373f cfab b73f 555a b83f
000002f0: 9732 c8bf 94ac 6fbe 949b 0940 988f 8d3e
00000300: 8d82 5cc0 9b44 25c0 d191 ee3f df74 7cc0
00000310: 368a 51c0 08f7 d7bd b8b3 01bf 21eb 9fbe
00000320: 78f9 60bf 7109 0140 bb5a d73f 107b 51bf
00000330: 130e 01c0 bb9b 293f ab19 abbf 6591 123f
00000340: be40 0ebf 8cc7 cfbf fba0 fdbe 46d5 f03d
00000350: 3ce9 703f dd3a 1a40 81a2 1a3e 8655 ec3e
00000360: 8363 78bf 58f7 2a3f a55d a43e b435 b03f
00000370: 6852 e13f edf8 9b3f fc16 02bf 13c2 c93e
00000380: 4bd1 97bf 8152 e93c 2dd2 8cbf 1382 003b
00000390: e6e1 04bf 58d0 7d3f 1d58 a2bf 7b5f 5a3f
000003a0: 3388 cdbd 4791 47bf 8d88 903f 3e38 ae3e
000003b0: fa9d 11bf 4eeb 2dc0 6b23 00c0 1534 2d3e
000003c0: 9cfa 8fc0 0b33 6bc0 62f4 bd3f 5db3 593f
000003d0: 0e4c 763e fbd0 17be d819 9b40 ad80 8640
000003e0: 070e ca3e b5b3 84bf 8d3b 7f40 4199 593f
000003f0: 2a92 713f fc49 303f f7b7 a4be 20a2 25c0

dense.0.denselayer3.norm1.weight f4 [56]
0.72661793 0.6957192 3.0582662 0.6743283 0.4576811 0.108953215 0.7487876 0.062205613
0.12119866 1.2655547 0.7390808 0.1265973 0.39183593 0.050557908 0.5336793 0.96830857
0.49731216 0.2350318 0.74266595 0.1494568 0.86684775 0.4776316 0.7267367 1.0
1.4880297 0.09310119 1.0355952 0.12350949 0.67854714 1.163749 0.107908614 0.7558117
1.350999 2.355348 1.4070315 1.8720064 1.9931564 2.2553093 1.7356163 2.3363566
2.032181 2.250467 2.1919248 1.5543286 2.9442315 0.86001545 1.7542616 0.7959512
3.6543813 2.330353 2.8389833 0.9935285 3.748888 0.7820679 2.9746964 0.87478805
00000000: a203 3a3f a71a 323f a2ba 4340 c8a0 2c3f
00000010: 2d55 ea3e dd22 df3d 8bb0 3f3f 50cb 7e3d
00000020: 0137 f83d b2fd a13f 6634 3d3f b9a2 013e
00000030: b89e c83e cf15 4f3d 359f 083f 12e3 773f
00000040: b39f fe3e 2dac 703e 5b1f 3e3f 340b 193e
00000050: bce9 5d3f 218c f43e 6b0b 3a3f 0000 803f
00000060: c277 be3f d6ab be3d 628e 843f 8bf2 fc3d
00000070: 44b5 2d3f baf5 943f 31ff dc3d e07c 413f
00000080: 89ed ac3f 06be 1640 9c19 b43f e89d ef3f
00000090: c01f ff3f fd56 1040 ad28 de3f de86 1540
000000a0: 410f 0240 a707 1040 7f48 0c40 3df4 c63f
000000b0: 4a6e 3c40 f929 5c3f a58b e03f 75c3 4b3f
000000c0: 62e1 6940 8124 1540 e7b1 3540 e257 7e3f
000000d0: c8ed 6f40 9a35 483f 6d61 3e40 1cf2 5f3f

dense.0.denselayer3.norm1.bias f4 [56]
-0.26593634 -0.25444087 -0.1313697 0.25489596 0.23547074 -0.7255074 -0.26596665 -0.46425882
-0.7252014 1.1041836 -0.2663945 -0.81771994 -0.045806337 -0.36981955 -0.43562856 -0.031551458
-0.45589417 -0.012743938 -0.0944762 -0.8397406 0.72939086 0.59097785 -0.25219208 0.0
0.39792594 -0.7232186 0.058832597 -0.7971559 -0.31608143 0.8652705 -0.790532 -0.26958707
2.2441607 3.4850473 0.94577444 1.6203644 2.2128735 1.4261574 2.8162408 4.16686
3.4733465 1.9495738 0.10705618 1.7055627 0.38343155 4.541112 0.55005664 8.365024
0.0014062261 0.26391697 -0.15774089 6.664739 -0.7172753 8.744332 -0.63097775 6.020621
00000000: cf28 88be 1346 82be c785 06be b981 823e
00000010: 3e1f 713e daba 39bf c82c 88be 55b3 edbe
00000020: cda6 39bf e355 8d3f dc64 88be 1856 51bf
00000030: 6d9f 3bbd fd58 bdbe b50a dfbe 1a3c 01bd
00000040: f66a e9be f3cb 50bc bd7c c1bd 3df9 56bf
00000050: 5cb9 3a3f 534a 173f 521f 81be 0000 0000
00000060: f3bc cb3e db24 39bf 73fa 703d 6912 4cbf
00000070: 6dd5 a1be 5e82 5d3f 4e60 4abf 5107 8abe
00000080: 54a0 0f40 040b 5f40 461e 723f 1a68 cf3f
00000090: b89f 0d40 538c b63f 4a3d 3440 eb56 8540
000000a0: 4f4b 5e40 a28b f93f 4540 db3d e14f da3f
000000b0: 2451 c43e ca50 9140 83d0 0c3f 23d7 0541
000000c0: 1e51 b83a 2020 873e d486 21be 8b45 d540
000000d0: 5b9f 37bf c9e8 0b41 c287 21bf eda8 c040

dense.0.denselayer3.norm1.running_mean f4 [56]
6e-45 2.6640038 10.822719 3.3881447 3.5152051 14.593676 6e-45 0.6649476
0.10493354 5.229844 3.436171 5.274292 8.4686775 22.297918 1.1195294 6e-45
0.16821252 1.5509772 0.016529744 0.053407267 2.9970908 8.395655 1.1004125 0.0
0.7102797 0.6709676 6e-45 10.400443 6e-45 2.3825517 5.8373246 0.7006909
-3.3603501 -17.515255 -8.008629 -19.431932 -19.794617 -19.758163 -11.027468 -15.243538
-13.403638 -17.22305 -30.277796 -6.7308216 -13.473588 -1.8023491 -16.1192 2.5227718
-28.953756 -15.204805 -9.868666 3.17939 -39.944134 -2.511319 -33.62736 0.11747606
00000000: 0400 0000 0a7f 2a40 db29 2d41 5dd7 5840
00000010: 1ff9 6040 b27f 6941 0400 0000 023a 2a3f
00000020: 65e7 d63d e25a a740 3aea 5b40 00c7 a840
00000030: b47f 0741 2362 b241 bd4c 8f3f 0400 0000
00000040: e73f 2c3e 6c86 c63f 6369 873c 94c1 5a3d
00000050: 56d0 3f40 9a54 0641 51da 8c3f 0000 0000
00000060: e4d4 353f 88c4 2b3f 0400 0000 3768 2641
00000070: 0400 0000 ba7b 1840 5dcb ba40 7b60 333f
00000080: fa0f 57c0 3e1f 8cc1 5823 00c1 9974 9bc1
00000090: 605b 9ec1 b810 9ec1 8270 30c1 88e5 73c1
000000a0: 4d75 56c1 cec8 89c1 ed38 f2c1 e462 d7c0
000000b0: d193 57c1 60b3 e6bf 1ff4 80c1 1875 2140
000000c0: 4ba1 e7c1 e246 73c1 0ee6 1dc1 207b 4b40
000000d0: cbc6 1fc2 73b9 20c0 6b82 06c2 4a97 f03d

dense.0.denselayer3.norm1.running_var f4 [56]
6e-45 0.6999072 11.623675 53.446457 26.454227 19.159365 6e-45 10.326226
0.22247842 23.560194 1.1652348 71.753586 1.6926911 26.156435 0.06613368 6e-45
0.0017988908 48.584286 0.19354935 0.05782015 9.836271 16.383709 0.0751939 6e-45
11.782429 10.514296 6e-45 416.3961 6e-45 7.8413587 29.808441 0.04848482
16086.918 38217.29 16104.381 27506.926 31353.057 39819.46 25132.24 34112.35
32188.049 49777.273 27132.541 18162.959 4013.887 644.6585 2400.3745 572.085
9099.553 5177.896 3616.6135 686.1735 12083.652 536.7178 5868.464 580.54364
00000000: 0400 0000 1e2d 333f 93fa 3941 2cc9 5542
00000010: 42a2 d341 6146 9941 0400 0000 3938 2541
00000020: 62d1 633e 477b bc41 6a26 953f d681 8f42
00000030: 1aaa d83f 6140 d141 1871 873d 0400 0000
00000040: c2c8 eb3a 4f56 4242 cd31 463e d2d4 6c3d
00000050: 5e61 1d41 d611 8341 42ff 993d 0400 0000
00000060: d484 3c41 8e3a 2841 0400 0000 b332 d043
00000070: 0400 0000 69ec fa40 b077 ee41 0598 463d
00000080: ac5b 7b46 4a49 1547 86a1 7b46 dae5 d646
00000090: 1df2 f446 768b 1b47 7b58 c446 5a40 0547
000000a0: 1978 fb46 4671 4247 15f9 d346 ebe5 8d46
000000b0: 31de 7a45 252a 2144 fe05 1645 7105 0f44
000000c0: 362e 0e46 2bcf a145 d109 6245 1b8b 2b44
000000d0: 9cce 3c46 f02d 0644 b663 b745 cb22 1144
