Trained Model/8-8 4-network-1600notstabledata.pt (torch, 700943 bytes, 154 tensors)

conv.0.weight f4 [4]
00000000: f380 813f c305 613f dc16 453f 1ce0 973f
1.0117477 0.87899417 0.76988006 1.1865268

conv.0.bias f4 [4]
00000000: 55fb 9abf 96c7 813f 8b02 433f 8e56 0ebf
-1.210795 1.0139034 0.76175755 -0.5560082

conv.0.running_mean f4 [4]
00000000: 1b45 283d ce7d 473d d8fa 2d3d 13c8 413d
0.04108153 0.04870396 0.04247555 0.047309946

conv.0.running_var f4 [4]
00000000: 4a49 213d 97b5 3d3d 8b87 263d 7189 383d
0.039376535 0.046315756 0.040656608 0.04505295

conv.1.weight f4 [32, 4, 1, 1]
00000000: e565 1bbe feca 0a40 ebba 9ebe 44fa fc3e
00000010: 2216 f3bc 4144 eebf b7d9 98bf 768e 55be
00000020: 3a1a 51bf c4ca 5c3f 07cf 303f c63b d1bf
00000030: c3b3 08bf 2f3c 8440 0ffc 4c3e 5099 a9be
00000040: 980c 3fbf b6d0 3d3f 26f4 bcbe d0ff c63f
00000050: f130 acbe 497b 2cbf fc78 9b3e ae96 82bf
00000060: ca41 27bf d3a2 0140 67c8 443f 4361 04bf
00000070: 88d9 83c0 ea25 0fbf 7137 153e bd3a 6dc0
00000080: 97a6 433d 8935 02bf 7c38 c3bd a4ca 55be
00000090: 9051 acbd 117d dfbe 94b1 ea3c ba07 8cbf
000000a0: 4959 83bf a6ed 943d 9b57 d4be eff8 7fbd
000000b0: e54c b0bf 89ce 5a3e 7973 ebbe 83ff 79be
000000c0: 5ec0 69bf 7572 8a3f cb2a 55bf 8b27 b13f
000000d0: 7595 7cbf d0f7 46be ec75 16bf 3089 b73d
000000e0: f568 17be 70bd 2dbf 867e c8bf 4ca4 343e
000000f0: 995c 593f fc12 52bf da08 3b3f 4007 68bf
00000100: 3d5e 57be 5692 93be 46d3 3d3e 4a8f 0dbf
00000110: 9a7c 97bf 09c8 a1be 44e7 4b3d 9690 473e
00000120: cdca 0bbf 2a8a 12be d2af 43be f144 463d
00000130: aee6 0dc0 b149 2bbe 9a50 f63d 1727 03c0
00000140: 7b9b dbbe de0b ec3d 7460 8740 5c07 75be
00000150: dd41 f9be 9167 f2bf 57cf 6abf bacd b2be
00000160: 2ffc 1fbe 6939 8fbf 5a84 de3d 9b8a 65bf
00000170: 7945 65bf fe96 423e 7430 7cbe c6b7 7bbe
00000180: 3718 b3bf 367c dcbd 752e 78be c0cb c93c
00000190: 69b8 83be e558 99be de70 c2be 5bc1 5abe
000001a0: 86e3 eebf 1883 80be ebec 04bf ad26 1a3e
000001b0: b71a 0ebf e691 c73f f6f3 343f 7261 4e3f
000001c0: f251 0b3f 1980 96be 152b 3b40 5cc6 33be
000001d0: 4493 6ebe f34a 773e dfc9 8140 790c dabe
000001e0: acd1 533d d975 70bf 3846 d6bd 847b 90bf
000001f0: 559e febe 4b17 d63e 8ebb 2b40 f698 d7be
-0.15175588 2.1686397 -0.31001982 0.49409688 -0.02967364 -1.861458 -1.1941441 -0.20855126
-0.81680644 0.86246896 0.690659 -1.6346366 -0.53399295 4.1323466 0.20018028 -0.3312478
-0.7462859 0.7414659 -0.3690502 1.5546818 -0.3363109 -0.6737562 0.3036574 -1.0202234
-0.6533476 2.025563 0.7686829 -0.5171091 -4.120304 -0.5591723 0.1457193 -3.70671
0.047766294 -0.5086294 -0.09532258 -0.20878083 -0.08413994 -0.43650106 0.028649129 -1.0939858
-1.0261623 0.0727189 -0.41473088 -0.06249326 -1.3773466 0.2136785 -0.45986536 -0.24413876
-0.91309154 1.081618 -0.8326842 1.3840193 -0.98665553 -0.1943047 -0.58773685 0.08961713
-0.14786132 -0.67867184 -1.5663612 0.176408 0.8490692 -0.8206022 0.7306038 -0.9063606
-0.21032043 -0.28822583 0.18537626 -0.55296767 -1.18349 -0.31597927 0.0497811 0.19488749
-0.54606324 -0.14310518 -0.19110039 0.04840559 -2.2172046 -0.1672733 0.12027092 -2.0492609
-0.4289206 0.11525701 4.230524 -0.23928589 -0.48683062 -1.8937856 -0.91722625 -0.34922582
-0.15623544 -1.1189395 0.10865088 -0.8966462 -0.8955913 0.19002911 -0.24627858 -0.24581823
-1.3991765 -0.10765879 -0.24236472 0.024633288 -0.2572663 -0.29950634 -0.37976736 -0.21362822
-1.8663185 -0.25100017 -0.5192401 0.15053816 -0.55509514 1.55914 0.70684755 0.8061744
0.54421914 -0.29394606 2.9245045 -0.17556137 -0.23298365 0.24149685 4.0558925 -0.4258764
0.05171363 -0.9392982 -0.10462612 -1.1287694 -0.49730173 0.41814646 2.6833224 -0.42108887

conv.1.bias f4 [32]
00000000: 42a2 8a3e e29a 883d d31d 953f 9109 893e
00000010: bea4 b03e 16fa 563f 1cad 28bf ffb7 7340
00000020: fe11 9e3f ea05 a33f dffb fb3e 7cda 753f
00000030: 6663 aa3e 793b ac3f c2e1 2d3e f4da 073f
00000040: 102b 893f 430b a33f 2931 b23f 1747 1840
00000050: 3776 69bf 7f0e d33e 5049 ab3f 4885 7a3f
00000060: b4e4 d53f 9d8c 1cbf fc88 d13f 4faa 02bf
00000070: 6083 583e 6fcd bebe ed84 983f fc5e 54bf
0.27076918 0.066701666 1.1649727 0.2676511 0.34500688 0.8397535 -0.65889144 3.8081052
1.2349241 1.273618 0.492156 0.96036506 0.3327896 1.345565 0.16980651 0.5306847
1.0716267 1.2737812 1.3921252 2.379339 -0.91196007 0.41221997 1.3381748 0.9785962
1.671042 -0.6115206 1.6369929 -0.5104112 0.21143866 -0.37266108 1.1915566 -0.82957435

dense.0.denselayer1.norm1.weight f4 [32]
00000000: 8242 393e ffe0 2c3f 7df7 2240 8ad2 c13f
00000010: 7dab 1b3f 3c17 3a3f ca99 3e3d d11b 3a3f
00000020: 70c4 2b3f 03e1 3a3f f7d3 3f3f b53c 3e3f
00000030: 4825 b33f 28bd 443f 7cba 343f ff29 a43d
00000040: c6e2 363f feac 543f 4d85 413f 9f53 823f
00000050: 7d90 983f 1c92 2f3f d3b1 1f3f c737 383f
00000060: 0691 3a3f 5545 483f 6e99 2a3f 7086 313e
00000070: 9296 a13f 536d 943f d1f4 303f de47 5c3f
0.18091777 0.67530817 2.5463555 1.5142376 0.60808545 0.726917 0.046533383 0.72698694
0.67096615 0.7299959 0.7493281 0.7431138 1.3995752 0.7685113 0.7059705 0.080158226
0.7143978 0.83076465 0.75594026 1.0181769 1.1919094 0.6858232 0.62380713 0.7196011
0.7287754 0.7823079 0.66640365 0.1733644 1.2624075 1.1595863 0.6912356 0.8604716

dense.0.denselayer1.norm1.bias f4 [32]
00000000: b237 90bf 8700 a4be b85a 0d3f 7709 883f
00000010: f3b5 1cbf f505 8fbe f158 0e3f 5238 b5be
00000020: d832 a7be 5663 80be ea16 87be 745b 8ebe
00000030: 1c44 92be 1c26 97be c475 adbe 180c 5fbf
00000040: f8c4 8abe fc8f 92be 3721 81be ff14 e8be
00000050: f25f 1b3f bfc6 aabe 6db4 63be 1a3c aabe
00000060: 38af 81be b4d7 72be a83b abbe 606e a5bf
00000070: af19 2e3f 997d 1f3f ab10 98be 5668 ef3e
-1.1266997 -0.32031652 0.5521655 1.0627888 -0.6121513 -0.27934232 0.55604464 -0.3539453
-0.32655978 -0.25075787 -0.2638467 -0.27804148 -0.28567588 -0.29521263 -0.3387891 -0.8712783
-0.271034 -0.28625476 -0.25220653 -0.4532852 0.60693276 -0.33354756 -0.22236796 -0.3324898
-0.25328994 -0.23715097 -0.33443952 -1.2924309 0.6800794 0.6230102 -0.29700217 0.4675929

dense.0.denselayer1.norm1.running_mean f4 [32]
00000000: ee14 0a40 0400 0000 b1b7 8f40 4abb ad40
00000010: 0958 853f c662 d63f 5757 4340 4946 3341
00000020: bae6 513f d4b5 eb3f 4354 dd3f 4321 3740
00000030: c6f5 b43f 507a 0340 0400 0000 2ce9 913e
00000040: 541b cd3f 72a7 1c40 a27e e63f c404 d040
00000050: 810b 4540 0400 0000 e043 ae3f 54dd 1440
00000060: eba6 4f40 0400 0000 0abc 5e40 0a34 ea3f
00000070: 5b96 d13f 8fa0 5e40 a423 933f 78f1 1d40
2.1575274 6e-45 4.4911733 5.4291124 1.0417491 1.6748893 3.0522058 11.204659
0.81992686 1.8414865 1.729134 2.8614051 1.4137504 2.0543404 6e-45 0.2849821
1.6023965 2.44772 1.8007395 6.5005817 3.0788271 6e-45 1.3614464 2.3260088
3.2445629 6e-45 3.480227 1.8297131 1.637401 3.4785497 1.1495252 2.467863

dense.0.denselayer1.norm1.running_var f4 [32]
00000000: 1b49 cb40 0400 0000 01ea 923f 1e67 2e41
00000010: 2354 c740 a4f2 1e3e 1f87 bf3f 001d 4341
00000020: 66a3 0f3d 4500 353e 1f0f 063e 6905 ba3e
00000030: 5936 d740 6909 443e 0400 0000 83b0 f33f
00000040: 075d 083e bb66 853e 2671 153e cf46 8340
00000050: 6a38 0241 0400 0000 03db ce3d e81b 7e3e
00000060: acac ea3e 0400 0000 b5cf 083f 0479 ae40
00000070: e31b fd40 2276 0941 99d2 8c3d 3d3e 2640
6.352674 6e-45 1.1477662 10.900175 6.2290206 0.15522248 1.4963111 12.19458
0.03506794 0.17675884 0.13091706 0.36332253 6.725384 0.19144215 6e-45 1.9038242
0.13316737 0.2605494 0.14593944 4.1023936 8.138773 6e-45 0.10100367 0.24815333
0.45834863 6e-45 0.53441936 5.4522724 7.909654 8.591341 0.06876106 2.5975487

dense.0.denselayer1.conv1.weight f4 [48, 32, 1, 1]
00000000: 2e4d 8abe 4b32 643d ccf1 f03e 57dd 62be
00000010: 2bb6 b3be c49c c0bd 73fc 82be 9974 dd3b
00000020: 1fd2 97bd 229a 16be 3975 143e 322b 0bbe
00000030: 4cd0 8ebd 1708 763d 3f2b a63e e5b2 11bf
00000040: fb36 e8be 3a1a 6a3d edc1 0f3e a2ca da3e
00000050: 0f1f 32bf d8ae 2c3e 8390 94be d58d 183e
00000060: 0cff 163f 3918 853e 2475 ef3d d2d1 91be
00000070: 8ba8 17bf 7beb e7be 4975 523d b80f 11bf
00000080: 7792 5e3f 29ed 9bbc 4a8f b6be 75f3 8f3f
00000090: ffaa ce40 9e7c 0fbe cbaa 333f 0224 0fbe
000000a0: 5640 5ebb 2ed1 26be 005b 483d e53c 55bd
000000b0: 349c ef40 78c9 183e 9679 f43d c1ec 9a3e
000000c0: 7d6a 81bb e35e f03c 686b b93e a39e 28bf
000000d0: a27f d7bb 206d 9b3d 920e e63d d867 1d3e
000000e0: 2ccc 853e 32ce 143c c91f 6f3e a80c 5a40
000000f0: b607 d03d 5af9 483e 58e3 6fbd 7096 143e
00000100: 5907 fd3e 8889 0cbd 65ab ed3e 62b0 ebbe
00000110: 49bd 833f 83d9 61bc c93f e9be 2ccf 223e
00000120: 6380 613d 2dcc 00be af8e 2abb e552 483e
00000130: 97ce 923f 894c a6bd 4b2a a83a eae4 0e3e
00000140: 1e7f cc3d 4745 653c 2203 a4be 271a 16be
00000150: ee36 8740 5a5f 05bc 336b 433e 32da f53d
00000160: 3ec6 90be 73fc 2bbd dc85 013e f3c1 333f
00000170: c15d 0240 bf75 6240 e8d0 973d a6d8 8940
00000180: 52f1 283f 2926 27be a1e4 94be 761a 983f
00000190: 4071 c440 c6a7 1d3d 13bc cd3e a0fd 403d
000001a0: bde0 d33d 2ca5 ee3d db4e 743e 86d8 a1bd
000001b0: a2b5 f940 bf27 8b3e d5f8 443e dd50 b23e
000001c0: a030 00be 2ee6 52be de8f 753e 5688 babe
000001d0: 206e d03d 2a6d 243e b412 82bd 1b9b 4c3d
000001e0: c700 3c3d b90c bfbd 32fb 81bc 7670 6340
000001f0: 42bd 613e 44ce 793e fbcf 323d e608 243e
00000200: c64c 0440 d87f b1bd 2893 0cbf 229b 5a3f
00000210: 3b65 b740 f261 f83c 2cb5 5d3e 9141 9cbe
00000220: b434 4dbd 23be f43d ab44 d3bc 514c 9bbd
00000230: 6561 c340 c236 f03c 5a33 4cbe 813c 09be
00000240: 4c71 80bd 1b19 323e caf6 6d3e 2f4f 46bf
00000250: 6e70 0c3e dcca c3bd f80a b33d f3af c53d
00000260: f833 4ebe c644 55bd 6a10 afbd 81ef 0440
00000270: 7d3c bbbd 22ea 1cbe ef7e 95be 6389 a63d
00000280: c55c e640 977d f8bd 0301 dcbd 6b4a fa3f
00000290: dc4c db3f 0f6f dcb9 2fe0 5e3f 2e30 d2bd
000002a0: a7f9 e9bd 0190 15be 4817 dbbc 8d8d 1d3d
000002b0: 1f56 df3f bb86 e83d a18c dcbc 53d1 dfbd
000002c0: b45a 25be 4568 a83e a27f 583e a9f5 40bf
000002d0: b62f 7f3d 199c f6bd e466 38be d2e3 633e
000002e0: d9ab 38bd 9742 a1bb e410 653e 1d61 913f
000002f0: 8890 0bbe b1f2 b43d 3c50 b53d 1f36 da3d
00000300: ce0c c83e 6d80 9dbe fece db3e 42ce 04bf
00000310: b68d 8f3f 548e 19be e8d4 d1be f132 a93d
00000320: dbd2 72be 3045 8cbe f54a 92bc 46a2 23be
00000330: 4924 873f 9d7d 38be 2539 34be 4104 bf3d
00000340: df12 d83b bc8b c1bd 5b47 5cbe 8b4f e7be
00000350: 0355 9c40 e656 34be 31db d63d 7008 5b3d
00000360: 4e8c 3ebf 9184 643c c04f 82bd 901d 4b3f
00000370: 2556 2b40 1f8b 8540 aba9 00be d107 ec3f
00000380: 0969 9d3f 2866 9abe d04c 9bbe 0093 893f
00000390: cee0 cf40 7c9c 463d 1eca 093f f615 b83d
000003a0: b1f1 0cbe bdeb ad3d 2f09 ec3b 9b62 17be
000003b0: 43dd e840 3ba6 21bd cacf 35be 0c73 c03e
000003c0: eb62 883e 264b 22bb 3753 8d3d 33aa 5bbe
000003d0: fcbf ee3d 9484 8a3d 0b6f 2f3c cc3d 253d
000003e0: 9855 71bd ae1c 6c3d 3f31 1ebe 0b38 4840
000003f0: 339f 2b3e 08f3 e73d e731 9cbc eda1 9fbd
-0.27012008 0.055712026 0.47059476 -0.22154747 -0.3509992 -0.09404901 -0.25583228 0.0067582843
-0.07413124 -0.14707235 0.14497842 -0.13590696 -0.06973323 0.06006631 0.3245487 -0.56913596
-0.45354447 0.057153918 0.1403882 0.42732722 -0.6957864 0.16863573 -0.29016504 0.14897855
0.5898292 0.25995043 0.11692265 -0.28480393 -0.5924155 -0.45296845 0.051381383 -0.5666461
0.8694224 -0.019033985 -0.35656196 1.1246172 6.4583735 -0.14012381 0.70182484 -0.1397858
-0.003391286 -0.16290733 0.04891491 -0.052060027 7.487818 0.14920604 0.11937253 0.30258754
-0.003949462 0.02934212 0.36214757 -0.6586706 -0.0065764943 0.07589173 0.11233248 0.15371644
0.26132333 0.009082364 0.23351969 3.4070225 0.10157721 0.1962637 -0.05856642 0.14510512
0.49419668 -0.034310848 0.46419826 -0.46033007 1.029214 -0.013784769 -0.45556477 0.15899342
0.05505408 -0.12577887 -0.0026024987 0.19562872 1.1469296 -0.08120067 0.0012829987 0.13954511
0.09985183 0.013993568 -0.3203364 -0.14658414 4.2254553 -0.008140409 0.19083862 0.12004508
-0.28276247 -0.0419888 0.1264872 0.7021782 2.0369723 3.5384367 0.074128926 4.3076963
0.65993226 -0.1632315 -0.2908068 1.1883075 6.1388245 0.03849008 0.40182552 0.047116876
0.103456 0.11652598 0.23858206 -0.07902627 7.803422 0.2717876 0.19235547 0.3482732
-0.12518549 -0.20595619 0.23980662 -0.3643214 0.10177255 0.16057268 -0.063512236 0.049952608
0.04589918 -0.093285985 -0.01586685 3.553739 0.22044852 0.2439509 0.043655377 0.1601902
2.0671859 -0.086669624 -0.5491204 0.85392964 5.731107 0.030320141 0.21651143 -0.30518773
-0.05009909 0.11950328 -0.02578958 -0.075829156 6.105639 0.029322986 -0.19941464 -0.13401987
-0.0627161 0.1739239 0.23238674 -0.77464575 0.13714764 -0.09560177 0.087423265 0.096527
-0.20137012 -0.05206754 -0.085480526 2.0771182 -0.091423966 -0.1532369 -0.29198405 0.08131673
7.1988244 -0.12133329 -0.107423805 1.955396 1.7132831 -0.00042044415 0.87060827 -0.10263096
-0.114245705 -0.14605714 -0.0267445 0.03846507 1.7448157 0.11353823 -0.026922526 -0.10928597
-0.16147882 0.3289205 0.21142438 -0.7537485 0.06230136 -0.12041492 -0.18008 0.22254875
-0.04508576 -0.004921268 0.22369725 1.1357762 -0.13629353 0.08835352 0.08853194 0.10654854
0.3907227 -0.30762044 0.4293136 -0.51877224 1.1215122 -0.149957 -0.40982747 0.082616694
-0.23713247 -0.27396536 -0.017858008 -0.15979871 1.0557948 -0.18016668 -0.17599924 0.09326983
0.0065940465 -0.0945048 -0.21511595 -0.45177874 4.8853774 -0.17611274 0.10491026 0.053474844
-0.7443284 0.013947622 -0.06362867 0.79341984 2.6771328 4.1732326 -0.12564723 1.8439885
1.2297679 -0.30156064 -0.3033204 1.0747986 6.496192 0.04848908 0.5382403 0.08988564
-0.13764073 0.08492229 0.007203243 -0.14783709 7.2770095 -0.03946517 -0.17755046 0.37587774
0.26637968 -0.002476403 0.069006376 -0.21451645 0.11657712 0.067635685 0.010707627 0.040342137
-0.05891952 0.05764454 -0.15448473 3.1284206 0.16759948 0.113256514 -0.019066764 -0.07794557

dense.0.denselayer1.norm2.weight f4 [48]
00000000: ffc7 3f3f 4681 dd3f 729d d93f 68c6 c83f
00000010: dacd e83f 7fe5 d73f dffe c63f 2e51 0d40
00000020: 2f01 c03f 03ff cb3f 6fff 403f 875b 263f
00000030: c49d 0f3f 094a b83f 2ba3 c53f 768c a33f
00000040: 27df b43f 5158 d73f d670 b13f 442c aa3f
00000050: ab7d 983f 6991 ce3f 2d10 223f 4eb3 2a3f
00000060: 6af3 8a3f 2a7c bf3f c05c eb3e 116a 203f
00000070: 54b8 913f 11f9 383f 8c81 ac3f bb34 bb3e
00000080: 5ea7 f93f 5919 bd3f cc02 263f 6966 c63f
00000090: 2de5 273f 8fc4 b23e 1788 c33f f528 293f
000000a0: fc8b d63e 5fa9 a63f 2725 ab3f b6c3 2b3e
000000b0: 7a03 be3f 0d58 e53f 76e5 0e40 dc0e bc3f
0.74914545 1.7305076 1.7001173 1.5685549 1.8187821 1.6866912 1.554653 2.2080798
1.5000361 1.5937198 0.7538976 0.6498341 0.56100106 1.4397594 1.544042 1.277724
1.4130601 1.6823827 1.386256 1.3294759 1.1913351 1.6138126 0.6330593 0.6667985
1.0855534 1.4959767 0.459692 0.62661844 1.1384377 0.72255045 1.3477035 0.36563668
1.9504201 1.477336 0.6484802 1.5500003 0.6558407 0.34915587 1.5275906 0.6607812
0.41903675 1.3020438 1.3370713 0.16773877 1.4844811 1.7917496 2.2327552 1.4692035

dense.0.denselayer1.norm2.bias f4 [48]
00000000: 9966 a0be 4245 623b bb06 8e3e b307 35bd
00000010: 795e 1b3e dde6 bf3d bb65 8a3e 2d69 833d
00000020: 0d98 083f ff9c 2d3f 905d c8be 2b42 cfbe
00000030: 80de 9dbe 2875 06be a8c8 2b3f 7f74 3ebe
00000040: f9ef 763e e3b6 963e acf3 ee3e c67f d53e
00000050: f4cd 30be 0efd 903e 71c3 adbe 40b3 92be
00000060: 1e79 3e3e 47b5 143f 75e9 d43e 2bbf 89be
00000070: ec95 493e 62bd 7cbe 59be e8bd 2ca5 1f3f
00000080: 87b1 563d 7c26 2dbd 16b8 a0be e078 893e
00000090: 8885 34be 278b 68bf 4eaa e2bd 53dc 9bbe
000000a0: e315 6b3d 6b3d 603e 645f de3e 56ff 8abf
000000b0: c2f4 0f3f 5a0d 273e 2867 d7be e3b6 843e
-0.31328276 0.0034526144 0.2773951 -0.044196796 0.15172757 0.093702056 0.2703074 0.06416545
0.5335701 0.6781768 -0.39133883 -0.4048017 -0.30833817 -0.13130629 0.6710305 -0.18599127
0.2411498 0.29436406 0.46670282 0.41699046 -0.17266065 0.28318065 -0.33938172 -0.28652382
0.1860089 0.5808911 0.41584364 -0.26903662 0.19686097 -0.24681619 -0.11364431 0.6236141
0.052415397 -0.04227303 -0.31390446 0.26850033 -0.17629063 -0.9083733 -0.11067639 -0.30441532
0.05739392 0.21898429 0.43432152 -1.0859172 0.56232846 0.16313687 -0.4207089 0.25920781

dense.0.denselayer1.norm2.running_mean f4 [48]
00000000: 2577 a4bf 9d3d 8640 77f4 0641 ec51 8d40
00000010: 5a8b 2a40 1f00 4a40 7cca 0641 8298 8040
00000020: f3fa 07c0 8df7 07c0 3e90 78bf 57c3 b6bf
00000030: 76db 10bf ff4d 4b40 e3e8 2641 602a 2a40
00000040: 7e97 fa40 76f6 0141 eebf 04c0 291c 22c0
00000050: f7ce 1841 72bc 0641 3516 9abf d508 d1bf
00000060: 35bd db40 3014 2941 ce0a 2cc1 bf23 32bf
00000070: 5cd7 c640 c8f1 19bf 699e 1041 3129 5fc0
00000080: a16c 8640 658a 1541 d334 18bf e69b fb40
00000090: 1d58 4440 bb45 d340 972d 8540 2342 99bf
000000a0: d2bf 8f40 d7af df40 ac14 ea40 0f8f 1840
000000b0: 571d 1bc0 8e52 0b40 c966 d440 bcaa fe40
-1.284886 4.195021 8.434684 4.41625 2.6647553 3.1562574 8.424435 4.0186167
-2.1246917 -2.1244843 -0.97095096 -1.4278363 -0.5658487 3.1766355 10.431857 2.6588364
7.8309927 8.122671 -2.0742145 -2.5329688 9.550529 8.421007 -1.2038027 -1.633082
6.8668466 10.567429 -10.752638 -0.69585794 6.213789 -0.60134554 9.038674 -3.4868891
4.2007604 9.346288 -0.59455603 7.8627806 3.067878 6.602262 4.161815 -1.1973308
4.4921656 6.990215 7.3150234 2.3837316 -2.4236658 2.1769137 6.637547 7.9583416

dense.0.denselayer1.norm2.running_var f4 [48]
00000000: 385c df40 a023 4743 9aba 6943 42a5 4f43
00000010: 8467 0943 7608 0d42 87ad 7043 efbf 3d43
00000020: b80e 2641 67f6 2541 33de 8940 3899 1441
00000030: 25d6 2c3f 91f4 1443 ec4b a743 3ec0 bf42
00000040: dc69 4443 59b9 6743 70e7 2241 896e 6241
00000050: a56c fd42 6a99 5c43 4014 aa40 fbf1 0541
00000060: 4ab6 0843 0845 ad43 cce8 c143 da03 b13e
00000070: d294 c642 b050 293f f189 ca42 7734 9c42
00000080: 7e6b 3343 4722 d742 2f0b cd3f 355b 4443
00000090: 314e 4641 4544 f440 9e27 2243 186b ab40
000000a0: 7416 0642 2afd 0d43 04ac 4743 06e8 dc41
000000b0: c273 4341 02a1 5e42 188a b841 a645 5943
6.980007 199.13916 233.72891 207.64554 137.40436 35.258263 240.67784 189.74974
10.378593 10.372657 4.308374 9.287407 0.6751426 148.95534 334.59314 95.87547
196.41351 231.72401 10.181503 14.151986 126.7122 220.59927 5.314972 8.371577
136.71207 346.5393 387.81873 0.3457325 99.290665 0.66138744 101.26942 78.10247
179.41989 107.56695 1.6019038 196.35628 12.39409 7.6333337 162.15475 5.356823
33.521927 141.98892 199.67194 27.613293 12.215761 55.657234 23.067429 217.27206

dense.0.denselayer1.conv2.weight f4 [12, 48, 3, 3]
00000000: 53ab 7f3e 8798 773e 41e8 243e 5f63 9f3d
00000010: 5cc0 26be 2950 87bd 4805 c93e bba6 4b3e
00000020: a24e ab3e f1cd 67bf 4475 80bf 3d08 4fbf
00000030: 30e4 82bf c9db 47bf d809 65bf d66e 49bf
00000040: e339 87bf 6a77 44bf 2a56 7f3f 085e 8f3f
00000050: 1817 663f 6df1 8f3f d49d b63e 9a31 8a3f
00000060: 84da 833f be58 973f f5d6 813f 4fc0 56bf
00000070: f422 7ebf 536f 48bf db59 71bf f020 3fbf
00000080: 4370 59bf 822f 53bf b85c 8bbf 6673 4abf
00000090: 47d7 61bf 6a3f 85bf 6a06 52bf a909 7bbf
000000a0: d3a8 38bf 8482 63bf 1353 52bf 8db4 87bf
000000b0: da73 52bf 0951 68bf aa53 7dbf 8a1a 54bf
000000c0: 8aa0 80bf 8aa4 39bf b476 63bf b534 56bf
000000d0: 5aff 88bf 4c9a 5fbf 3d1a 823f ff1e 8f3f
000000e0: d2e5 5a3f a0f2 893f 5886 b83e 71c9 8d3f
000000f0: 426a 7d3f b111 963f 5431 803f e3a3 6fbf
00000100: 7675 86bf cafd 59bf 3888 86bf dc3a 4abf
00000110: 88a2 72bf 43d3 5ebf 7ad3 8ebf 0919 57bf
00000120: 5365 c6bf 7629 f23e 0118 40bf 8ef9 3f3e
00000130: 8187 c73f 4210 193e a0f5 4abf 18c0 973e
00000140: ca2c bebf e2ed c8bf b94d eb3e 4f05 4ebf
00000150: f584 3f3e b1a6 d23f 1666 0a3e ca1e 4ebf
00000160: cbfb a13e 8f09 bdbf 76cf bcbc a197 e23e
00000170: 47c3 ba3e 3b06 9dbd ca1e 86be acb1 dfbd
00000180: 5dc9 573e f4d7 993d 6f0a 013e 9a7f e63d
00000190: 6f21 333c 113b 323e bf8e 243d 32c6 8abe
000001a0: 0192 96bd 4c34 5d3e 6f40 ab3d 8d6e 873e
000001b0: 56e9 153d d6e0 3c3c c3bd 55bd 7e11 c23d
000001c0: 016a 583d c0ea 9dbc ce05 b63d 8134 bd3d
000001d0: 8c06 9cbc 8779 51bf e209 76bf 9c4e 4ebf
000001e0: bbac 6cbf 1e3c 2cbf 9312 62bf efd5 46bf
000001f0: 0258 84bf dfc1 42bf db6f 613f db27 943f
00000200: b69a 623f 1e54 8f3f 6576 f93e fbcc 923f
00000210: ba4a 753f bdd2 9b3f b883 783f 2b75 4ebf
00000220: 7418 59bf 45f5 39bf 2ce3 70bf 8dac 32bf
00000230: 1a73 5cbf 6105 40bf 9cb6 7bbf 1514 42bf
00000240: b19f 753f d985 8c3f e954 553f 84fe 8c3f
00000250: b643 923e 67ca 863f d6c8 803f 6bc1 8f3f
00000260: d02d 893f 5e90 7c3f 306f 8f3f 6a6c 6b3f
00000270: 4d2f 913f 52d6 ad3e f38f 8e3f fd8d 833f
00000280: 8097 983f d9b0 873f c180 c5bf 75da df3e
00000290: 6fd5 3dbf 773f 323e ca14 d33f 6b83 423e
000002a0: a61a 36bf 7586 c33e d885 bebf 2e1a c4bf
000002b0: 1b54 013f cb93 2bbf 1cf7 3e3e bf0e ca3f
000002c0: 2953 403e 3237 2cbf 4693 c33e f69d b4bf
000002d0: de06 7ebf 3187 67bf 751c 46bf 0312 77bf
000002e0: fef6 32bf 8d04 59bf 42a5 4abf d954 73bf
000002f0: dac8 7dbf 220c 803f 3657 8d3f 93c4 633f
00000300: efeb 8d3f f3c4 c43e 3132 903f bac2 843f
00000310: 001c 983f a9c4 7d3f 3ba7 353d 05a6 6bbc
00000320: 7497 73bd 6be6 9ebd c63c d13c 9046 5c3d
00000330: 2764 cb3d 9046 05be 3b20 2b3e 05d8 b53c
00000340: 7674 d23d 19a6 1e3e 54ce 13bd 5e61 26bd
00000350: 59ca 89bd a562 8f3d 2c42 393e 28e0 903e
00000360: a520 813f 4011 783f 0384 543f f47d 813f
00000370: 7ade a93e 9e7f 873f 850c 793f ab4f 873f
00000380: 129d 683f 37af 753f 1d83 923f 40e7 523f
00000390: dd78 943f 75be e93e bc91 973f a852 823f
000003a0: aa66 9b3f b9f0 663f 7d7b 99bf e12a 713f
000003b0: e5db ecbe 5925 4f3f e64f 1e40 8b2c 3e3f
000003c0: 6375 06bf 7a27 683f 3d73 88bf 7b79 83bc
000003d0: f4fd 86bc b5d3 95bd aea1 2b3c 1e67 8fbd
000003e0: ea1b 9b3c b663 00bd bb46 4bbb 5295 a03d
000003f0: 0090 813f 0742 803f 7178 513f e241 863f
0.24967699 0.24179278 0.16104223 0.077826254 -0.16284317 -0.06607086 0.39261842 0.19887821
0.3345843 -0.90548617 -1.0035787 -0.80871946 -1.0225887 -0.7806974 -0.89468145 -0.7868475
-1.0564541 -0.7674471 0.9974085 1.1200571 0.8987899 1.1245552 0.35667288 1.0796387
1.0301061 1.1823957 1.0143725 -0.8388719 -0.99272084 -0.7829487 -0.94277734 -0.74659634
-0.8493692 -0.82494366 -1.088767 -0.79082334 -0.8821911 -1.0409977 -0.8204104 -0.98061615
-0.72132605 -0.88871026 -0.8215801 -1.0601975 -0.82208025 -0.9074865 -0.98955786 -0.82852995
-1.0048993 -0.7251669 -0.88853 -0.83674175 -1.0702927 -0.87344813 1.0164257 1.1181334
0.8550693 1.0777168 0.36039996 1.10771 0.9899026 1.1724149 1.0015054 -0.93609446
-1.0504596 -0.85152876 -1.0510321 -0.7899606 -0.94779253 -0.8704111 -1.1158288 -0.84022576
-1.5499672 0.47297257 -0.7503663 0.18747541 1.5588228 0.14947608 -0.79281044 0.29638743
-1.4857419 -1.5697596 0.45957735 -0.8047685 0.18703063 1.645712 0.13515505 -0.8051573
0.31637415 -1.4768542 -0.023048144 0.4425631 0.3647711 -0.07667204 -0.26195365 -0.1092256
0.21072908 0.07511893 0.12601636 0.11254807 0.010933264 0.17405345 0.040175196 -0.27104336
-0.07352067 0.21601981 0.08361899 0.2645153 0.03659948 0.011528214 -0.052182924 0.094759926
0.05283547 -0.019276977 0.08887826 0.0923853 -0.01904609 -0.8182606 -0.9610883 -0.805887
-0.92451066 -0.6727923 -0.8830959 -0.77670187 -1.0339358 -0.76077074 0.880613 1.1574663
0.8851732 1.1197546 0.4872314 1.1468805 0.9581715 1.2173687 0.97075987 -0.80647534
-0.8480294 -0.72639877 -0.94096637 -0.6979454 -0.8611313 -0.7500821 -0.98325515 -0.7581189
0.95946795 1.0978347 0.8333269 1.1015172 0.28567284 1.0530518 1.006129 1.1230901
1.0717106 0.98657787 1.1205807 0.919623 1.134256 0.33952576 1.113768 1.0277706
1.1921234 1.0600845 -1.5429918 0.43721357 -0.741538 0.17407022 1.6490719 0.18995444
-0.7113441 0.3818852 -1.4884596 -1.532049 0.5051896 -0.6702239 0.18648952 1.578575
0.18781723 -0.6727172 0.38198298 -1.4110706 -0.9922923 -0.9044066 -0.7738717 -0.9651186
-0.6990813 -0.8477257 -0.79158413 -0.9505134 -0.991346 1.0003703 1.104224 0.88971823
1.1087626 0.3843151 1.1265317 1.0371926 1.1883545 0.99128205 0.044348937 -0.014382844
-0.05947061 -0.077587925 0.025541674 0.05377823 0.09931212 -0.13015199 0.16711514 0.022197733
0.102761194 0.15493049 -0.03608544 -0.0406202 -0.06728048 0.07001237 0.18091649 0.28296018
1.0088087 0.9690132 0.83013934 1.0116563 0.3317755 1.0585821 0.9728473 1.0571188
0.9086467 0.9597048 1.1446263 0.8238411 1.1599385 0.4565312 1.184135 1.0181475
1.2140706 0.90211064 -1.1990811 0.94206053 -0.46261516 0.80916363 2.4736266 0.7428672
-0.5252287 0.90685236 -1.0660168 -0.016049137 -0.016478516 -0.073157705 0.010475559 -0.0700209
0.018934209 -0.03134509 -0.00310175 0.078409806 1.012207 1.002015 0.81824404 1.0488856

dense.0.denselayer2.norm1.weight f4 [44]
00000000: 3c1c ab3d 15a4 e93f 3bae 2d40 667b 4e3f
00000010: 0fcf 8b3f 0639 413f 64b6 be3e a1ac 3b40
00000020: a258 393f 10fd 3d3f 49a2 2e3f 4c6b 243f
00000030: 3ff3 253f de89 353f 69dc 383f 2772 093f
00000040: 2a80 353f d6d1 313f 0c6d 343f 074b f63e
00000050: 45cf 6d3f b4a9 333f 516b 2f3f 8498 393f
00000060: b657 033f 4d92 3a3f 92db 403f 18d3 873d
00000070: bf57 db3c d48e 253f 1f3f 353f 0089 6a3f
00000080: da68 9a3f 1605 0140 7125 0440 9dde 0240
00000090: a47a c43f 0880 8d3f 83b2 a93f 5427 0140
000000a0: 4204 0740 ba01 3040 85c3 a13f 6a7b b93f
0.08354995 1.8253199 2.7137592 0.8065704 1.0922564 0.75477636 0.37248528 2.9324114
0.7240087 0.7421427 0.6821638 0.6422622 0.6482429 0.70913494 0.7221132 0.5368981
0.7089869 0.6946081 0.7047889 0.48104116 0.92894393 0.7018082 0.68523127 0.72498345
0.5130571 0.7287949 0.7533504 0.0663206 0.026775239 0.64671063 0.7079944 0.91615295
1.2063248 2.0159354 2.0647852 2.0448372 1.5349927 1.1054697 1.3257602 2.0180254
2.1096349 2.7501054 1.2637793 1.4490788

dense.0.denselayer2.norm1.bias f4 [44]
00000000: dc9d 33bf edf5 81b9 c836 563e 274a 0f3f
00000010: 9982 d73e c958 75be bb31 983e 7fae d13e
00000020: bea3 83be f88d 80be 90df abbe 6cd4 c7be
00000030: ee35 d63e 5274 7fbe 81da adbe 5237 5b3e
00000040: 2e2e 90be 8e44 afbe 9a92 8dbe 6ae8 f5be
00000050: 3099 db3e 978b abbe 3378 85be c8f8 9cbe
00000060: bfbf c5be 7442 8abe 7962 8cbe 1a59 0abf
00000070: 303f b7be c5b7 c83e 0b5b 8fbe 4b09 143f
00000080: 03ec 0340 2c53 8d3f cee7 323f 2e62 053f
00000090: 5cc9 0f3f db69 1040 9af6 0c40 9d5e 8e3f
000000a0: 792c 6abf 2842 c43e f1e8 e33f 3f2f ea3f
-0.7016275 -0.00024788026 0.20919335 0.5597252 0.42091826 -0.2395965 0.2972544 0.40953442
-0.25710863 -0.25108314 -0.33569002 -0.39029253 0.4183802 -0.24946716 -0.33955768 0.21407822
-0.28160232 -0.3423199 -0.2765091 -0.4802888 0.4289031 -0.33504936 -0.26068267 -0.30658555
-0.38622853 -0.27003825 -0.2741888 -0.5404221 -0.35790396 0.39202705 -0.27999148 0.5782668
2.06128 1.1041007 0.69884956 0.52102935 0.56166625 2.256461 2.2025514 1.1122624
-0.9147411 0.38331723 1.7805463 1.8295668

dense.0.denselayer2.norm1.running_mean f4 [44]
00000000: ee14 0a40 0400 0000 b1b7 8f40 4abb ad40
00000010: 0958 853f c662 d63f 5757 4340 4946 3341
00000020: bae6 513f d4b5 eb3f 4354 dd3f 4321 3740
00000030: c6f5 b43f 507a 0340 0400 0000 2ce9 913e
00000040: 541b cd3f 72a7 1c40 a27e e63f c404 d040
00000050: 810b 4540 0400 0000 e043 ae3f 54dd 1440
00000060: eba6 4f40 0400 0000 0abc 5e40 0a34 ea3f
00000070: 5b96 d13f 8fa0 5e40 a423 933f 78f1 1d40
00000080: 06fb 833f 7af5 68c1 3498 24c1 c854 2ec1
00000090: 98cd d0c1 1e8a 8d40 cfcd 88c0 76cb b0c0
000000a0: fb82 86c2 5629 53c1 60a9 343f 2aa9 04c1
2.1575274 6e-45 4.4911733 5.4291124 1.0417491 1.6748893 3.0522058 11.204659
0.81992686 1.8414865 1.729134 2.8614051 1.4137504 2.0543404 6e-45 0.2849821
1.6023965 2.44772 1.8007395 6.5005817 3.0788271 6e-45 1.3614464 2.3260088
3.2445629 6e-45 3.480227 1.8297131 1.637401 3.4785497 1.1495252 2.467863
1.0310981 -14.559931 -10.287159 -10.895699 -26.100388 4.42311 -4.275123 -5.5248365
-67.25582 -13.197592 0.70570946 -8.2913

dense.0.denselayer2.norm1.running_var f4 [44]
00000000: 1b49 cb40 0400 0000 01ea 923f 1e67 2e41
00000010: 2354 c740 a4f2 1e3e 1f87 bf3f 001d 4341
00000020: 66a3 0f3d 4500 353e 1f0f 063e 6905 ba3e
00000030: 5936 d740 6909 443e 0400 0000 83b0 f33f
00000040: 075d 083e bb66 853e 2671 153e cf46 8340
00000050: 6a38 0241 0400 0000 03db ce3d e81b 7e3e
00000060: acac ea3e 0400 0000 b5cf 083f 0479 ae40
00000070: e31b fd40 2276 0941 99d2 8c3d 3d3e 2640
00000080: 2f30 b845 bc91 1746 672d 3a46 9fec 2c46
00000090: 618a 3146 8d08 d545 bbde 0446 43f5 d545
000000a0: 4dd1 1c46 de96 2646 1c1d f845 a089 0b46
6.352674 6e-45 1.1477662 10.900175 6.2290206 0.15522248 1.4963111 12.19458
0.03506794 0.17675884 0.13091706 0.36332253 6.725384 0.19144215 6e-45 1.9038242
0.13316737 0.2605494 0.14593944 4.1023936 8.138773 6e-45 0.10100367 0.24815333
0.45834863 6e-45 0.53441936 5.4522724 7.909654 8.591341 0.06876106 2.5975487
5894.023 9700.434 11915.351 11067.155 11362.595 6817.069 8503.683 6846.6577
10036.325 10661.717 7939.6387 8930.406

dense.0.denselayer2.conv1.weight f4 [48, 44, 1, 1]
00000000: bced 07be 20c7 8b3f 4cdf 5f3f b23c 15bf
00000010: df74 3dbf 2546 adbd 1682 15bf fa71 aa3f
00000020: 634d cf3d b414 b8bd 3c53 b83d 3ee0 c63d
00000030: b149 13bf 1384 cbbd 690f 6a3d 19b2 5ebe
00000040: b800 aebd f05f 49bd 4d82 9c3b abfa dd3d
00000050: acd9 67be da4b ac3d 7341 803c 4da4 40be
00000060: 1a11 59bd 772d e6bc f9ef 003b 448f 84be
00000070: 524c a23d 9122 e6bd 10ee ed3d 5450 50be
00000080: 68ea d3bf 5b4e 053c dd68 aebf 55bb b23e
00000090: 698d 82bf 0d51 29c0 6c8e 623d 0255 05c0
000000a0: 6ee3 9fbe 9776 9d3f ced2 183e f27a 913f
000000b0: 860f 9c3e c97c 1f3f 6d05 803f 54d0 2e3f
000000c0: f9af d13e cdfe 153e a8f8 083f f6f6 9f3f
000000d0: 646e 88b9 1df5 1cbe b7f9 9c3d 47fa 0d3d
000000e0: 41a7 203f 529a 283d 3d52 cf3c c3ce eebc
000000f0: 3705 2fbe 6bb1 3cbe 464a 533b 69f4 20be
00000100: f33b 1cbe d6d5 ce3d fc22 91be dd72 683e
00000110: 328d 873d 0766 e6bd 5196 323e 9a8f df3e
00000120: f87b f53d 28db e23d 02d4 843d 75c0 06bd
00000130: 82ba e0be abf6 f1bf 467d d53f 286c 1440
00000140: e6f9 193f 6f22 8dbe 9024 7bbe 9232 3dbf
00000150: 5d6e cdbf 7ec4 65bf ff8d 0cbf eadc cd3e
00000160: fba7 f9be e9be 26be a7a3 cfbf c1bc 41bf
00000170: df43 4fbf b08f d9bd 416a 44bf b3d2 58bf
00000180: 453c 273e 9171 3fbd 5ffe 8fbc f52d 07be
00000190: b240 39bf 0c1f 833c f77f 2a3e 6e67 3e3f
000001a0: f28d 103e e83a ce3e 4611 70be 0ed6 34be
000001b0: fe2a 473f 60f5 f73c f443 eb3d 2b7f 84be
000001c0: ba1f d7bd 127f fd3d e5c0 153d b4ff 0dbf
000001d0: 826a 8b3e a8ff 1f3f b307 19be af17 1a3f
000001e0: aea8 9abf 75eb f73d a891 c2bd ded2 05c0
000001f0: 4433 fc3e 1e88 85bf f328 d8bf 4e0a e1bf
00000200: 7092 f5be 8749 f13d 6013 6cbe df2d d5bf
00000210: e8d4 b23c e834 443f 43cf d23f 7ff8 95be
00000220: 215a 91be 59ec e23d 21fc afbd 36c3 b93f
00000230: 2403 00be 4de2 20be 7355 fb3d 21b5 ab3d
00000240: 359d 8bbe e7a3 a0bd d76d 913c 3790 0cbf
00000250: 4bca bbbd cf18 8bbb dbb7 a03d db8f 533e
00000260: 4406 ccbe d3e3 edbd 5fe2 debd 0936 a2bd
00000270: 2e37 4b3e 40f1 23be eda0 9d3d fbb8 d33c
00000280: b7e3 bfbe 75dc ffbe 0179 a7bd 44b5 d0be
00000290: d48c bfbf b154 b43f e57b 253f 3d00 48c0
000002a0: 3d73 7f3c a9d9 9abc 929a d83d b691 abbf
000002b0: 72ab a93e 50d6 9e3f 6215 94bf b7c0 0e3f
000002c0: c87a 9ebe 2c38 bfbf ce86 973e 3587 21be
000002d0: f25e d3be 4328 483d dc9b e2bd 226f 0fc0
000002e0: 9c97 533e aaf7 c7bc 02a4 f13d 5035 84bd
000002f0: c899 aabe 016c 753d a177 45bd 7e00 5040
00000300: 7dba dc3e 6b21 5b3d 1a78 9fbd d294 333e
00000310: ff8f 8c40 bd9b 89bd e3a5 083f 9125 94bd
00000320: f92a 72bd d2ae a33d 10be 04bc 4bfb 8ebe
00000330: de48 5440 b676 7940 f923 5b3d 678d 8740
00000340: 6115 693e 2d13 473e d8bc 6c3f 9819 c23d
00000350: 21a0 29bf efdd d6be 56c2 963c 7e1a 263f
00000360: b8b4 4a3f b9db fd3d 517e 693e fc02 2f3e
00000370: a8f5 8dbe 07ef 78be b107 513e 360f a5bf
00000380: 5d4b 98bf ac29 0cbe 2fe1 88bf 13a7 3cbe
00000390: 5125 bc3d e356 f4bd b119 c8bd c8f8 94bd
000003a0: 668b a5bf ba3f 5d3e 1e8b 37bd d239 673f
000003b0: 4435 e03b fba3 c6bc b7a8 d9bc 4904 a43e
000003c0: 8c7d 9e3f da89 f63d bf49 083c ce8b 35be
000003d0: 507a 923d 7892 e1bc 1645 41be cf49 8abe
000003e0: 257f c13e 1454 6f3f 8f02 9b3d 7f20 9a3f
000003f0: 172c a4bc 40ed 03bf c536 a23f 55a9 dc3e
-0.13274282 1.0920143 0.874501 -0.5829574 -0.74006456 -0.08460645 -0.5840162 1.3316033
0.10122182 -0.08988324 0.09000251 0.097107396 -0.5753432 -0.099373005 0.057143603 -0.21747626
-0.08496231 -0.04916376 0.0047762753 0.10838827 -0.22641629 0.08412905 0.015656209 -0.18812676
-0.052994825 -0.028097851 0.0019674285 -0.25890553 0.07924713 -0.11237062 0.116176724 -0.20343143
-1.655591 0.008136357 -1.3625752 0.34908548 -1.0199405 -2.645572 0.055311605 -2.0833135
-0.31228203 1.2301816 0.14924166 1.1365645 0.30480593 0.6229978 1.0001656 0.68286633
0.4095457 0.1464798 0.5350442 1.2497241 -0.0002602219 -0.15327878 0.07664817 0.03466251
0.6275521 0.041162796 0.025307769 -0.029151326 -0.17091833 -0.18427055 0.0032240315 -0.15718235
-0.15257244 0.1009938 -0.28347003 0.22700067 0.06618728 -0.11249929 0.17440154 0.43664247
0.11986536 0.11076957 0.0648575 -0.032898385 -0.43892294 -1.8903402 1.6678855 2.3191013
0.6014694 -0.27565333 -0.24525666 -0.7390529 -1.6049305 -0.8975295 -0.5490417 0.40207607
-0.4876097 -0.16283764 -1.6221818 -0.7567864 -0.8096294 -0.10623109 -0.7672463 -0.846965
0.16331585 -0.046739165 -0.017577348 -0.13201125 -0.7236434 0.016006015 0.16650377 0.7437657
0.14116648 0.40279317 -0.2344409 -0.1765978 0.77799976 0.030268371 0.114875704 -0.2587827
-0.10504098 0.12377752 0.03656091 -0.55468297 0.27229697 0.62499475 -0.14944343 0.6019239
-1.2082727 0.12105457 -0.09500438 -2.0909953 0.49257863 -1.0432165 -1.6887497 -1.758127
-0.47963285 0.11781602 -0.23054266 -1.6654624 0.021830037 0.7664323 1.6469501 -0.2929115
-0.28389075 0.11080236 -0.08593012 1.4512699 -0.12501198 -0.15711327 0.122721575 0.08384157
-0.27268377 -0.07843762 0.017752571 -0.54907554 -0.09169444 -0.004244901 0.07847568 0.20660345
-0.3984853 -0.1161572 -0.108830206 -0.07920463 0.19845268 -0.16009998 0.0769671 0.025845041
-0.3747842 -0.49972883 -0.081773765 -0.40763295 -1.4964852 1.4088346 0.64642173 -3.1250145
0.01559144 -0.018902617 0.10576357 -1.3403842 0.33138615 1.2409153 -1.1569026 0.5576281
-0.3095305 -1.4939017 0.29595035 -0.15774234 -0.41283375 0.04886652 -0.11064884 -2.241158
0.20663303 -0.024410088 0.1179886 -0.06455481 -0.3332045 0.059917454 -0.04820979 3.25003
0.4311103 0.053498667 -0.077865794 0.17537239 4.3925776 -0.06719158 0.53378123 -0.07233728
-0.059123013 0.07992329 -0.008101955 -0.27926096 3.3169475 3.8978705 0.053501103 4.236011
0.22762062 0.19440909 0.9247565 0.09477538 -0.6625996 -0.41966197 0.018403213 0.64884174
0.79182005 0.123954244 0.22802092 0.17090982 -0.27726483 -0.24309932 0.2041309 -1.2895267
-1.1897999 -0.13687772 -1.069372 -0.18423109 0.09186805 -0.11930635 -0.09770525 -0.07274014
-1.2933166 0.21606341 -0.044810407 0.903226 0.0068422873 -0.024248114 -0.026569707 0.3203452
1.2382064 0.12038012 0.008318364 -0.17729113 0.071522355 -0.027535662 -0.1887401 -0.27009436
0.37792316 0.9348767 0.075688474 1.2041167 -0.020040555 -0.5153389 1.2672964 0.4309794

dense.0.denselayer2.norm2.weight f4 [48]
00000000: 2d4b 9c3f ed7a 843f 3794 a93f e610 ab3f
00000010: 6841 f63f dd82 a33f 6d51 ce3f d6d5 c53f
00000020: 769a a53f b188 8b3f bcb6 5c3f f6b9 e03f
00000030: 0a60 e63f 92fd 833f 4dce 873f 8622 dd3f
00000040: a76e c93f ca45 673f 7633 a43f b590 db3f
00000050: 6e2d 3f3f 58b5 993f a488 db3f d1d9 e43f
00000060: e2ce a13f fa13 b23f 5a31 b83f b98b b93f
00000070: 1905 d03f 35d1 b43f d370 573f a070 d63f
00000080: dd22 c13f 371f 853f c3ad db3f 4445 7b3f
00000090: 7433 c43f 9c73 c63f 83b4 f23f 303c 823f
000000a0: ce32 903f f74f 8e3f 2300 2f3f fbfb 883f
000000b0: 137d 423f 597e 803f 041a 803f f40a 6e3f
1.2210442 1.0350014 1.3248357 1.3364532 1.923871 1.2774311 1.6118599 1.5455883
1.2937763 1.090109 0.8621633 1.7556751 1.7998059 1.0311759 1.0609833 1.7276161
1.5736893 0.90340865 1.2828205 1.7153536 0.74678695 1.2008467 1.7151074 1.7878972
1.2641261 1.3912346 1.4390061 1.4495765 1.6251556 1.4126345 0.8415653 1.675312
1.5088764 1.0400151 1.7162403 0.98152566 1.5328202 1.5504031 1.8961338 1.0174618
1.1265504 1.1118153 0.68359584 1.0701898 0.759721 1.0038558 1.0007939 0.92985463

dense.0.denselayer2.norm2.bias f4 [48]
00000000: 5766 91be 55d2 3b3d e3e7 68bf 42d1 57be
00000010: 782a 133d 66b6 e0bd a84f 98be 276a 93bf
00000020: 0331 3d3c af42 fa3e 0e3b 5ebe ded3 9e3e
00000030: c92c 3c3e 6b3a c4bf 939b 9bbf 4fce 8ebf
00000040: 32e5 9abe 26ee 8c3d 3850 ed3f ef95 65bf
00000050: aa56 17bf 0c8a 9dbe 0004 fbbe 98bf 3abf
00000060: aec9 22be e101 39be 3987 70bf dd4d 8ebe
00000070: a5d7 febd 645a ebbf c91a 563c 99b7 ebbe
00000080: 01fe 08be 6d09 17bc f0e0 893d 7f78 69bd
00000090: f3c5 c7be f43e 17c0 7e0f f7be 5de9 9abf
000000a0: edb1 35c0 8d73 33bf a5fa dabd d619 dfbf
000000b0: c61e cbbc e35a 7c3f a392 49bf aae0 8bbc
-0.28398392 0.045854885 -0.9097883 -0.2107592 0.035929173 -0.1097229 -0.29748273 -1.151677
0.01154733 0.48879 -0.21702215 0.31021017 0.18376459 -1.5330328 -1.2156852 -1.115671
-0.30252987 0.06881361 1.8540106 -0.89681906 -0.59116614 -0.30769384 -0.4902649 -0.729486
-0.15897247 -0.18067123 -0.93956333 -0.2779378 -0.12443475 -1.838696 0.0130679095 -0.4603851
-0.13378145 -0.009218556 0.067323565 -0.05699968 -0.3901821 -2.3632174 -0.48254007 -1.2102467
-2.8389847 -0.7009819 -0.10692338 -1.742976 -0.024794947 0.9857618 -0.78739375 -0.017074902

dense.0.denselayer2.norm2.running_mean f4 [48]
00000000: b83a 1dc1 38a4 443e 721e 9ac1 da8f 33c0
00000010: d866 c640 3035 2740 391d 34c0 a31c 13c1
00000020: 7dde b2c0 1b57 9b40 dddd 50c0 4d4c 88c0
00000030: 3cbd d0bf 5b8f 8bc1 7683 3dc0 bb7a 3cc1
00000040: 24d2 0940 0cc5 b43f bdf2 1bc1 870b 1641
00000050: 666a 6b40 cce0 e83f 799a 79c1 31c3 00c0
00000060: 88e7 d340 a81f 0540 8a4e 4541 72b8 0f3f
00000070: 6e36 2c40 f5a0 9940 73bf 3c40 45e7 bb40
00000080: 47f4 3141 4a30 5ec1 2432 5441 fca5 dac0
00000090: dc65 16c1 81b5 c5c0 9596 74c0 b5b1 743f
000000a0: add7 3740 b34a 60bf 2d33 dcbf f09c bf40
000000b0: 4558 6b40 fbe4 09c1 f1f6 11c1 688d 21c0
-9.826836 0.1920327 -19.264866 -2.805655 6.200054 2.6126213 -2.8142836 -9.194491
-5.589659 4.854383 -3.2635415 -4.259314 -1.630775 -17.444998 -2.9611487 -11.7799635
2.153451 1.4122634 -9.746762 9.377814 3.678369 1.8193603 -15.600213 -2.0119135
6.622013 2.0800571 12.331675 0.56140816 2.6908221 4.800898 2.9491851 5.871981
11.122138 -13.886789 13.262241 -6.832762 -9.399868 -6.1784062 -3.8216908 0.9558366
2.8725388 -0.8761398 -1.7203118 5.9879074 3.6772625 -8.618403 -9.122788 -2.5242558

dense.0.denselayer2.norm2.running_var f4 [48]
00000000: f85a 5442 007f 0142 c819 3042 0f3a 2b42
00000010: 1faf 2a43 d90f 2942 7311 c842 4046 4842
00000020: 9e02 3642 e786 0842 122b 8541 02e6 6042
00000030: e775 3e42 41ce c441 c5eb 3342 54aa 3342
00000040: 8e7e 3a42 83b5 3d42 ea49 4942 b2a4 9742
00000050: 5971 f041 d19a 4341 43f4 0d42 7d9c a241
00000060: 07db 2642 5823 4842 b138 5042 8294 5e42
00000070: 4968 8f42 5be2 2a42 de06 1a42 fd8f 0843
00000080: 04b9 4042 6755 1d42 d7b1 3942 9c20 0d42
00000090: 08a8 3a42 29a4 3742 8664 3542 2620 2242
000000a0: 08b6 a941 8063 2342 f01b 1041 5df6 c841
000000b0: 702d f441 7a99 9142 50cc 0642 1165 2242
53.088837 32.374023 44.025177 42.806698 170.68407 42.265476 100.03408 50.068604
45.502556 34.13174 16.64603 56.224617 47.61514 24.60071 44.980244 44.916336
46.62359 47.427258 50.32218 75.82167 30.055346 12.225297 35.488537 20.32641
41.713894 50.034515 52.055363 55.645027 71.70368 42.72105 38.506706 136.56245
48.18068 39.3334 46.42367 35.281845 46.664093 45.910313 45.348167 40.531395
21.213882 40.847168 9.006821 25.120295 30.522186 72.79976 33.699524 40.598698

dense.0.denselayer2.conv2.weight f4 [12, 48, 3, 3]
00000000: f27b 49be d03f 77bf 2089 ca3f 97c9 93bf
00000010: 7c2f 94bf c49a 84bf e2e6 b43f 2813 50bf
00000020: 6f07 88be 43aa 87be e79c cebe d3a2 93be
00000030: 906a 70bf 8e21 55bf 18a7 0fbf af97 30bf
00000040: 9c0c 89bf d6df d0be cd6b e0be cff3 db3e
00000050: e1fe 5a3f d2da 343f 7a39 8a3e 292c d63e
00000060: 2529 8f3f d553 1c3f 848b 35bf e982 30c0
00000070: 1336 803e 2737 13c0 8c38 633e 1e08 eebd
00000080: 5e29 6cbd 9af6 1dc0 da5b 2a3e 2a15 41c0
00000090: 8aed ab3d 8167 6f3e 0d9f 95be 6089 643e
000000a0: 2268 ec3f 3d5e d13e d953 90be bbac df3d
000000b0: ced4 ec3c 474f 5bbf 5d98 6cbf 011e 53bf
000000c0: 3b3a 6bbf c8b5 9a3f ac3e 4dbf 66e7 4fbf
000000d0: 1d07 4bbf 31bf 5ebf d7ce 6cbe 91af cb3d
000000e0: 75f1 21be 1e37 233d e354 f03f 601c 793c
000000f0: cc74 74be a052 f83d f50d 9fbe 19f4 153f
00000100: baff afbf 9952 e93f be36 ebbf 42d5 683f
00000110: 057d c3bf c64c 0e40 4aa1 d9bf 603a 1c3f
00000120: f669 98bd cba3 a43d 8742 14c0 570e 153e
00000130: 4888 b03f 1d5d 60bd abc2 0fc0 2314 963e
00000140: 8a81 1abe 5aec 91be ca00 553f ac71 64bf
00000150: 489c f63e 77d3 1540 c332 3e3f 6e21 81bf
00000160: 7152 353f 4ea0 afbd 3ae5 b8bf 58cd 6cbe
00000170: fdeb 88bf ce65 e1be 919d 7bbf 3016 dbbd
00000180: 4f23 3bbf 0b20 6ebe 03b9 98bf df20 15c0
00000190: d037 733d 8fcd b93e 1024 bb3d 629e 793f
000001a0: 3e7d 98bd 29b2 ad3e 096f 9ebd 45e1 0cc0
000001b0: 93a9 1a3f fdd7 71be ead3 6c3f b498 d0be
000001c0: 2cfb 813f b87d aebe 6ccf 5e3f 6832 a7be
000001d0: f642 1a3f 9876 1040 df7e 55be 6d22 3740
000001e0: 1039 f2be 8562 aa3e e96c 513e 094c 2640
000001f0: 9dc1 e7be 4168 2040 af4a 423f 01a6 acbd
00000200: 137e cfbf d683 7f3e 76f5 c33f d696 20be
00000210: b7ea 33bf c6a2 d83e 1a69 3b3f e65a 02c0
00000220: 2cf2 753e 29a0 f83e 7d03 093e 198a 0140
00000230: 2f4c cfbc c802 d23e fde1 89bd 537d f2bf
00000240: 3ac6 a9bf e678 04bf a963 cebf 7213 26bf
00000250: a740 1c3f 268a 27bf 7c02 aebf 0e03 0abf
00000260: cc5b 84bf 1fdd 1abf bcfc 953f abf5 6cbf
00000270: 219c 653f 219b c53f ace3 8c3f 249c 7abf
00000280: 816b 4e3f eff2 21bf d3eb c7bf cbd1 903e
00000290: f8f2 9cbe 3d3f ec3e 53fe 1140 8229 913e
000002a0: 3afa 8cbe d2ce e03e 6d38 cabf 6c35 5e3e
000002b0: 7dd2 0b3e facb 88bf ec12 873e 9ee5 e23f
000002c0: 0442 003e acc2 a5bf 887f 303e 3598 ad3e
000002d0: 4eea d13f 1f78 ff3e 55be 11be e621 a03c
000002e0: ff7c 203e 0752 833e 37d0 9cbe bb23 b33e
000002f0: fd29 c03f abd9 09c0 2a2a f63c dc62 b1bf
00000300: 8f86 473c 7370 b63f 61ca 89bd e57f c3bf
00000310: ecf2 d33d 108c cdbf 603b fabf 8856 f0be
00000320: 3ba2 1ec0 c105 e5be 8285 e53e 183d 54be
00000330: 0f1f 1cc0 2fec f1be d2d4 d2bf 5056 00c0
00000340: 9fa8 26bf 50e4 3dc0 e064 79bf ee47 2b3f
00000350: 9b31 20bf 9ebf 4ec0 2621 5dbf e612 f3bf
00000360: c19e 0ebf 46a1 d7be 4035 12be fffa d2be
00000370: db77 dc3f a1a6 16bf 5741 a63d d06b acbe
00000380: 0885 22bf 4d8d 69bd 761e f5bd 926c cebf
00000390: b701 1ebe c342 d33d 5026 f5be 1259 c5bf
000003a0: dad7 9fbe 14d9 083e 9f5b cb3f 78e8 fe3e
000003b0: 9052 97be 0b45 423f d586 a6bf f7c2 193f
000003c0: 27d1 7cbe a156 053f cfdc e83f e7b1 87bf
000003d0: f740 16bf 6242 f5be 2c9b 3dbf 50ee 823f
000003e0: c6b9 aebe a448 17bf f459 1cbf a0e1 65bf
000003f0: e193 49c0 ccd0 833a b631 44bf 4910 973e
-0.19676188 -0.96581745 1.5823097 -1.1545895 -1.1576991 -1.0359731 1.413296 -0.8127923
-0.2656817 -0.26497087 -0.40354082 -0.28835163 -0.939126 -0.83254325 -0.5611434 -0.6898145
-1.0706973 -0.40795773 -0.43832245 0.4295945 0.85545164 0.70646393 0.26996976 0.41830567
1.1184431 0.6106542 -0.7091601 -2.7579901 0.25041255 -2.3002412 0.2218954 -0.11622642
-0.05765664 -2.4681764 0.16636601 -3.0169168 0.08394916 0.23379327 -0.2922291 0.2231803
1.8469279 0.4089221 -0.2818897 0.109216176 0.028910067 -0.8566784 -0.9241999 -0.8246766
-0.9188573 1.2086725 -0.80173755 -0.8121246 -0.7930773 -0.87010485 -0.23125778 0.09945596
-0.15814765 0.039847486 1.8775905 0.015204519 -0.2387268 0.121251345 -0.31065336 0.5857559
-1.3749917 1.8228332 -1.8376081 0.90950406 -1.5272528 2.2234359 -1.7002347 0.61026573
-0.074420854 0.080390535 -2.3165605 0.14556251 1.379159 -0.0547763 -2.2462566 0.29312238
-0.15088478 -0.28500634 0.8320433 -0.8923595 0.48166108 2.3410318 0.74296206 -1.0088327
0.7082892 -0.085754976 -1.4444954 -0.23125207 -1.0697018 -0.44022983 -0.982873 -0.10697591
-0.7310075 -0.23254411 -1.1931461 -2.3301313 0.0593794 0.3628964 0.09137738 0.975073
-0.07445763 0.33924988 -0.07736022 -2.2012494 0.60415 -0.23617549 0.92510855 -0.40741503
1.0154777 -0.3408029 0.8703525 -0.32655644 0.60258424 2.2572384 -0.20849179 2.8614762
-0.4730916 0.3327829 0.20451702 2.5983908 -0.45264903 2.5063632 0.7589521 -0.084301
-1.621035 0.24952635 1.5309284 -0.1568254 -0.7028002 0.42311686 0.7320725 -2.036798
0.24018162 0.48559693 0.13380237 2.0240538 -0.025304882 0.41017747 -0.06732557 -1.8944496
-1.3263619 -0.51746976 -1.6124164 -0.6487342 0.6103615 -0.6544517 -1.3594508 -0.5391091
-1.0340514 -0.60493654 1.1717753 -0.9256236 0.8969136 1.5437967 1.100698 -0.978945
0.8063279 -0.6326131 -1.5618843 0.2828506 -0.3065412 0.46141997 2.2811477 0.2835198
-0.27534658 0.4390779 -1.579847 0.21700066 0.13654514 -1.0687249 0.26381624 1.7726324
0.12525183 -1.2950034 0.1723615 0.33905187 1.6399629 0.49896333 -0.14232762 0.019547414
0.15672682 0.2564852 -0.30627605 0.34988198 1.5012814 -2.1539104 0.030049402 -1.3858294
0.012178077 1.4253067 -0.06728054 -1.5273405 0.10349068 -1.6058369 -1.954937 -0.46941018
-2.4786518 -0.44730952 0.4482842 -0.2072643 -2.4393957 -0.47250506 -1.6471198 -2.005268
-0.65101045 -2.96706 -0.9741955 0.6690663 -0.6257569 -3.2304454 -0.86378706 -1.8990142
-0.5571099 -0.4211523 -0.14278126 -0.4120712 1.7224077 -0.58848006 0.08117931 -0.33676004
-0.6348424 -0.05701952 -0.119687006 -1.6126883 -0.15430342 0.10315468 -0.47880793 -1.5417807
-0.3121937 0.13364059 1.5887336 0.49786735 -0.29555178 0.758866 -1.3009897 0.6006312
-0.2468916 0.5208531 1.8192385 -1.0601166 -0.5869288 -0.4790221 -0.740649 1.0228977
-0.3412611 -0.59095216 -0.6107476 -0.897974 -3.1496508 0.0010056733 -0.7663835 0.29504612

dense.0.denselayer3.norm1.weight f4 [56]
00000000: e1a4 473f 37b7 463f 941b 0340 5963 9b3f
00000010: dee7 853d 44a0 283f e160 3d3f b09b 5640
00000020: 1764 433f 28e7 3f3f 6cd5 4d3f 5348 443f
00000030: bcc2 b93f 361a 2f3f da7a 423f 3067 f03e
00000040: 416b 253f e543 513f 81bc 2a3f e8fa 063f
00000050: 71d3 7f3d 4b99 2d3f 6147 023f d4e7 453f
00000060: bdb5 163f 62c0 373f 830c 393f 0ba2 923e
00000070: 02d7 293f 9810 8e3f a2c2 2e3f 59c3 b63f
00000080: 1b21 953f c332 fa3f 94a7 0c40 74dc 0240
00000090: ebf3 a13f 8e8d 7c3f 6d31 d93f 80da be3f
000000a0: fc4e 0640 c869 2c40 30cc 963f c042 c23f
000000b0: 02ac 0540 c727 2340 acae 0c40 708f e83f
000000c0: 3580 bd3f 99bd 0140 fb22 b03f b27c ba3f
000000d0: 1aa2 4d3f 9461 ec3f 14b4 a93f 356e 0040
0.7798596 0.77623314 2.0485582 1.2139693 0.06538366 0.65869546 0.7397595 3.3532524
0.763246 0.7496209 0.8040378 0.7667286 1.4512553 0.6839937 0.75968707 0.46953726
0.6461678 0.81744224 0.66693884 0.527266 0.062457506 0.6781203 0.50890166 0.77306867
0.5887106 0.7177793 0.72284716 0.28639254 0.663437 1.1098814 0.68265736 1.4278365
1.1650728 1.9546741 2.1977282 2.0447054 1.2652563 0.98653495 1.6968209 1.4910431
2.0985708 2.6939564 1.1781063 1.517662 2.0886235 2.5493028 2.1981611 1.8168774
1.4804751 2.0271971 1.3760675 1.4569304 0.8032547 1.8467278 1.325808 2.0067265

dense.0.denselayer3.norm1.bias f4 [56]
00000000: 29ed 0f3f 35ae 87be 93a5 b1bd 8041 503f
00000010: 57f7 09bf 8627 6dbe 30ac 933e 4a63 e13e
00000020: a1ce 9bbe 0323 82be 6ad5 a8be af36 88be
00000030: 139b 293f da93 9ebe 52f2 a6be 9451 693e
00000040: f277 72be f9e9 91be 2fe6 aebe e9bf f1be
00000050: 7c71 37bf 1ea1 a8be 3b0c a4be e6fc 93be
00000060: 4691 dfbe 30c8 87be 64b2 90be 92e9 56be
00000070: 59d7 f63e 037a 253f bf10 89be 7a01 573f
00000080: 57e2 a43f 1c76 033f a40d 0a3f 27af c03e
00000090: 621e 72be 925e f13f 90e1 633f 24c5 0e3f
000000a0: 9bc3 63bf ac7e 103e 99e3 703f 749c c73f
000000b0: 1afb 6ebe 17dc d2be 034c f13d 258e a43e
000000c0: ff1c fe3e ed30 f6be 5906 f83e c0a4 a13f
000000d0: 194a ca40 1990 633e b0f2 b23f 2fed de3e
0.5622125 -0.26500097 -0.08674159 0.81349945 -0.53893036 -0.23159608 0.28842306 0.44021064
-0.30431083 -0.25417337 -0.32975322 -0.2660422 0.6625225 -0.30972177 -0.3260675 0.22785026
-0.23678568 -0.2849882 -0.3415999 -0.47216728 -0.7165754 -0.32935423 -0.3204058 -0.28903884
-0.43665522 -0.26519918 -0.282611 -0.20987538 0.48211172 0.646393 -0.2677059 0.8398663
1.2881573 0.51352096 0.53927064 0.3763363 -0.23644403 1.8856986 0.89016056 0.5576956
-0.88970345 0.14110821 0.94097286 1.5594621 -0.23337975 -0.4118354 0.11782076 0.32139698
0.49631497 -0.48084202 0.48442343 1.2628403 6.321545 0.22222938 1.3980312 0.43540332

dense.0.denselayer3.norm1.running_mean f4 [56]
00000000: ee14 0a40 0400 0000 b1b7 8f40 4abb ad40
00000010: 0958 853f c662 d63f 5757 4340 4946 3341
00000020: bae6 513f d4b5 eb3f 4354 dd3f 4321 3740
00000030: c6f5 b43f 507a 0340 0400 0000 2ce9 913e
00000040: 541b cd3f 72a7 1c40 a27e e63f c404 d040
00000050: 810b 4540 0400 0000 e043 ae3f 54dd 1440
00000060: eba6 4f40 0400 0000 0abc 5e40 0a34 ea3f
00000070: 5b96 d13f 8fa0 5e40 a423 933f 78f1 1d40
00000080: 06fb 833f 7af5 68c1 3498 24c1 c854 2ec1
00000090: 98cd d0c1 1e8a 8d40 cfcd 88c0 76cb b0c0
000000a0: fb82 86c2 5629 53c1 60a9 343f 2aa9 04c1
000000b0: a22b f6c0 2f91 06c1 414d 91c0 cc1a 15c1
000000c0: 70cb 8fc0 ca23 5ec1 f962 9ac0 f4e9 a6c0
000000d0: afa2 72bf b978 87c0 c635 1ac0 0cb0 bdc0
2.1575274 6e-45 4.4911733 5.4291124 1.0417491 1.6748893 3.0522058 11.204659
0.81992686 1.8414865 1.729134 2.8614051 1.4137504 2.0543404 6e-45 0.2849821
1.6023965 2.44772 1.8007395 6.5005817 3.0788271 6e-45 1.3614464 2.3260088
3.2445629 6e-45 3.480227 1.8297131 1.637401 3.4785497 1.1495252 2.467863
1.0310981 -14.559931 -10.287159 -10.895699 -26.100388 4.42311 -4.275123 -5.5248365
-67.25582 -13.197592 0.70570946 -8.2913 -7.6928263 -8.410445 -4.5406804 -9.319042
-4.4935837 -13.883738 -4.8245816 -5.2160587 -0.94779485 -4.2334867 -2.409532 -5.92774

dense.0.denselayer3.norm1.running_var f4 [56]
00000000: 1b49 cb40 0400 0000 01ea 923f 1e67 2e41
00000010: 2354 c740 a4f2 1e3e 1f87 bf3f 001d 4341
00000020: 66a3 0f3d 4500 353e 1f0f 063e 6905 ba3e
00000030: 5936 d740 6909 443e 0400 0000 83b0 f33f
00000040: 075d 083e bb66 853e 2671 153e cf46 8340
00000050: 6a38 0241 0400 0000 03db ce3d e81b 7e3e
00000060: acac ea3e 0400 0000 b5cf 083f 0479 ae40
00000070: e31b fd40 2276 0941 99d2 8c3d 3d3e 2640
00000080: 2f30 b845 bc91 1746 672d 3a46 9fec 2c46
00000090: 618a 3146 8d08 d545 bbde 0446 43f5 d545
000000a0: 4dd1 1c46 de96 2646 1c1d f845 a089 0b46
000000b0: 2d4f 0b44 57f5 4944 ce31 b443 b4c6 6844
000000c0: 1df5 a843 ded7 b444 448c b743 a833 d043
000000d0: fad5 c842 1118 dc43 36cf 9043 b705 d643
6.352674 6e-45 1.1477662 10.900175 6.2290206 0.15522248 1.4963111 12.19458
0.03506794 0.17675884 0.13091706 0.36332253 6.725384 0.19144215 6e-45 1.9038242
0.13316737 0.2605494 0.14593944 4.1023936 8.138773 6e-45 0.10100367 0.24815333
0.45834863 6e-45 0.53441936 5.4522724 7.909654 8.591341 0.06876106 2.5975487
5894.023 9700.434 11915.351 11067.155 11362.595 6817.069 8503.683 6846.6577
10036.325 10661.717 7939.6387 8930.406 557.2371 807.83344 360.3891 931.10474
337.91495 1446.7458 367.09583 416.40356 100.41792 440.18802 289.61884 428.04465
