Trained Model/8-8 4-network-1500morestabledata.pt (torch, 700863 bytes, 154 tensors)

conv.0.weight f4 [4]
000000 ea e5 51 3e 7a c8 ac 3f 45 bf f3 3e 05 3c bb 3f
       0.20497862 1.349868 0.47606865 1.4627692

conv.0.bias f4 [4]
000000 84 0c 0a 3c 11 78 85 3f d9 9f df bd 57 3b 01 bf
       0.0084258355 1.0427266 -0.109191604 -0.5048117

conv.0.running_mean f4 [4]
000000 82 66 40 3d 6f 21 5f 3d d4 96 45 3d 1d f1 59 3d
       0.04697276 0.054475244 0.048239544 0.05320846

conv.0.running_var f4 [4]
000000 07 4c 37 3d b2 e8 52 3d a9 fd 3b 3d ba 47 4e 3d
       0.04475024 0.051491447 0.045896206 0.050361373

conv.1.weight f4 [32, 4, 1, 1]
000000 cd 16 f1 3e b4 33 95 bd e4 ec d4 be 4d bf cb bd
       0.47087708 -0.07285252 -0.41586983 -0.09948597
000010 d6 84 85 3f 9c 4e 0a bf 45 2e a4 3f 63 4b 9d be
       1.0431163 -0.540262 1.282662 -0.30721578
000020 d9 76 a0 3f 38 ab 53 bf d0 05 c3 3f 94 9e d4 be
       1.253627 -0.82683134 1.5236149 -0.41527236
000030 aa 38 d2 bf 50 8a ae 3f 5f 16 09 3f ee b7 53 be
       -1.6423542 1.363596 0.5354976 -0.20675632
000040 3e 12 64 3e 55 e4 88 be a3 04 38 be 0b 3f a7 3e
       0.22272584 -0.26736704 -0.17970519 0.32665285
000050 a5 d4 fd bc a2 92 69 bf 3d 2d d5 3b 1e 12 6a bf
       -0.030985186 -0.9123937 0.006505637 -0.91433895
000060 cf 66 ac bc c4 46 d1 3e 80 43 9e be 92 77 8c 3f
       -0.021045117 0.40874302 -0.30910873 1.097399
000070 a7 68 3b be 78 84 1f be bc 17 70 bf a8 f3 0c be
       -0.1830164 -0.15577877 -0.93786216 -0.13764822
000080 a5 16 d4 3f 32 a5 68 bf 1b 24 c1 3f 47 83 3b bf
       1.656941 -0.9087707 1.5089144 -0.7324719
000090 72 46 94 bf 78 35 a0 bd 77 36 4b bf cd 5b f4 be
       -1.1583998 -0.07822698 -0.7937998 -0.47726288
0000a0 28 d5 e5 be 4e 2f b0 bf 3e bf 71 be a4 c6 1e bf
       -0.44889188 -1.3764436 -0.2360811 -0.6202185
0000b0 a9 b5 54 be ca d0 5c 3f 78 66 2e 3f c7 83 59 bf
       -0.20772423 0.86256087 0.68125105 -0.849667
0000c0 d8 13 6c be 6c 86 6b be 47 ba 3a bd 90 99 92 bc
       -0.23054445 -0.23000497 -0.045587804 -0.01789549
0000d0 b0 46 c5 3e f3 70 59 3f bb 30 0e 40 be f9 44 bf
       0.38530493 0.8493797 2.2217243 -0.76943576
0000e0 f7 e5 6a be b7 09 83 3f ed 6e 1a be 52 af c3 bf
       -0.22939287 1.023734 -0.15081377 -1.5287879
0000f0 ba c1 d6 3e 54 a1 ad 3f e2 eb b2 3e 41 23 c1 3e
       0.41944677 1.3564858 0.3494559 0.3772221
000100 f2 e1 01 3d 8d 93 30 bf 2f 66 f0 bc 74 07 74 be
       0.03170962 -0.68975145 -0.0293456 -0.23830968
000110 f6 8e 63 bf 49 48 1e be 2d 22 fb be c8 91 4f be
       -0.88890016 -0.15457262 -0.49049512 -0.20270455
000120 49 ed 93 3e 30 4a 32 bd dc e9 ed be 95 73 ba be
       0.28891972 -0.043527782 -0.46467483 -0.36416307
000130 cd ed b2 bd c5 f3 fd 3e 20 1b a2 bf 45 97 9c 3f
       -0.08736763 0.49600044 -1.2664528 1.2233664
000140 19 57 99 be 31 72 9a 3d aa ec f9 be 54 99 03 be
       -0.29949263 0.075413115 -0.48813373 -0.12851459
000150 85 84 51 bf 0d bf 93 3c d1 e9 a2 bf 65 63 9c bc
       -0.81842834 0.018035436 -1.2727605 -0.019090364
000160 9c 9a 18 c0 32 b6 e6 3f 13 e6 5f 3f 7a 6b 97 be
       -2.3844366 1.8024352 0.8746044 -0.29574186
000170 eb 75 63 bf d7 f0 28 40 b7 06 94 3e d6 b0 d3 be
       -0.88851804 2.6396997 0.28911373 -0.41345853
000180 89 58 10 c0 4a 24 8b 3f af 9f 63 3f 9a 2b 8c be
       -2.2554038 1.087045 0.8891553 -0.27377015
000190 87 19 cf bf 6d 84 be 3f a0 b5 17 3f 4d af 40 bf
       -1.6179665 1.4884163 0.5926151 -0.7526749
0001a0 c9 fe 07 bf b4 8e be bd e1 11 8a bf 4d a6 98 bf
       -0.53123146 -0.09304562 -1.0786706 -1.1925751
0001b0 f4 db 99 3e 13 58 a8 3d 0b 29 3a 40 09 33 de be
       0.30050623 0.08219924 2.908755 -0.43398312
0001c0 0f 2b 89 be 15 11 c8 be 33 f6 82 bf 9d 78 ab bf
       -0.26790664 -0.39075533 -1.0231384 -1.3396183
0001d0 e7 1c 07 bf 18 35 5a 3e 86 39 2a bf d1 61 bb be
       -0.52778476 0.21309316 -0.66494024 -0.36598065
0001e0 82 82 a3 bf 13 90 00 bf a7 3c e5 bf 02 da 94 be
       -1.2774203 -0.5021984 -1.7909135 -0.29072577
0001f0 68 ab 0f bf 81 ba a8 bf 59 4f 8f be 3a f6 de 3e
       -0.5612092 -1.3181916 -0.27990225 0.4354723

conv.1.bias f4 [32]
000000 4c be 5b be 86 58 25 3f 7e ce f6 3e 72 24 7b bf
       -0.21459311 0.645882 0.48204416 -0.98102486
000010 d4 96 ef be 4f b9 e2 3e f3 00 ed 3e 68 e6 18 3f
       -0.4679476 0.44282004 0.46289787 0.5972657
000020 75 4d ad 3e 3a ce 91 3f 6e 72 70 3f d4 0e 93 bf
       0.33848158 1.139106 0.93924606 -1.14889
000030 eb 9f 8b be 62 d2 08 3e cc 5a 83 3f 74 2a d8 3e
       -0.27270445 0.13361505 1.0262084 0.4221989
000040 06 0d 2c 3f 1c ae 5b 3f d8 36 00 bf d8 1e 58 be
       0.6720737 0.85812545 -0.50083685 -0.21105516
000050 c7 fe 5e 3f 59 0d 6c 3f e6 1a 1c be 93 ad 8c 3e
       0.8710751 0.92207867 -0.15244636 0.27476177
000060 f5 2e f1 3e 44 c7 c3 be e2 68 98 3f e8 2c 2b 3e
       0.47106138 -0.38237965 1.1907008 0.16716349
000070 4b 9b 76 3f 07 4a 1a 3e 73 ef b4 3f 2e bd cf 3e
       0.9633071 0.15067302 1.4135574 0.4057402

dense.0.denselayer1.norm1.weight f4 [32]
000000 59 bb 74 3f 6b ff e0 3f 5e 1c a7 3f 96 94 2a 3d
       0.9559837 1.7577947 1.3055532 0.04164561
000010 30 92 7c 3f c5 55 31 3f f3 8b 58 3f ee 29 aa 3f
       0.98660564 0.692715 0.84588546 1.3294046
000020 4a 40 76 3e 0d 52 e0 3f e4 6b 2c 3f 6e 1b 9f 3e
       0.24047962 1.752504 0.6735213 0.31075615
000030 a3 7a 83 3f 8f 7c 60 3e 25 7b 34 40 ef f9 e4 3c
       1.0271801 0.21922515 2.8200161 0.027951209
000040 36 a6 52 3f a2 22 e5 3f 35 fd 83 3f c8 f4 b2 3f
       0.8228487 1.7901194 1.0311648 1.3980951
000050 b4 2f 37 3f 2f a9 3f 3f a3 90 93 3f 30 5f 98 3f
       0.71557164 0.7486753 1.1528515 1.1904049
000060 bd 3f e4 3c 0f c2 e5 3c 7b 34 32 3f 3c 50 a8 3f
       0.027862424 0.028046636 0.6961133 1.3149486
000070 5f f0 d2 3f 1f 10 2a 3f 20 3a 41 3f 79 69 32 3f
       1.6479605 0.6643085 0.75479317 0.6969219

dense.0.denselayer1.norm1.bias f4 [32]
000000 b2 36 8f 3c 94 27 32 3f 3c a3 cf 3e 5f c5 05 bf
       0.017482135 0.6959164 0.40554225 -0.5225429
000010 5c b9 5b bc aa 56 68 be c0 03 c9 3e fd 3b 0f bd
       -0.013410892 -0.2268931 0.39260674 -0.03496932
000020 12 cd 75 be 0e 84 7f 3e 4d 67 9e be f5 d2 d1 3e
       -0.2400401 0.24952719 -0.30938187 0.4098126
000030 95 05 07 3d 42 ac de be 38 b0 62 3f ee 17 a4 be
       0.032964308 -0.43490797 0.8855014 -0.32049507
000040 69 e2 84 be 43 aa ab 3e 26 84 61 3d ad ea 98 3e
       -0.25953987 0.33528337 0.055057667 0.29866543
000050 a4 2e a4 be 03 82 8e be 02 62 13 3f fe d5 90 3e
       -0.32066834 -0.27833566 0.57571423 0.28288263
000060 83 32 c7 be d0 18 bf be 48 61 91 be a8 e6 5b be
       -0.38905725 -0.37323618 -0.28394532 -0.21474707
000070 c3 ca 29 3e 21 6b aa be ef 32 a5 be e8 f8 9f be
       0.16581254 -0.33284858 -0.32265422 -0.31244588

dense.0.denselayer1.norm1.running_mean f4 [32]
000000 04 00 00 00 73 2d c1 3e fe 23 56 3e 46 e7 f5 3e
       6e-45 0.37729988 0.20912167 0.4802801
000010 04 00 00 00 72 84 08 3f e6 5e 01 3f 98 fa 39 3f
       6e-45 0.53327096 0.5053543 0.72648
000020 80 f5 69 3e 25 3b c3 3f 59 38 fb 3e c5 d4 f4 3d
       0.22847557 1.5252424 0.49066427 0.11954645
000030 04 00 00 00 9a 72 95 3f 4f 2f 3a 40 5c 1b ce 3f
       6e-45 1.1675599 2.9091375 1.61021
000040 c6 d7 b9 3e bc 5a 71 3f 04 00 00 00 d0 0c 0c 3f
       0.36297435 0.94279075 6e-45 0.5470705
000050 25 77 89 3f da 89 98 3f e9 5d e0 3f 5f 0e 4c 40
       1.0739485 1.1917069 1.7528659 3.1883771
000060 55 38 cf 3f b8 52 bb 3f 49 76 09 40 03 38 a5 3e
       1.6189066 1.4634619 2.1478446 0.32269296
000070 11 ac eb 3f be 65 32 3f 84 51 c6 3f 04 00 00 00
       1.8411885 0.69686496 1.5493627 6e-45

dense.0.denselayer1.norm1.running_var f4 [32]
000000 04 00 00 00 d7 52 2b 3f 50 ab 63 3f 39 2a 1c 40
       6e-45 0.6692328 0.8893328 2.440077
000010 04 00 00 00 39 ec 87 3c 21 97 90 40 76 86 74 3d
       6e-45 0.016592132 4.5184484 0.059698544
000020 63 db 87 3f cd a2 86 3e fd 05 e2 3c ca 96 07 3e
       1.0613827 0.26296082 0.027590746 0.13241115
000030 04 00 00 00 c9 19 b0 3f 14 47 08 3f 1d c7 b5 40
       6e-45 1.3757869 0.53233457 5.680556
000040 0a 78 fc 3b a1 d1 cd 3d 04 00 00 00 f3 d3 aa 40
       0.0077047395 0.10049749 6e-45 5.3383727
000050 c1 d9 84 3d 94 a1 93 3d 05 b8 84 40 00 99 0e 41
       0.06486846 0.07208553 4.1474633 8.9123535
000060 93 66 98 3f 59 50 6e 3f f0 8b 05 3f ac d3 03 40
       1.1906303 0.9309135 0.5216665 2.0597944
000070 07 80 c4 3e 68 fa 5d 3d 01 1b 8b 3e 04 00 00 00
       0.38378927 0.054193884 0.2716904 6e-45

dense.0.denselayer1.conv1.weight f4 [48, 32, 1, 1]
000000 71 b2 25 3e 3e 7b bc be f8 9f 92 be 92 07 13 3f
       0.16181351 -0.36812776 -0.2863767 0.57433426
000010 2b 64 20 be b7 0d 3b be b8 60 81 3e 20 d9 9a bf
       -0.15663211 -0.1826695 0.25269103 -1.2097511
000020 bb 20 4a be b6 c1 0d c0 d0 4e ef bd 25 26 27 be
       -0.19739048 -2.2149482 -0.11684954 -0.16323145
000030 ee 9a 16 3e 15 90 19 3d b3 8e ab 3e 1a 14 4b 3f
       0.14707538 0.037490923 0.33507308 0.7932755
000040 24 12 8f 3d 31 d5 11 c0 41 15 97 3c 37 ac d2 3e
       0.06985882 -2.2786372 0.018442752 0.41147014
000050 37 e0 ce 3d f3 39 ef bd 45 bc bd 40 45 a2 b6 40
       0.10101359 -0.11680975 5.929232 5.7073083
000060 c8 28 34 3f 26 dc cc 3e e6 e0 61 be 26 e4 1b 3e
       0.7037473 0.4001171 -0.22058448 0.1522375
000070 29 a4 20 c0 50 f2 30 be 9f d9 9e bd 1d a0 91 be
       -2.5100195 -0.17279935 -0.07756352 -0.2844247
000080 ac 16 3b bd de 99 9f 3f 41 21 93 3f 65 59 b1 be
       -0.04567592 1.2468832 1.1494523 -0.34638515
000090 15 06 92 bd d5 1d 1b bd 6c d2 ac 3e 7b 5b e7 3e
       -0.07130066 -0.037870247 0.3375429 0.45186982
0000a0 18 90 58 3f 96 96 be 3e 8d 78 4b bc 4f 49 fd bd
       0.8459487 0.37224263 -0.012418878 -0.12367498
0000b0 e9 d5 de 3d c8 49 99 3f da 16 a2 3e f4 26 a9 3d
       0.10880644 1.1975641 0.3165806 0.08259383
0000c0 64 36 e9 bd 38 25 a0 3d d7 6a 1f 3e 93 0c ad 3e
       -0.11387327 0.07819599 0.155681 0.33798656
0000d0 bc d1 36 3d 9f 27 49 3d 07 68 a5 be b6 39 99 be
       0.044633612 0.04911005 -0.3230593 -0.29926842
0000e0 78 c2 b2 be ec 35 ec be 11 2b 84 bc 43 20 ae 40
       -0.34913993 -0.4613489 -0.016133817 5.441438
0000f0 c5 4e 65 3e 3f 92 0d be 27 5a 39 be be fc 2d be
       0.2239333 -0.1382532 -0.18100797 -0.16990945
000100 f4 ef 73 3d ef 3d fd be b9 1e e6 be 09 5a 66 40
       0.05955501 -0.49461314 -0.44945315 3.5992453
000110 86 7d d3 3d 63 18 75 3c 13 d8 b2 3e 9c 4a a2 bf
       0.10326676 0.0149594275 0.34930477 -1.2679019
000120 e8 57 a6 be 42 df f0 bf aa 83 9b 3c 74 bc b5 3d
       -0.32488942 -1.8818133 0.01898368 0.08873835
000130 92 3f ac 3b de 48 44 3e 5f 50 cf 3e 17 c0 6a 3f
       0.0052566016 0.19168422 0.40491006 0.91699356
000140 cb 5d f9 bd 7f b0 f0 bf 57 e2 97 bc e6 95 ec 3e
       -0.12176093 -1.8803862 -0.018540544 0.46208113
000150 a3 9d e1 bd 13 ba 55 bc e7 55 08 40 51 e5 ae 3f
       -0.11016395 -0.013044852 2.130243 1.3663732
000160 13 53 28 40 9b 8a e1 3f f5 cc 63 bd c3 c6 0d 3f
       2.6300704 1.7620424 -0.055615384 0.5538141
000170 ba 56 0b c0 18 58 0b 3e a5 42 0f 3e 94 be 29 be
       -2.1771684 0.13607824 0.13990267 -0.16576606
000180 31 b2 8a 3d 9a 8b e7 bd 55 a4 55 be a3 3c 46 bd
       0.067722686 -0.11305924 -0.20863469 -0.04839767
000190 cf ab de 3c 6b 81 8f 3d 19 bc d3 bd 16 13 d5 bd
       0.027181534 0.070071064 -0.10338611 -0.10404031
0001a0 18 0f d8 3d 94 1e 0f be 37 9b 04 3e 85 8f a5 3d
       0.10549754 -0.13976508 0.12949835 0.08084015
0001b0 df d0 ef 3d 08 13 cf 3b 68 7d 9a 3c 4d 11 20 be
       0.11709761 0.0063194074 0.018858626 -0.156316
0001c0 36 0f 88 bd 83 57 ae bc 6f 13 05 be a1 53 be be
       -0.06643526 -0.021281963 -0.12995695 -0.3717318
0001d0 52 21 64 be 24 74 49 be d8 14 93 be 2d 1d 38 be
       -0.22278336 -0.1967321 -0.2872684 -0.1797988
0001e0 11 9a 43 be 27 d3 9e be d1 a0 5e 3e 92 54 e9 3d
       -0.1910174 -0.3102047 0.21741034 0.11393084
0001f0 58 5d 86 bd 0f 0e a2 3d 65 75 88 bd 2e 67 16 3d
       -0.06560773 0.07912838 -0.06663016 0.036719494
000200 22 ac 01 3e 8b 58 92 be fe a2 f0 be 67 bb 66 3f
       0.1266332 -0.28583178 -0.46999353 0.90129703
000210 7f 6f 91 3c 97 32 dc bd d4 8e 0c 3f 73 6c 66 bf
       0.01775336 -0.10751837 0.5490544 -0.9000923
000220 55 f3 ab be c0 e1 f0 bf 3a e7 a4 3d 0b 2b 2e 3d
       -0.33584085 -1.8818893 0.080519155 0.042521518
000230 db 8d aa 3d ca 37 eb 3d f3 ac dd 3e 5c 82 d3 3e
       0.08327838 0.1148525 0.43296012 0.41310394
000240 5e 0b 23 be 38 95 00 c0 36 ff cd bd 32 b9 da 3e
       -0.15922305 -2.0091076 -0.10058443 0.42719418
000250 38 52 32 3e 5b 30 2d 3e 2d 16 ab 40 a4 93 8d 40
       0.17414176 0.16912977 5.346457 4.4242725
000260 d3 b5 23 3f 2a ed 21 3f 66 86 0f 3e 20 c4 c3 3e
       0.63949317 0.6325251 0.14016113 0.3823557
000270 78 5f 0f c0 24 00 ed 3b 15 4a 0a 3e 31 12 3b bd
       -2.240202 0.007232683 0.13504823 -0.045671646
000280 ae 19 38 3e 23 38 86 be b3 e2 7a 3d 77 2f 85 3f
       0.17978546 -0.26214704 0.061251353 1.040511
000290 98 4b fa 3d 25 5e b6 bd 3b 66 c0 3f 5a da 8c be
       0.122214496 -0.089046754 1.5031198 -0.2751034
0002a0 9c 79 f7 3c 46 4b 4a bf 09 39 4f 3d f6 91 01 bf
       0.030209355 -0.7902111 0.050591502 -0.50613344
0002b0 48 49 f1 3d 6d 59 dc bd c1 73 ce 3e da 49 16 40
       0.117815554 -0.10759244 0.40322688 2.3482575
0002c0 a0 30 18 3e 48 55 7a bf 47 f1 3e 3d da bd a2 3f
       0.14862299 -0.9778638 0.04661682 1.2714188
0002d0 63 0a 7f 3d f1 58 ca 3d 14 d5 b9 3f fd 75 d3 3f
       0.062265765 0.098802455 1.4518151 1.6520382
0002e0 43 57 22 3f 44 7a 19 3f f4 59 5a 3b f8 00 36 3e
       0.634144 0.5995219 0.0033317776 0.17773807
0002f0 ed 7d 8f bf 19 84 0f be 91 0c 5c 3c 88 55 17 3d
       -1.1210304 -0.14015235 0.01343073 0.036946803
000300 c5 8e c1 3d 9e 2f b3 be 3a bc a8 be 5e 23 3e bd
       0.09451059 -0.34997267 -0.32956105 -0.046420448
000310 51 81 33 3e 82 5c 98 bd cd 1e 2a 3e 1d ff ec 3e
       0.17529799 -0.074395195 0.16613312 0.46288386
000320 db c8 bf 3d 48 14 21 3f c6 0a 47 bd 10 45 75 be
       0.09364482 0.6292157 -0.04859426 -0.23952127
000330 68 dc 98 3c 74 fd ff bc 84 08 1b 40 1a 8b b0 3e
       0.018659785 -0.031248786 2.4223948 0.34481126
000340 b3 e3 de bd fe a5 62 3f 8a c2 11 be 9f 18 cc 3c
       -0.10883274 0.88534534 -0.14234367 0.024914084
000350 9d 3d 35 be b7 15 98 3c 25 af ab 3e 73 fb 58 3e
       -0.17699285 0.018565042 0.33532062 0.2118967
000360 c2 6c 96 3e 24 8b cb 3c 46 4f 50 3c f3 f3 0f be
       0.2937985 0.02484662 0.012714213 -0.14057903
000370 41 6e 38 3f c8 71 38 bd 41 34 2a 3e a3 f5 f9 3b
       0.72043234 -0.045030385 0.16621496 0.007628159
000380 44 49 0f be 00 b5 4f bd 3f a9 2f 3d ef 1b e0 bc
       -0.13992792 -0.050709724 0.042886015 -0.02735707
000390 32 d3 83 3d 0a d2 e4 bb 22 39 90 be 46 e9 5b 3e
       0.06436767 -0.0069830464 -0.2816859 0.21475706
0003a0 b7 9c 24 3e dc d1 14 3f ce 69 87 3d f3 fb 58 3c
       0.16075407 0.5813272 0.066119775 0.013243663
0003b0 5e e2 43 3d 06 59 df bb 56 75 59 40 67 d8 21 be
       0.047823302 -0.0068160323 3.3977866 -0.15805207
0003c0 e9 dc f5 bd 2f 56 54 3f cc 80 e5 bd 63 c8 90 be
       -0.12005026 0.82944006 -0.11206207 -0.28277883
0003d0 02 48 9b 3d 0c 1e 00 be c8 74 97 bd d3 06 35 bb
       0.07582094 -0.12511462 -0.07395321 -0.0027622476
0003e0 05 f8 1b be a4 e2 06 be 9d d4 37 3d a1 49 33 3e
       -0.1523133 -0.13172394 0.0448805 0.17508556
0003f0 d1 75 34 3f 23 37 db 3c 1e 4e 1b bd 04 cb 97 3d
       0.70492274 0.02675969 -0.037916295 0.07411769

dense.0.denselayer1.norm2.weight f4 [48]
000000 09 c0 6c 3f 56 4d 98 3f ac 7f 57 3f b9 22 2f 3f
       0.9248052 1.1898601 0.84179187 0.6841236
000010 c0 0e dc 3e de 2b 9f 3f c2 6e b9 3f 79 7b ab 3f
       0.42980003 1.2435262 1.4486926 1.3397056
000020 73 36 8b 3f b6 87 90 3f 56 3f f0 3f a3 5f fa 3f
       1.0875992 1.1291416 1.8769329 1.9560436
000030 53 a3 9b 3d 6c 18 93 3f 37 52 fc 3f ef a1 be 3f
       0.07599511 1.1491828 1.971259 1.4893168
000040 f7 8b cd 3f 95 60 9e 3f 74 f4 e1 3f 4f 9e ee 3f
       1.6058339 1.2373224 1.7652726 1.8642062
000050 bc 17 b2 3f 42 ba b1 3f d6 d8 80 3f 62 19 08 40
       1.3913493 1.3884966 1.0066173 2.1265492
000060 79 3d f5 3f 25 e1 bc 3f a0 40 c5 3e b9 27 bf 3f
       1.9159385 1.4756209 0.38525867 1.4933997
000070 5f 93 a1 3f 99 1c 29 3f 24 7d 9b 3f 99 af 8e 3f
       1.2623099 0.6605926 1.2147565 1.1147338
000080 9a ec 85 3f 1c 0a b3 3f 8b e8 bf 3f 80 4e 3b 3f
       1.046283 1.398746 1.4992841 0.73166656
000090 7b ba a7 3d 8a 7c b2 3f ac 44 c1 3f 34 ff c0 3f
       0.08189865 1.3944256 1.5099082 1.5077882
0000a0 1a c4 b6 3f c9 d0 b1 3e 57 e3 0d 3f dd 36 22 3f
       1.4278595 0.34729603 0.5542502 0.63364965
0000b0 fe 7a 4c 3f c5 08 b2 3f 78 d4 5f 3f bd 0f 2d 3f
       0.7987517 1.3908926 0.87433577 0.6760214

dense.0.denselayer1.norm2.bias f4 [48]
000000 53 3a 3f 3d a2 9b 59 3e 16 61 b4 bd 70 c6 77 be
       0.04668648 0.21250775 -0.0880758 -0.24196792
000010 10 b0 be be b5 dd d3 3d 2f ce dc be b5 42 d7 be
       -0.372437 0.10345022 -0.43126056 -0.4204308
000020 bc da 97 be a1 b5 fe 3d ff 85 6f 3f a0 f5 80 3f
       -0.2965907 0.12436987 0.93563837 1.0074959
000030 a0 c6 07 bf 20 6a b9 3e 99 0f 80 3f 32 d7 68 3e
       -0.5303745 0.3621378 1.000476 0.2273834
000040 57 cd 2f 3f 13 17 3b 3e 43 2a 5c 3f 62 fe 6c 3f
       0.686727 0.18270521 0.86001986 0.9257566
000050 24 33 4e 3e f0 13 79 3e 63 c2 e7 3d c2 e6 95 3f
       0.20136696 0.24324012 0.11316373 1.1711047
000060 6d e0 7a 3f b2 49 11 3f 01 d0 a8 be 9e 3d 17 3f
       0.97998697 0.56753075 -0.32971194 0.59078395
000070 9a 18 42 3e 79 c7 98 be 14 53 41 3e 76 d4 71 3d
       0.18954697 -0.29839686 0.18879348 0.05904051
000080 45 99 d6 3d ab 09 a8 3d e8 e3 93 3e 5c e6 80 be
       0.104784526 0.08204969 0.28884816 -0.2517575
000090 35 f0 f2 be 07 aa 19 3f 82 19 e6 3e 7a a5 4c 3e
       -0.47448888 0.60025066 0.44941336 0.19985
0000a0 0e 82 88 3e e9 5e 93 bd 27 f3 9e be b3 96 86 be
       0.26661724 -0.07195837 -0.31044886 -0.2628685
0000b0 78 c6 e6 3b 37 e7 7b 3e 5c ce ab bc 03 5f 71 be
       0.0070427023 0.2459992 -0.020972423 -0.235714

dense.0.denselayer1.norm2.running_mean f4 [48]
000000 56 c9 73 be e8 a6 7b 40 c8 3c 2d c0 fa 77 27 bf
       -0.23807272 3.9320621 -2.7068348 -0.65417445
000010 b9 0f 4b 3e 9b 0c bb 3e c7 6c a6 40 c7 6a cd 40
       0.19830216 0.36533055 5.2007785 6.4192843
000020 2e b0 9a 40 23 12 ed 3f 5f 63 42 41 0f 5f 52 41
       4.8340063 1.852116 12.1492605 13.148208
000030 45 ba da be 58 08 b2 be 19 50 51 41 31 fe 9b 40
       -0.42720237 -0.3477199 13.082055 4.874779
000040 61 bb 2e 41 91 be 82 bf 36 52 2a 41 85 fd 3c 41
       10.920747 -1.0214406 10.645071 11.811894
000050 64 af b8 40 97 ac 20 40 57 93 8f bf 60 19 49 41
       5.77141 2.510534 -1.121684 12.568695
000060 40 e4 49 41 3a af 19 41 13 51 14 be a0 da 14 41
       12.618225 9.60528 -0.14484052 9.303375
000070 f2 b8 c9 40 79 4d 5a be 45 3a 8f 40 f4 48 5b 40
       6.3038263 -0.21318616 4.475863 3.4263277
000080 3b ea d5 be f8 0e 3e 40 2a 51 a3 40 62 80 0c bf
       -0.41780266 2.9696636 5.1036577 -0.54883397
000090 10 6d 34 be 4c 85 ac 40 ac 05 91 40 e0 8c 82 40
       -0.17619729 5.3912716 4.5319424 4.0796967
0000a0 75 25 da 40 f5 4c 49 bf e8 3c ee be 82 a6 00 c0
       6.8170724 -0.7863305 -0.46530843 -2.0101628
0000b0 72 e0 0f c0 82 7a 9f 40 6a 3f 4a bf 72 6e 8d bf
       -2.248074 4.9837046 -0.7900301 -1.104933

dense.0.denselayer1.norm2.running_var f4 [48]
000000 99 43 78 43 3c c8 d1 42 a6 15 1a 42 4e ce 9a 3f
       248.26405 104.89108 38.52114 1.2094209
000010 8a b5 39 43 49 92 4a 42 46 f9 23 41 09 79 62 41
       185.70914 50.642857 10.248358 14.15455
000020 2a da 1b 41 25 3c 19 42 cd cb 3a 42 a2 7b 37 42
       9.740763 38.308735 46.699024 45.870735
000030 b1 75 65 40 ed 98 9c 42 e8 28 42 42 63 d5 1e 43
       3.5853083 78.29868 48.539948 158.83354
000040 d9 98 27 42 ed 87 bf 42 d7 8c 3d 42 4a 3e 46 42
       41.899265 95.76548 47.38754 49.56083
000050 bc f5 5a 43 9b 74 54 43 fd f9 69 43 4e 86 4c 42
       218.9599 212.45549 233.97652 51.131157
000060 00 45 34 42 98 40 29 42 e0 67 0c 41 99 c9 31 42
       45.067383 42.31308 8.77536 44.446873
000070 a0 9b 5d 43 b5 31 90 3f 55 1a 04 43 91 6f 1a 42
       221.60791 1.1265169 132.10286 38.60895
000080 8f 32 14 43 c3 e9 85 42 23 8a ed 42 3d ea f5 3f
       148.1975 66.956566 118.7698 1.9212109
000090 c4 48 a0 40 72 d6 9b 43 56 ce 65 43 db c2 08 43
       5.0088825 311.67535 229.806 136.76115
0000a0 ff 0b 2c 43 a1 7d 62 42 f2 7c aa 3f 22 82 36 41
       172.04686 56.622684 1.331938 11.406771
0000b0 cb 13 a3 41 b9 88 e4 42 30 48 0b 43 86 14 b0 40
       20.384665 114.26704 139.28198 5.5025053

dense.0.denselayer1.conv2.weight f4 [12, 48, 3, 3]
000000 34 27 0f bf dd bb 01 be c0 98 8a 3f 84 c1 6a bd
       -0.55919194 -0.1266932 1.0827866 -0.057313457
000010 37 4a 9d bd b3 99 63 bd ca 2c 7b 3f 75 47 be bc
       -0.07680171 -0.0555665 0.9811522 -0.023227433
000020 ad 5c 0d bf a7 ce d2 bf 0c 0f 87 3e f0 2e 0d 3f
       -0.55219537 -1.6469315 0.26378667 0.55149746
000030 ea ad 97 3e 5b 8d 3b bc ef cd 96 3e d3 e0 0d 3f
       0.29624873 -0.011447276 0.2945399 0.5542118
000040 32 0f bb 3e e9 7b bf bf 04 e6 02 bf d1 34 08 be
       0.3653503 -1.4959689 -0.51132226 -0.13301398
000050 de 55 88 3f 96 79 56 bd 02 00 d3 bc d1 15 03 be
       1.0651205 -0.052362047 -0.02575684 -0.12801291
000060 89 c8 73 3f e2 c1 2d bd a0 8f 0b bf 46 12 77 bd
       0.9522787 -0.04242123 -0.5451603 -0.06032016
000070 ff 22 25 bc 60 42 22 3d 96 f2 d1 3d 50 4d d8 ba
       -0.0100791445 0.03961408 0.10251348 -0.0016502533
000080 e8 db a0 3d 91 db f9 3c 60 a9 2e 3d af b8 80 bd
       0.07854444 0.030500205 0.042641997 -0.062852256
000090 79 32 12 bf b4 00 97 bd 52 1c 78 3f 1e c6 c6 bd
       -0.57108265 -0.07373181 0.96918213 -0.097057566
0000a0 23 95 24 be 4e 7b e3 bd e3 bc 57 3f 08 85 da bc
       -0.16072516 -0.11107503 0.84272593 -0.026674762
0000b0 e0 0b 11 bf 10 87 03 bf c2 21 c9 bd 18 1e 8c 3f
       -0.56658745 -0.51377964 -0.09820892 1.0946684
0000c0 e3 17 97 bd 26 b7 de bc 70 36 b5 bd 83 2d 80 3f
       -0.07377603 -0.027186941 -0.08848274 1.0013889
0000d0 d7 d5 43 bd 60 43 05 bf 29 45 c8 3f 82 1d 19 3f
       -0.047811355 -0.5205593 1.5646106 0.5981065
0000e0 7c a8 1c be 0a 49 53 3f c7 60 5e 3f 17 a5 0a 3f
       -0.15298647 0.82533324 0.8686642 0.5415816
0000f0 22 2e 18 be b0 3c 35 3f 3a fa 9d 3f 72 d6 ac 3f
       -0.14861348 0.70795727 1.2341988 1.3502944
000100 82 aa 9c 3e 9a 08 77 be 13 c6 33 3f f1 25 1e 3f
       0.30598837 -0.24124375 0.7022411 0.61776644
000110 b8 84 0c 3f 09 72 b0 be ff 4f bf 3e 97 72 69 3f
       0.5489001 -0.34462002 0.3736572 0.91190475
000120 2d 65 a6 3f ff a4 13 3f 4e 1c 05 be 6d 5d 25 3f
       1.2999626 0.5767364 -0.12999079 0.6459568
000130 ca e3 3b 3f df 44 7a 3e 17 9b 45 be 0e 29 21 3f
       0.73394454 0.24440335 -0.19297443 0.6295327
000140 06 5d 35 3f 84 3b 11 bf 37 c0 d0 bc 62 e7 87 3f
       0.7084507 -0.5673144 -0.02548228 1.0617487
000150 25 c0 e0 bd 4c f2 8e 3c 40 7b 7a bd 36 65 85 3f
       -0.10974149 0.01744952 -0.061152697 1.0421512
000160 77 c2 28 3a 94 fd 07 bf 50 f7 8c bf a4 49 c6 3e
       0.0006437669 -0.53121305 -1.1012974 0.38728058
000170 74 79 f6 bf 90 14 ef 3e 3c d6 cd 3f fc 8d fd 3e
       -1.9255815 0.46695375 1.6081004 0.49522388
000180 f8 6a 02 c0 75 4f f7 3e 72 f0 9f bf b8 a3 91 bf
       -2.0377789 0.48302808 -1.2495253 -1.1378088
000190 e8 bc a4 3e 19 15 f7 bf e0 23 fe 3e 6d 5b c9 3f
       0.32175374 -1.9303313 0.49636745 1.5731026
0001a0 de e5 05 3f 88 ff fd bf f0 0b 00 3f a1 b5 9e bf
       0.52303874 -1.9843607 0.50018215 -1.2399179
0001b0 bc 5a 69 be d0 d1 bb 3a 94 48 95 3e 95 d5 ae 3c
       -0.22788519 0.0014329497 0.29156935 0.021342078
0001c0 63 b3 ee bd 8e b8 19 3c ec 79 96 3e 4c d7 2d bd
       -0.11655309 0.00938238 0.29389894 -0.04244165
0001d0 f0 53 23 be 13 2d cf bf e6 4b 85 3e 39 97 0b 3f
       -0.15949988 -1.618563 0.26034468 0.5452762
0001e0 32 d2 c3 3e ec 93 00 bd f6 d5 91 3e 39 18 0d 3f
       0.38246304 -0.03139107 0.28483552 0.55115086
0001f0 76 e4 ca 3e 06 cc c2 bf 82 62 94 bf aa fe ad 3e
       0.39627427 -1.5218513 -1.1592562 0.33983356
000200 7b 65 f8 bf 89 ae f4 3e bf fa cb 3f 5c 93 fe 3e
       -1.9405969 0.4778941 1.5935897 0.497218
000210 ec cf 01 c0 ae 8e 05 3f bc 3f a3 bf 6f 59 fd be
       -2.0283155 0.52170837 -1.2753825 -0.49482295
000220 e9 f3 25 bc 45 88 8f 3f c1 0c b4 bd 28 83 f3 3c
       -0.0101289535 1.1213461 -0.08791495 0.029725626
000230 94 3c 77 bd 94 b2 87 3f e5 af 1a bd 9e 94 0c bf
       -0.060360506 1.0601373 -0.037765402 -0.5491427
000240 aa b3 8e bf 24 b2 b8 3e a3 4c ed bf e5 82 04 3f
       -1.1148579 0.3607341 -1.8539013 0.5176223
000250 9e b3 ce 3f 67 8f f5 3e 88 ca f5 bf 8f 0a 04 3f
       1.6148565 0.4796097 -1.9202433 0.5157861
000260 04 2a a4 bf bd 30 ce bf 60 72 87 3e ed 60 1e 3f
       -1.2825322 -1.6108624 0.2645445 0.61866647
000270 bb c4 99 3e d5 a5 60 3c 4e 58 9a 3e e9 32 09 3f
       0.30032906 0.013711412 0.30145496 0.5359331
000280 05 f6 c9 3e e3 00 c3 bf 54 b3 8d bf ed 8d cb 3e
       0.3944551 -1.5234646 -1.1070352 0.39756718
000290 dc ed f0 bf c5 be fa 3e cf d1 cb 3f fe 8b 0b 3f
       -1.8822589 0.4897367 1.5923404 0.54510486
0002a0 15 11 f9 bf 0d aa fa 3e 02 9d a1 bf c3 33 8f bf
       -1.9458338 0.48957863 -1.262604 -1.1187671
0002b0 82 ae 9a 3e 26 e8 f3 bf 64 cf ed 3e 32 1e c7 3f
       0.30211264 -1.9055221 0.4644729 1.555609
0002c0 62 67 09 3f 7a 8b fa bf 2b e3 f0 3e 1f b9 9e bf
       0.53673375 -1.9573815 0.47048315 -1.2400244
0002d0 64 3f cf bf 83 91 90 3e a2 64 0f 3f 4d 55 92 3e
       -1.619122 0.28236017 0.5601293 0.28580704
0002e0 08 e1 05 bd e0 7e 90 3e 9a 8d 12 3f 3d c3 9c 3e
       -0.03268531 0.28221798 0.57247317 0.30617705
0002f0 bd 15 bf bf 8b 7f f4 be 76 14 df bd 6c 95 90 3f
       -1.4928509 -0.47753558 -0.108925745 1.12956
000300 a2 98 7f bd 2b 2a 0c 3c a1 4e a5 bd 67 ce 84 3f
       -0.06240142 0.0085549755 -0.08071638 1.0375489
000310 0c cf 23 3d c1 e5 02 bf fc bc 06 bf d7 33 61 bd
       0.039992377 -0.51131827 -0.5263212 -0.05498108
000320 29 78 88 3f 0d b9 54 bc a7 f8 5f bd fd 48 e7 bd
       1.066167 -0.012983573 -0.054680493 -0.11293218
000330 c1 b0 81 3f f4 6e 23 3d 44 88 09 bf 29 2e 92 bf
       1.0132066 0.039900735 -0.5372355 -1.1420337
000340 58 d5 bb 3e eb 89 fc bf d9 85 00 3f 4c 66 ce 3f
       0.36686206 -1.9729589 0.50204235 1.6124969
000350 1d ef 06 3f ee a9 02 c0 f0 ce f2 3e 32 30 a6 bf
       0.5270861 -2.0416217 0.47423506 -1.2983458
000360 cb 60 8c bf 88 f1 b5 3e b6 60 f7 bf b5 ac 10 3f
       -1.0967039 0.35535836 -1.9326389 0.5651353
000370 59 02 c6 3f 15 ce f9 3e d3 6a 01 c0 c7 40 ed 3e
       1.5469466 0.4879004 -2.022145 0.46338484
000380 23 2c a7 bf ea 65 8f bf 39 7a b2 3e 55 06 e9 bf
       -1.3060344 -1.1202977 0.34858873 -1.8205057
000390 d1 7b 02 3f 6a 72 c7 3f 5a cc 09 3f c0 36 f4 bf
       0.5097018 1.5581791 0.5382744 -1.9079208
0003a0 21 b1 f0 3e 3b bb 9a bf c1 68 df bd ea 12 b3 bd
       0.4701014 -1.2088388 -0.10908652 -0.08743842
0003b0 19 f1 d2 3e 2f dc 81 bd b3 76 e2 bd 4e eb 70 bd
       0.41199568 -0.06340825 -0.11057796 -0.058818154
0003c0 0d 32 99 3e a6 34 9c bd 8b 71 0c bd 94 f5 8b bf
       0.29920998 -0.076272294 -0.03428797 -1.093432
0003d0 fc 71 c0 3e b0 e7 e7 bf e0 0c fe 3e d7 32 cc 3f
       0.37586963 -1.811758 0.49619198 1.5953015
0003e0 66 ce 04 3f d6 8b f3 bf 55 60 02 3f 8a d3 9a bf
       0.5187744 -1.902705 0.5092824 -1.2095807
0003f0 b1 7c d4 bf 60 61 94 3e 30 a4 18 3f ba a9 8a 3e
       -1.6600553 0.2898054 0.5962553 0.27082616

dense.0.denselayer2.norm1.weight f4 [44]
000000 de 69 3d 3f 30 21 dc 3e e5 46 2e 3f 9c 9e c2 3d
       0.73989666 0.4299407 0.68076926 0.095029086
000010 9d b1 7b 3f 76 ba 42 3f 87 6c 5e 3f aa 9e 28 3f
       0.9831789 0.76065767 0.8688435 0.658671
000020 24 fd 93 3f af b7 5c 3f 2a ec 30 3f 9b 06 da 3c
       1.1561627 0.8621778 0.6911036 0.026614478
000030 3f b3 83 3f 64 4e 3b 3d 9c b4 fb 3f 18 04 d5 3d
       1.0289077 0.045729056 1.9664493 0.104011714
000040 6e 1e 35 3f a1 ac 35 3f 2d 0d 84 3f 95 91 14 3e
       0.70749557 0.70966536 1.0316521 0.1450866
000050 36 a6 2e 3f bb ec 28 3f 2a a7 cc 3e d8 22 5e 3f
       0.6822237 0.6598622 0.39971286 0.8677192
000060 d2 dd 0f 3e d6 71 1c 3f 9b 4c 34 3f 70 7f 85 3d
       0.14049461 0.611112 0.7042939 0.065184474
000070 52 82 2d 3f c3 87 2c 3f 71 fc 34 3f 83 94 9d 3f
       0.6777698 0.67394656 0.70697695 1.2310947
000080 53 49 0e 40 09 f0 de 3f 70 8f 14 40 98 b0 b6 3f
       2.2232254 1.7417003 2.3212547 1.4272642
000090 be fc 81 3f a8 ff ca 3f 0e e5 ff 3f b1 0e 1d 40
       1.0155256 1.585927 1.9991777 2.4540217
0000a0 40 62 b4 3f 8c 4c d9 3f c5 2b 80 3f d4 62 9c 3f
       1.4092484 1.6976485 1.0013357 1.221766

dense.0.denselayer2.norm1.bias f4 [44]
000000 a2 11 85 be ca 56 13 3e 81 29 91 3e 9e 1c 6f bf
       -0.25990015 0.14388576 0.28351977 -0.9340304
000010 c4 8c 9e bc 10 bc 82 be 46 19 8c 3e ec a9 9a be
       -0.019354232 -0.25534105 0.27363032 -0.30207765
000020 bc 76 9e 3e 82 b9 b5 be cb 13 9c be 39 cc 48 bf
       0.30949962 -0.35493094 -0.3048385 -0.7843662
000030 89 2b 96 3b fa ba 11 bf 1b cb 2c 3f 68 be 38 bf
       0.0045828265 -0.5692593 0.67497414 -0.72165537
000040 a6 3b 84 be db 24 a4 be 7c d3 d0 3c ba 4b 47 bf
       -0.25826758 -0.32059368 0.025491469 -0.77849925
000050 3e 2e 9b be aa d5 a5 be 24 46 34 be 4b b7 3a 3e
       -0.30308717 -0.32389575 -0.17604882 0.18233983
000060 5e 70 ed be f2 43 99 3d 0d 3b a0 be e5 f9 b8 be
       -0.46374792 0.07483663 -0.31295052 -0.36128154
000070 f8 49 9e be 15 9c b3 be 75 bc a3 be 4d ac b8 bd
       -0.3091581 -0.3508002 -0.3197972 -0.09017239
000080 12 c4 46 be e8 4f 13 3f c7 ca a2 bf 6a 84 9a 3f
       -0.19410732 0.575438 -1.2718133 1.207166
000090 e9 9d db 3e 04 3f 65 3f 7c a7 a7 bf 2a 78 a6 3e
       0.42893913 0.8954928 -1.3097987 0.32513553
0000a0 24 fd e3 3f 7d 56 87 3f 3e 23 5e 3c 34 73 54 bf
       1.7811627 1.0573269 0.013558207 -0.82988286

dense.0.denselayer2.norm1.running_mean f4 [44]
000000 04 00 00 00 73 2d c1 3e fe 23 56 3e 46 e7 f5 3e
       6e-45 0.37729988 0.20912167 0.4802801
000010 04 00 00 00 72 84 08 3f e6 5e 01 3f 98 fa 39 3f
       6e-45 0.53327096 0.5053543 0.72648
000020 80 f5 69 3e 25 3b c3 3f 59 38 fb 3e c5 d4 f4 3d
       0.22847557 1.5252424 0.49066427 0.11954645
000030 04 00 00 00 9a 72 95 3f 4f 2f 3a 40 5c 1b ce 3f
       6e-45 1.1675599 2.9091375 1.61021
000040 c6 d7 b9 3e bc 5a 71 3f 04 00 00 00 d0 0c 0c 3f
       0.36297435 0.94279075 6e-45 0.5470705
000050 25 77 89 3f da 89 98 3f e9 5d e0 3f 5f 0e 4c 40
       1.0739485 1.1917069 1.7528659 3.1883771
000060 55 38 cf 3f b8 52 bb 3f 49 76 09 40 03 38 a5 3e
       1.6189066 1.4634619 2.1478446 0.32269296
000070 11 ac eb 3f be 65 32 3f 84 51 c6 3f 04 00 00 00
       1.8411885 0.69686496 1.5493627 6e-45
000080 fa 3c 97 c1 33 5e 74 c1 02 1a 0d c2 98 c0 aa c0
       -18.904774 -15.272998 -35.2754 -5.33601
000090 1d 0e 21 c1 5b c8 da c0 c4 d4 52 c2 56 73 5b c1
       -10.065946 -6.8369575 -52.70778 -13.715658
0000a0 2c 5c ca bf e4 c9 55 c0 ab bf a7 c1 d8 5b 54 c2
       -1.5809379 -3.3404474 -20.968588 -53.08969

dense.0.denselayer2.norm1.running_var f4 [44]
000000 04 00 00 00 d7 52 2b 3f 50 ab 63 3f 39 2a 1c 40
       6e-45 0.6692328 0.8893328 2.440077
000010 04 00 00 00 39 ec 87 3c 21 97 90 40 76 86 74 3d
       6e-45 0.016592132 4.5184484 0.059698544
000020 63 db 87 3f cd a2 86 3e fd 05 e2 3c ca 96 07 3e
       1.0613827 0.26296082 0.027590746 0.13241115
000030 04 00 00 00 c9 19 b0 3f 14 47 08 3f 1d c7 b5 40
       6e-45 1.3757869 0.53233457 5.680556
000040 0a 78 fc 3b a1 d1 cd 3d 04 00 00 00 f3 d3 aa 40
       0.0077047395 0.10049749 6e-45 5.3383727
000050 c1 d9 84 3d 94 a1 93 3d 05 b8 84 40 00 99 0e 41
       0.06486846 0.07208553 4.1474633 8.9123535
000060 93 66 98 3f 59 50 6e 3f f0 8b 05 3f ac d3 03 40
       1.1906303 0.9309135 0.5216665 2.0597944
000070 07 80 c4 3e 68 fa 5d 3d 01 1b 8b 3e 04 00 00 00
       0.38378927 0.054193884 0.2716904 6e-45
000080 28 ca 46 45 70 9d dd 45 7a a5 4c 45 bb 07 83 45
       3180.6348 7091.6797 3274.3423 4192.9663
000090 24 a7 82 45 fb c2 75 45 05 75 84 45 d8 a9 23 45
       4180.8926 3932.1863 4238.6274 2618.6152
0000a0 6b 0d 5e 45 21 d8 7a 45 51 d8 6c 45 98 77 ae 45
       3552.8386 4013.508 3789.5198 5582.949

dense.0.denselayer2.conv1.weight f4 [48, 44, 1, 1]
000000 a6 a8 35 3e 5b f8 3c be 6c 04 c2 be 76 03 8a bd
       0.17740116 -0.18454115 -0.37894 -0.06738941
000010 d2 80 15 bc bc 06 f5 3d cf d4 36 3f d1 47 76 bb
       -0.009124951 0.11964175 0.7141847 -0.0037579427
000020 2a 7c cc be f9 16 37 3e a3 32 e8 3c f4 e1 4b be
       -0.3993848 0.17879857 0.028344458 -0.19910413
000030 95 51 c8 bd 96 1c 13 3e 60 d7 04 bf 6c da 55 3d
       -0.097811855 0.14366373 -0.51891136 0.052210256
000040 48 e9 87 3d 5a 36 65 bd 4b 1f 1b 3e 03 7a 0a 3c
       0.06636292 -0.055960037 0.15148656 0.008451941
000050 08 54 1c 3d a9 a3 93 3c 2b ef f4 3e 6f ee 21 3f
       0.038166076 0.018022375 0.4783872 0.63254446
000060 78 75 d4 3d 0c 8b b3 3e 2d 2e a5 bd 9a 14 ec bd
       0.10373968 0.35067022 -0.08065448 -0.11527367
000070 ff 00 38 3e ef a0 e6 bd 0c 0d 4e bc 07 b2 fa bb
       0.1796913 -0.112611644 -0.012576353 -0.007650617
000080 92 93 3a 3e 0d b4 0a bf 29 c1 9f 3f d0 bc d0 bf
       0.18220356 -0.54180986 1.2480823 -1.6307621
000090 6c 0e 25 3e 2e ff 85 bf 0c aa 2a bd 4c e3 4c bf
       0.16118783 -1.04685 -0.041666076 -0.8003433
0000a0 50 2a 8b bf bc 75 0e bf a1 4e 39 bc f6 89 81 3f
       -1.0872288 -0.556484 -0.0113102505 1.0120227
0000b0 73 31 bc 3d ec 3c 3f 3f 8e 1d 44 3f 50 65 46 bd
       0.09189119 0.74702334 0.76607597 -0.048436463
0000c0 e8 fb 02 bd 19 95 50 3e 86 16 d3 be c2 27 a3 bd
       -0.031978518 0.20369376 -0.41228122 -0.079665676
0000d0 ef ab 75 3f 58 59 39 3d 4f 55 0c 3d f3 44 8c bd
       0.95965475 0.04525122 0.034261044 -0.068490885
0000e0 12 a5 d7 bd 90 c6 85 3d ae dd d8 bf f0 3c 1e be
       -0.105295315 0.065320134 -1.6942651 -0.15452933
0000f0 9b 79 35 3e 5e d9 5c be 1e 9a 2a be cf 67 59 be
       0.1772217 -0.21567294 -0.16660354 -0.21231006
000100 9b ef b4 3b ab d8 82 bd 0c ac 1b bf 06 ec 02 bf
       0.0055217273 -0.063889824 -0.608094 -0.51141393
000110 d8 88 e2 be 79 09 0d bf 4f e2 81 3a ba 65 51 3e
       -0.44245028 -0.5509258 0.0009909364 0.20448962
000120 bb 06 da bd 2f f5 a7 3d 17 f0 95 3d 6d 4b ce be
       -0.10645815 0.08201062 0.07321184 -0.4029192
000130 d7 4e e6 3e 53 ee ea bd 29 ed c8 bf a9 fe 85 bf
       0.44982025 -0.11471238 -1.5697376 -1.0468341
000140 b1 82 26 bf 46 35 2e bf f0 45 98 be 80 28 44 bf
       -0.6504317 -0.6805004 -0.29740858 -0.766243
000150 00 24 26 bf be 8c fd bd dd 51 8f 3e 15 3f 2e bf
       -0.6489868 -0.1238036 0.27992144 -0.68065006
000160 0b a2 54 3c a8 5b b9 3e 16 59 94 3e 0f 61 8d be
       0.012978087 0.3620274 0.28974217 -0.27613112
000170 16 dc f8 3d c2 18 05 bd b0 49 8c bf 87 40 86 3d
       0.12151353 -0.032494314 -1.0959988 0.06555276
000180 e2 af 20 3f b1 25 2b 3d 08 62 0d 3d b1 62 22 be
       0.62768376 0.041783992 0.034517318 -0.1585796
000190 1e c4 b1 bd 21 8b 6f be bf c0 67 c0 5f f6 a0 bd
       -0.086799845 -0.23392917 -3.6211393 -0.078594916
0001a0 60 c1 e0 3d b6 aa 50 3c 47 2c d2 bd 4e 89 8c be
       0.10974383 0.012736013 -0.102623515 -0.27448505
0001b0 aa 24 94 3d 02 76 f6 bc c4 30 98 bf 08 2f 96 bf
       0.072335556 -0.030085567 -1.1889882 -1.1733103
0001c0 f4 80 7f bf e6 93 8d bf 27 c9 3c be b7 6a ea bd
       -0.9980614 -1.106076 -0.18436109 -0.114461355
0001d0 89 2e e7 3d c4 48 57 3d b5 80 f7 3d af 9c 0e bf
       0.11288173 0.05255963 0.12085096 -0.5570783
0001e0 b0 b9 29 3f 54 69 7d 3e 0c 7a 51 3f 7f a1 59 3f
       0.6629896 0.2474721 0.81826854 0.8501205
0001f0 44 60 86 bd 19 03 0b 3f 98 b8 83 3f d4 3f 91 be
       -0.0656133 0.543016 1.0290709 -0.2836901
000200 d6 fe 2d 3d 8f ee d5 bc 09 48 88 bf c7 ab 21 3f
       0.04247936 -0.02611473 -1.0646983 0.63152736
000210 b4 72 16 be c0 72 a4 bd f0 a8 ab 3d 6f 7b 0d bd
       -0.14692193 -0.08029699 0.08381832 -0.034541544
000220 62 53 f4 3d a7 8d b1 bc 29 4b c1 bc 86 18 f8 3d
       0.119299665 -0.02167399 -0.02359541 0.121140525
000230 bf c9 31 bd d5 56 4e bd 3f 9f 2d 3d 0c 11 5d bd
       -0.04340529 -0.05037578 0.042388197 -0.053971335
000240 fa 31 33 3d c2 e6 8e 3e 11 dd 07 3f 86 29 42 be
       0.043748833 0.2791043 0.53071696 -0.18961152
000250 a7 47 13 be aa 18 35 be 28 a9 1a 3d af cc 05 3d
       -0.14382802 -0.1768519 0.037758976 0.032665905
000260 f7 74 1c be ec 34 e3 bd 43 4e 45 be 4d 16 29 3d
       -0.15278994 -0.110940784 -0.19268136 0.041281033
000270 ca 87 a2 bd 3b 40 41 be 16 0f 97 3d f8 5d 88 3d
       -0.07936056 -0.18872158 0.07375924 0.06658548
000280 3a ae 21 bd c3 61 16 3e af f7 1f bd 6a 42 85 3e
       -0.039472796 0.1468573 -0.03905457 0.26027232
000290 96 ce 2d bf 39 2a d7 3f 3d b5 e5 3e f2 cf a7 bf
       -0.6789335 1.680976 0.44864836 -1.3110335
0002a0 8e 93 95 bd 17 14 cf 3f c5 f7 a6 3f 09 b2 63 be
       -0.073035344 1.6178006 1.3044363 -0.22235884
0002b0 5f 98 80 bf f8 12 47 3e de 6d 9c be 2c d3 81 3f
       -1.00465 0.1944083 -0.30552572 1.014257
0002c0 55 cd 91 bd d3 9e 34 3e 74 42 7e 3e a3 7c 1a 3f
       -0.07119242 0.17638712 0.24830037 0.6034643
0002d0 fb 0e d4 3d 29 f6 77 bc 0b f6 28 40 c1 ef 06 be
       0.1035442 -0.015134373 2.6400173 -0.13177396
0002e0 3c e6 47 3d 65 64 90 3e 8f 98 06 be a6 db 34 3d
       0.048803553 0.28201595 -0.13144134 0.044154786
0002f0 56 0e e8 bd ad 2b 4f 3e d2 5f ab bd 29 f2 50 3f
       -0.11330859 0.20231505 -0.08367886 0.8161951
000300 a9 f2 9f bd d2 17 6a 3e 2c 84 11 3e 47 f0 81 3f
       -0.078099556 0.22860649 0.14210576 1.0151452
000310 cf 11 a6 bc b4 d2 88 3e 93 3e 22 40 a2 cd 37 40
       -0.020272164 0.26723254 2.5350692 2.8719258
000320 93 4b 09 40 1f 24 0d 40 54 53 a8 bd 93 a5 c0 3d
       2.1452377 2.2053297 -0.082190186 0.09406581
000330 15 8c 8f 3c b5 33 ed 3d c5 66 61 be e3 64 19 bf
       0.017522851 0.11582128 -0.2201186 -0.59919566
000340 22 ca 01 3f 70 a2 94 bd b8 f1 36 3f e0 94 7f 3e
       0.50699055 -0.07257545 0.71462584 0.24959135
000350 ab 6f 57 be 7e 59 c9 bd 45 1c 20 3f 82 a4 9b 3c
       -0.21038692 -0.098315224 0.62543136 0.018999342
000360 8c c0 b3 3e 09 67 ef 3d 47 91 27 be bc 4b 20 3f
       0.3510784 0.11689574 -0.16364013 0.6261556
000370 04 bd 6a 3d 23 05 36 be a4 ff 49 be 9e af db 3e
       0.057309166 -0.17775397 -0.19726425 0.42907423
000380 c8 88 05 3e 30 65 d1 ba a2 7b 76 3f 9a 1f c2 bd
       0.13040459 -0.0015975591 0.962824 -0.09478684
000390 b3 f3 76 be a9 26 18 3e 41 d3 47 bd 0c f3 12 3e
       -0.24116401 0.14858498 -0.04878545 0.14350528
0003a0 65 ca 22 3e 50 cb a7 3d d0 00 02 3f 51 82 b9 3e
       0.1589752 0.08193076 0.5078249 0.36232236
0003b0 31 39 23 be f5 fb 74 3e 2b 7e ed 3d 00 b0 41 3e
       -0.15939786 0.23924239 0.1159633 0.18914795
0003c0 ee fb 8a 3b db 3b 6e 3c 56 f4 65 3f 78 fe 89 3f
       0.004241458 0.014540638 0.8982595 1.0780783
0003d0 f9 bb e6 3e 71 99 80 3f 01 4f 3f be 15 5a 6d 3d
       0.45065287 1.0046827 -0.18682481 0.057947237
0003e0 f9 9d 46 3e 60 3e bf bd ab 7f 51 be 6c 22 c3 be
       0.193962 -0.09338069 -0.20458858 -0.381122
0003f0 e8 30 b2 bc 2c df b9 3e ff 40 20 bf 5a af d5 bc
       -0.021751836 0.3630308 -0.62599176 -0.02608459

dense.0.denselayer2.norm2.weight f4 [48]
000000 f9 ea 89 3f 71 fd 9f 3f 65 9c 8e 3f 3a fd b3 3f
       1.0774833 1.2499219 1.1141478 1.4061654
000010 a8 e4 c4 3f 1a 8e 72 3f 8b ee c8 3f 8a 5e ee 3f
       1.538228 0.9474808 1.5697798 1.8622601
000020 b5 b3 95 3f ab 31 94 3f e9 dc a7 3f a0 4a 89 3f
       1.1695467 1.1577657 1.3114291 1.0725899
000030 3a da d5 3f e8 10 7a 3f 28 c8 51 3f 95 9c 8c 3f
       1.6707222 0.97682047 0.8194604 1.0985285
000040 bb 28 c7 3f 13 83 aa 3f 0d 93 8b 3f e5 88 4b 3f
       1.5559305 1.3321251 1.0904251 0.7950576
000050 01 a5 bc 3f 9c 24 bc 3f 3c 03 5c 3f 77 4c a8 3f
       1.4737855 1.4698672 0.85942435 1.3148335
000060 b9 57 a2 3f 90 3e bc 3f db c0 72 3f 35 60 af 3f
       1.2683021 1.4706593 0.94825524 1.3701235
000070 7f 9c 7c 3f 8d 07 c3 3f 0e a5 86 3f 34 c3 93 3f
       0.98676294 1.5236679 1.0519121 1.1543946
000080 16 b5 cc 3f 8a 32 f8 3f e1 9d 98 3f ca e1 ae 3f
       1.5992763 1.9390423 1.1923181 1.3662655
000090 6e 6c cc 3f 02 1a 52 3f a2 9c c8 3f 48 a9 c3 3f
       1.597059 0.82070935 1.56728 1.5286036
0000a0 ea 21 ad 3f 08 c2 91 3f 1b 7b aa 3f d5 6e d3 3f
       1.3525975 1.1387339 1.3318819 1.6518198
0000b0 db 6f b3 3f f9 ad 96 3f 6d 41 b6 3f 4e b9 94 3f
       1.401851 1.1771842 1.4238716 1.161905

dense.0.denselayer2.norm2.bias f4 [48]
000000 e9 87 9d bc f0 e9 c6 bd 3f 52 41 bf c2 d3 2f bd
       -0.019229846 -0.09712589 -0.7551612 -0.042926557
000010 52 b0 0f bf b8 b2 92 bf b0 73 e8 3d 32 1f 5d 3e
       -0.5612842 -1.1460791 0.11350191 0.21593931
000020 00 51 a1 be 4e 91 d9 be 23 25 36 bf 1d c1 7b be
       -0.3150711 -0.4249367 -0.71150416 -0.24585386
000030 9f 82 9b 3e 18 09 43 bf a0 3d 27 3d db ee 5b be
       0.30373093 -0.7618575 0.040830255 -0.21477835
000040 c5 fd 5a bc 1e 9b 69 3f ee 1f 3d 3e 8d c6 8c be
       -0.013366167 0.91252315 0.18469211 -0.27495232
000050 14 24 04 bf a0 1b e9 be ac 96 e8 be e6 9b b2 3c
       -0.5161755 -0.4552889 -0.45427454 0.021802854
000060 23 20 41 bf 72 51 f9 be cd 43 08 bf de cd 94 be
       -0.7543966 -0.4869495 -0.53228456 -0.29063314
000070 f3 bf b2 bd 4d 95 c6 be 02 3f 9d bf 31 c9 65 bf
       -0.08728018 -0.38785782 -1.2284853 -0.8976012
000080 c3 80 96 3d 8b b2 93 3f fe 7f 60 be bd 27 ec bf
       0.07348778 1.1538862 -0.21923825 -1.8449627
000090 50 a9 ae be 2f 66 6c bf f4 a6 bc bc 6d b0 81 be
       -0.3411355 -0.9234342 -0.023028828 -0.25329915
0000a0 a7 8a 60 bf 20 46 ac bf fe 00 84 be 5b ec b9 3f
       -0.87711567 -1.34589 -0.25782007 1.4525255
0000b0 c5 16 b5 be 71 2b 37 be a2 68 b3 be 69 44 5a bf
       -0.35368934 -0.17887665 -0.35040766 -0.85260636

dense.0.denselayer2.norm2.running_mean f4 [48]
000000 81 96 ef c0 13 c3 d6 c0 10 a2 f8 bf 95 07 b6 3e
       -7.487122 -6.711313 -1.9424458 0.3555266
000010 2f ae 5a 40 f8 e9 8d 3f e3 5f a0 40 ad 3c 43 40
       3.4168813 1.1087027 5.011705 3.0505784
000020 2f e8 6f c0 da f3 09 40 52 85 85 c0 52 0b 05 c0
       -3.7485464 2.1555085 -4.1725245 -2.078816
000030 6f 3a 38 3f 6d eb 26 3e 5f ae 8f c0 23 49 1c c0
       0.7196416 0.16300745 -4.4900355 -2.441964
000040 d8 c9 41 40 15 2c 33 c0 e3 79 6a 40 7d 00 9a c0
       3.0279446 -2.7995656 3.6636894 -4.8125596
000050 4d e2 f2 bf 6e b7 b5 c0 16 d7 fe bf 0d 55 27 40
       -1.8975312 -5.6786413 -1.9909389 2.614566
000060 60 ba f3 bd eb f4 54 c0 46 4d 36 40 2c 4f 45 40
       -0.119007826 -3.3274486 2.8484664 3.0829573
000070 49 4d 16 3e 3b 68 3b 40 7d 68 38 40 0c 9a 6c c0
       0.1467792 2.9282367 2.8813775 -3.6969023
000080 54 27 f0 3f 4c 7b e4 bf 87 46 71 40 d0 c0 58 c0
       1.8762002 -1.7850127 3.7699296 -3.3867683
000090 33 a0 26 c0 b6 92 2e 40 e8 f0 0a 40 73 d3 6d c0
       -2.6035278 2.7277045 2.1709538 -3.7160308
0000a0 5e c0 f8 3f 1e 7c 4b 40 9f 0d a0 c0 76 76 41 c0
       1.9433706 3.1794505 -5.0016627 -3.0228553
0000b0 d1 0a 7a 40 4f 5b 46 40 e3 ab 06 40 fc f2 b1 be
       3.9069102 3.099323 2.1042411 -0.34755695

dense.0.denselayer2.norm2.running_var f4 [48]
000000 c9 1c 0f 41 06 f6 55 41 ff 3d 9c 41 8a 77 50 41
       8.944528 13.372564 19.530272 13.029184
000010 98 d2 50 42 b7 6a 35 41 87 5e 9c 41 ea 2e bf 41
       52.205658 11.338553 19.546156 23.897907
000020 b6 c6 ca 40 f4 43 25 41 60 37 86 41 3a cf f3 40
       6.3367567 10.32909 16.777039 7.619046
000030 cf a1 28 41 ed dd c3 41 6b 15 35 41 f6 fd 21 41
       10.539504 24.483362 11.317729 10.124502
000040 8b 96 8b 42 1e 7d 82 41 70 54 18 41 a3 3d de 40
       69.79403 16.311092 9.520615 6.945024
000050 3a e6 fb 40 5a 05 e9 40 22 94 80 41 9a 0f 7d 41
       7.871854 7.2819033 16.07233 15.816309
000060 ee 5e 66 41 96 78 63 41 cb e3 69 41 e2 ee 74 42
       14.398176 14.21694 14.6181135 61.233284
000070 3d 9e 39 41 3b c6 4d 42 af 8b 87 41 f3 5e 3e 41
       11.601132 51.443584 16.943205 11.898181
000080 08 61 93 42 6e 86 fa 41 de 05 1d 41 60 2b 8f 41
       73.689514 31.31564 9.813932 17.89618
000090 f0 3c 60 41 dd 82 c1 40 c5 2b b6 41 6a 66 ad 41
       14.014877 6.0472245 22.771372 21.675007
0000a0 90 9b e3 41 b1 b3 0e 41 c1 9e 55 41 94 d9 d3 41
       28.450958 8.91887 13.351258 26.48124
0000b0 0f 32 db 41 e3 88 6c 41 03 1d 80 41 55 67 5f 41
       27.399443 14.78342 16.014166 13.962728

dense.0.denselayer2.conv2.weight f4 [12, 48, 3, 3]
000000 f0 d6 24 3e 54 8c a7 be 01 99 01 be fc 7a b5 be
       0.16097617 -0.3272425 -0.12656023 -0.35445392
000010 84 5b f1 3d d5 10 16 bf d4 83 a4 3d 14 20 9a be
       0.11785033 -0.58619434 0.08032957 -0.301026
000020 39 19 14 3f 85 27 d4 3e d4 54 92 3e 2f aa 8b bf
       0.57850987 0.414364 0.28580344 -1.0911311
000030 e0 91 8e 3d 55 13 ea 3f d9 42 bb bd cd a0 9d bf
       0.06961417 1.828715 -0.091436096 -1.2314698
000040 7b 03 9a 3e d8 41 b5 3e cc 77 83 3f 6a 5a 3a 3f
       0.3008078 0.35401797 1.0270934 0.7279421
000050 7e 40 6b bf 55 d4 1e 3f 6e 74 70 bf 31 2b 4b 3f
       -0.9189528 0.6204274 -0.9392766 0.7936278
000060 fd 6a e6 be 77 58 0d 3f 2d 32 8c 3f 50 c9 91 bf
       -0.450035 0.5521311 1.0952812 -1.1389561
000070 b9 09 1d bf f3 c3 83 3e 90 64 58 bf 1b 4e 16 c0
       -0.6134296 0.25735435 -0.84528446 -2.3485172
000080 81 e2 47 bf 21 23 50 3e 06 bf 85 bf 4f 26 c9 be
       -0.7807999 0.203259 -1.0448921 -0.3928704
000090 4e 0f 6f 3f 2c 41 ac bd 35 fc 48 be f8 a7 3c be
       0.9338273 -0.08410868 -0.1962746 -0.1842345
0000a0 b7 8c fc be d2 a2 94 bd 47 03 ba bd 69 97 72 bd
       -0.49326107 -0.07257618 -0.09082656 -0.059226427
0000b0 47 b5 6c 3f 82 74 0a 3f 63 fe f9 3d 7c 35 48 be
       0.9246411 0.54084027 0.122067235 -0.19551653
0000c0 59 79 18 3c 84 70 54 be f1 6c 66 be e4 3b d6 bd
       0.009306275 -0.20746046 -0.22502495 -0.10460642
0000d0 27 fe 92 be d5 14 f0 3e 12 0e 66 bf 86 8e 9c 3b
       -0.28709528 0.46890894 -0.8986522 0.0047777323
0000e0 02 88 c4 be bc a9 14 be c4 2d 1c bf 45 90 ed 3d
       -0.38385016 -0.14517874 -0.6100733 0.11599783
0000f0 04 dd bd be d2 e3 c3 3d 92 76 a8 be 4c db a6 3d
       -0.37082684 0.09564938 -0.32902962 0.08147296
000100 e3 a7 04 be eb de 82 bd 29 d7 9e 3d 7d 2c 43 3f
       -0.12954669 -0.063901745 0.07755882 0.7623976
000110 6e e2 18 3d ab 59 45 bd 19 fa d2 bd 21 db 92 3e
       0.037325315 -0.048181217 -0.103016086 0.28682807
000120 2f fa a4 bf ba 87 8c be ad 5f c7 be 73 63 3c be
       -1.288885 -0.274473 -0.38940182 -0.18397312
000130 92 a3 a3 3f 0d 87 30 be 3c c8 34 be 73 bc 35 3d
       1.2784293 -0.17239018 -0.17654508 0.044369172
000140 15 95 8c bf 7f 5a 80 be 61 04 76 3e cb ad 70 3f
       -1.0982996 -0.25069043 0.24025108 0.9401519
000150 55 b1 de 3e 08 bb a1 bf 1b 24 1d 3f 11 ac 07 3f
       0.4349467 -1.2635202 0.6138322 0.5299693
000160 ba 66 7b 3f a9 7d 70 3e 9a f6 17 3f 4d c2 6b bc
       0.98203623 0.23485436 0.5936066 -0.014389587
000170 57 bb 66 bf b0 01 03 be b0 d3 b0 3f 13 1f b9 3d
       -0.9012961 -0.12793612 1.3814602 0.0903913
000180 2f 70 4b bf 8b 83 81 be 33 ab fb 3e 0d 18 23 c0
       -0.79468054 -0.25295672 0.49154052 -2.548343
000190 04 22 87 3e fd 21 e5 bb f5 f9 24 3f 1b 95 59 3f
       0.2639314 -0.006992577 0.64443904 0.8499314
0001a0 e1 18 a1 3e 7e 65 a7 be f5 56 bc 3e 21 f5 c1 bf
       0.31464294 -0.3269462 0.36785093 -1.5152932
0001b0 1c af 41 3d fd f2 77 3e eb 14 24 be fa 50 96 3d
       0.047286138 0.24213786 -0.16023605 0.07339664
0001c0 65 4d 06 40 13 aa bf 3e cd 1c c4 bd 6c de 61 3e
       2.0984738 0.37434444 -0.09575806 0.22057503
0001d0 83 d5 cc be 9a ce 8c 3f bf 0b e2 3e ed 34 88 bf
       -0.40006647 1.100055 0.44149587 -1.0641152
0001e0 50 d0 b4 3e d0 98 47 bf a0 35 9e 3d 2c 58 9e bf
       0.3531518 -0.7796755 0.07725072 -1.2370658
0001f0 e9 97 a2 3e 1c 1d a1 3f 51 ed dc 3d b0 9f ac be
       0.31756523 1.2587008 0.10787452 -0.33715582
000200 38 3b 3f bf b8 9c e2 be 99 cc 9a bf 3c ee fb be
       -0.74699736 -0.44260192 -1.2093688 -0.49205196
000210 57 86 27 bf 88 8a ec be 65 6a 07 3f ba a3 b8 3e
       -0.6543936 -0.4619944 0.5289672 0.36062413
000220 67 27 90 be e8 8b 8e bf ad fe 5e 3a 6a 0b 48 bf
       -0.28155062 -1.1136446 0.00085065776 -0.78142416
000230 d4 b6 f6 3d bc 5a 9a be 76 61 10 3e 7d a1 c5 3e
       0.120465904 -0.3014735 0.14099678 0.38599768
000240 df 31 92 3f 51 b0 a4 3e 43 b9 9d bf 66 f0 9b 3e
       1.142147 0.3216577 -1.2322162 0.30456847
000250 aa 17 d9 be 71 6a 71 3e 5d ea 9c bf 80 81 90 3d
       -0.42400867 0.2357576 -1.2259022 0.0705595
000260 03 84 8e 3f c9 9b 2c bf da ec 8d 3e b2 75 21 bf
       1.1134037 -0.6742521 0.27719766 -0.63070214
000270 0d 2b 92 3e ea 56 e0 3f b6 55 8c 3e f9 4a 95 be
       0.2854847 1.7526524 0.27409142 -0.29158762
000280 b7 af 89 3e fc b4 1e bf 00 8e 6c bf 4b fe f2 bd
       0.26891872 -0.6199491 -0.92404175 -0.11864909
000290 66 56 53 3e 26 06 26 bf 7e 03 dc bf 5d 06 65 3e
       0.20638427 -0.6485313 -1.7188566 0.22365709
0002a0 5f 82 36 3f 40 8a 94 be b6 3e 95 bf 6f 4e 80 bf
       0.7129268 -0.29011726 -1.1659763 -1.0023936
0002b0 1c ea d7 3e 65 e5 9a 3c 45 67 93 bd 4e 53 7f be
       0.421708 0.018908212 -0.071974315 -0.24934122
0002c0 9b df 0a 3f c6 01 0f 3f 78 b7 83 3d 93 90 54 bf
       0.54247445 0.5586208 0.06431478 -0.830331
0002d0 83 29 ca bf b3 d6 4f bd 14 a6 ed 3b 37 be 12 bf
       -1.5793918 -0.050741863 0.007252464 -0.57321495
0002e0 50 a7 23 be 12 ee ba 3c dc 1f 94 3e f6 41 cf be
       -0.15981793 0.022818599 0.28930557 -0.40480012
0002f0 3b 3a 05 bf 76 04 14 bf 91 7f 38 3e ae 9a db 3e
       -0.5204198 -0.57819307 0.18017413 0.4289145
000300 f7 f3 68 3e b0 11 2d be cd cc 60 3d 82 0a bc 3e
       0.22749315 -0.16901278 0.054882813 0.36726767
000310 dc e9 2e bd 0f 5d 0b be fc 54 8c 3f 22 3e fb bb
       -0.042703494 -0.13609718 1.0963435 -0.007667319
000320 2b 23 1e bf 58 9b dc 3e fb 3f 6d be 63 bc 78 3e
       -0.6177241 0.43087268 -0.23168938 0.24290614
000330 b1 f9 8f bf bb e1 ec 3d f0 25 85 3f 97 12 eb 3c
       -1.1248075 0.11566492 1.0402203 0.028695388
000340 c0 82 58 be 32 ab 45 bf 9e e5 3c bd ce 9e 6c c0
       -0.21143627 -0.7721435 -0.046117418 -3.6971927
000350 89 e9 07 bf e9 72 36 bf 12 c4 99 be 4a 14 3e be
       -0.5309072 -0.7126909 -0.30032402 -0.18562427
000360 4b 8c 10 3f 38 5b 9d be 76 66 49 bf 59 2e 09 bf
       0.5646407 -0.30733657 -0.7867197 -0.53586346
000370 37 65 ae 3f e8 f2 2c bf ea fe 10 bf 70 c2 c6 be
       1.3624638 -0.67558146 -0.5663897 -0.3882022
000380 da b5 94 be 57 bf 3c be 42 0e 86 3f b2 59 9c 3f
       -0.29044992 -0.18432365 1.0473101 1.2214873
000390 32 99 8a 3f 2e 2d 5b bf 1a f7 86 3f 9a b7 53 3f
       1.0828001 -0.85615814 1.054416 0.8270203
0003a0 4c 14 57 3f 53 d0 12 be ce 76 6a 3f 89 94 2a 3e
       0.84015346 -0.14337282 0.9158753 0.16658224
0003b0 8e 2b 45 bf 46 c1 a6 bc 71 1c e4 be b9 20 b7 3e
       -0.77019584 -0.020355832 -0.4455295 0.35767153
0003c0 9b f8 49 bf 73 32 7e bd bf 98 8a 3f 44 49 91 3f
       -0.78894967 -0.06205983 1.0827864 1.1350484
0003d0 02 94 8f 3e 23 24 8d bf 5b b2 f3 3d 65 12 8b be
       0.28042608 -1.1026653 0.11899253 -0.2716247
0003e0 b2 f4 9c 3e 41 5c b2 bf 4f c2 4f 3d 5c 13 9a 3f
       0.30655438 -1.3934404 0.050722416 1.2037158
0003f0 a4 9b ac 3e de e6 be be 50 e4 aa be 78 c3 62 be
       0.33712494 -0.37285513 -0.33377314 -0.22144878
