Trained Model/8-8 4-network-500notstabledata.pt (torch, 700864 bytes, 154 tensors)

conv.0.weight f4 [4]
00000000: 7207 643f 0981 8f3f abc7 833f fc9b 373f
0.8907386 1.1211253 1.0295309 0.7172239

conv.0.bias f4 [4]
00000000: 8082 cebe a312 ddbe a6b2 23be 56a3 203f
-0.4033394 -0.4317828 -0.15986118 0.6274923

conv.0.running_mean f4 [4]
00000000: 8efe 1f3d 39ea 3d3d 2116 263d a5d2 373d
0.03906112 0.04636595 0.040548448 0.04487862

conv.0.running_var f4 [4]
00000000: aebd 193d e71e 353d 5459 1f3d c294 2f3d
0.03753441 0.044218924 0.03890355 0.042866476

conv.1.weight f4 [32, 4, 1, 1]
00000000: a29a 8d3e c604 6dbf 94d1 8fbe 40c9 243f
00000010: 9853 0dbf 4ca6 07bf 7446 8ebd d4be e2bc
00000020: 890c f6be 5651 b43c 9be5 3ebd b226 833e
00000030: edcb b13d d477 05bf 00fd c0be fee3 27be
00000040: 166d a2be 00f6 c7be cc95 eabe bbaf cebd
00000050: 4ced b6be e6a9 bcbd a7dc 7bbf b9d1 073e
00000060: 5cd7 b9be 7310 373f 80ee 913e 98b6 5b3e
00000070: 25b5 23bd d464 0abd a492 9dbe 3b81 b73e
00000080: d4b6 febc 5e0a 3d3e 0075 51be 4bd2 e1be
00000090: 1560 06bf 332c a9be 157c 99bd 0a1f 7bbd
000000a0: 6bd3 c33e f6e8 a63e 923d 65be a89b 2b3f
000000b0: 7c7b 65bf aacf 24be c3bd 1f3e 0655 483e
000000c0: 0770 63bd cb25 31be 1a90 473d f90e 213f
000000d0: b668 433d 1c26 483d 12d8 c8be 4acd 663e
000000e0: d69a b63e 8a30 2ebe 653e 6c3d 23d4 443e
000000f0: 1247 44bd 07ec 8abe 24a3 6dbe c032 cd3d
00000100: ebd0 adbe 466e 593d ae08 063f 9bf7 7fbd
00000110: 0c94 ad3e 7c98 abbd a1eb 133d 9db1 70be
00000120: c713 ea3e 3766 b0be 1da0 c93e edb7 f73e
00000130: cb5e 3bbf 72b9 89be 775a 34be 091d ba3e
00000140: 0ecd ee3e 6ef4 a5be 6fc5 0d3e fb9c edbc
00000150: de5b 5dbf 7481 81be 673a 02bf 8c2c ab3e
00000160: 5a9b ac3e d9ec fd3e 1314 743e 6849 9f3d
00000170: ffb0 18bf f76e 0e3b 57f0 4fbf 5aaf 00bc
00000180: 8ae8 a8be 7dd4 60be f72a f2be c5d9 43bd
00000190: 192f 14bf 5d21 53bb 0e85 3ebf 68e5 21bc
000001a0: 0195 c13c 1eb3 eb3e fabe 173f 5668 6fbe
000001b0: ce36 34bd c414 2abe 8ebb e0be 0795 a13c
000001c0: c097 b1be 80da 97be a6a7 e1be 947b c3be
000001d0: 2d8a b4be 2c96 98be cae5 763e 4d6b 0e3e
000001e0: 4080 be3e cf24 d5bd f4aa 03bc eb96 a8bd
000001f0: cc1c 8d3c b08e 553f 84a9 48bd ee3d 253d
0.27657038 -0.9258541 -0.28089583 0.64369583 -0.5520568 -0.52988124 -0.069470316 -0.027678885
-0.4805644 0.02201144 -0.046605688 0.2561546 0.08681474 -0.5213597 -0.37693024 -0.16395566
-0.3172385 -0.3905487 -0.4581741 -0.10092112 -0.35727918 -0.09212093 -0.98383564 0.13263597
-0.3629712 0.71509475 0.28502274 0.21456373 -0.039967675 -0.033787563 -0.3077594 0.35840783
-0.031093039 0.18460986 -0.20454788 -0.44105753 -0.5249036 -0.33041534 -0.0749437 -0.061308898
0.38247237 0.3259961 -0.22386768 0.6703439 -0.8964155 -0.16094843 0.15599732 0.19563684
-0.05552676 -0.17299573 0.04872141 0.6291347 0.047707282 0.04886447 -0.3922735 0.22539249
0.35665005 -0.17010704 0.05767669 0.19221549 -0.04791934 -0.271332 -0.23206764 0.100194454
-0.33948454 0.05308368 0.52356994 -0.062491994 0.33902013 -0.083786935 0.036113385 -0.23505254
0.45718214 -0.34452984 0.3937997 0.48382512 -0.7319152 -0.26899296 -0.17612635 0.36350277
0.4664082 -0.32413048 0.13844846 -0.029005518 -0.86468303 -0.25294077 -0.50870365 0.33432424
0.33712274 0.49594763 0.23835783 0.07777673 -0.59645075 0.002173362 -0.81226104 -0.007854307
-0.32989913 -0.21956058 -0.47298405 -0.047815103 -0.57884365 -0.003221593 -0.74421775 -0.009881355
0.02363062 0.46035093 0.5927578 -0.23379645 -0.04399758 -0.16609484 -0.43893093 0.019724382
-0.3468609 -0.2965889 -0.44073218 -0.3818022 -0.3526167 -0.29802072 0.24111095 0.1390812
0.37207222 -0.10407411 -0.008036364 -0.0823191 0.017225645 0.8342085 -0.048989788 0.040342264

conv.1.bias f4 [32]
00000000: 6201 6e3f 6573 9e3e 673b d6be 3085 6bbe
00000010: 0d7a 843e 00a0 673f 175a 9f3e 9748 adbe
00000020: cb8b 11be a4ec 8e3e 0848 d3bb 9673 8b3f
00000030: 18fb b23e d467 82be 98ab 83bd 7108 343d
00000040: f698 00bd 4dda c4bd 2ca1 fe3e 7fcf e83e
00000050: 73eb ee3d 458d 7f3f 3509 263f 62fa 3b3f
00000060: e862 8abd e78e 4c3f 61e4 29bf 1990 7e3e
00000070: 0e37 fcbe c601 eabe 5179 433d f1ed 043f
0.9297086 0.30947414 -0.41842195 -0.23000026 0.25874367 0.90478516 0.3112342 -0.33844444
-0.14213483 0.27914917 -0.006447796 1.0894649 0.34957194 -0.2546984 -0.06429213 0.043953363
-0.031395875 -0.0961195 0.4973234 0.45470807 0.11666002 0.99824935 0.648578 0.7342893
-0.06757146 0.7990555 -0.66364104 0.24859656 -0.49260753 -0.45704478 0.04772312 0.5192557

dense.0.denselayer1.norm1.weight f4 [32]
00000000: de0b 7d3f 0352 603f e460 3f3f cc32 443f
00000010: 6f48 613f 7de4 3f3f dfaf 873f 283d 643f
00000020: c81c 813f 736a 5b3f 458e 493f 3257 8a3f
00000030: 6a90 653f d74f 8e3f 582d 9c3f 5de6 6a3f
00000040: 91ab 903f c9a2 7a3f ec38 833f 832e 593f
00000050: 3e05 873f d2e2 683f fa29 773f aabe 423f
00000060: 0f40 6f3f 7496 4b3f a137 9e3f 00a4 683f
00000070: 0000 803f 89eb 623f 1c2d 4f3f e439 153f
0.9884623 0.8762514 0.7475722 0.7664001 0.8800115 0.7495802 1.0600547 0.8915582
1.0086908 0.85709304 0.7873271 1.080786 0.89673483 1.1118115 1.2201338 0.91757756
1.1302358 0.9790464 1.0251746 0.84836596 1.0548475 0.909711 0.96548426 0.7607218
0.9345712 0.7952645 1.2360727 0.90875244 1.0 0.8864065 0.80928206 0.5829146

dense.0.denselayer1.norm1.bias f4 [32]
00000000: 99a4 dc3d d967 febd b4cc 82be f0f6 90be
00000010: ed8b 0fbe e4c2 72be 1ae6 4d3d f744 d2bd
00000020: d5ab 6d3b 4c22 0abe f7c1 5dbe 8cf0 123e
00000030: 8aaa dfbd 662a e23d 0250 6a3e 62da c0bd
00000040: 1b23 6b3e 6eac 2a3d e6ca 6cbd 72d9 14be
00000050: b004 bc3d 3c8a 83bd ab83 71bd ae8b 36be
00000060: 1542 5ebd e2ad 70be 23cc 2e3e b04d cebd
00000070: 0000 0000 0b60 6b3d 7f3d 24be 9fab cfbe
0.10773582 -0.12422151 -0.255468 -0.28313398 -0.14018221 -0.23707157 0.05026827 -0.1026706
0.003626575 -0.13489646 -0.21656023 0.14349574 -0.109211996 0.11043243 0.22882083 -0.09416653
0.2296261 0.041668348 -0.057810687 -0.14536074 0.091805816 -0.064228505 -0.05896346 -0.17826721
-0.05426224 -0.23503831 0.1707006 -0.100734115 0.0 0.05746464 -0.16039084 -0.40560624

dense.0.denselayer1.norm1.running_mean f4 [32]
00000000: fcdc db3f 691f 6b3f d535 353d bb87 083e
00000010: df72 423f eee1 c43f 4411 743e fbdf 403d
00000020: 0400 0000 80fb 3c3f d036 4e3e c9c4 d63f
00000030: 59a0 553f f275 343d 45ce 923d 34b5 b93e
00000040: ba31 3b3d 4686 5b3d 7511 343f 82b5 9e3f
00000050: d72c e73d a5e7 f63f 85e5 9d3e 903a a93f
00000060: f8b9 c93e 2ef0 ac3f 7cf5 bf3d 96a3 033f
00000070: 0000 0000 0400 0000 5550 733d 2f4a 583e
1.7176814 0.91844803 0.04424079 0.13333027 0.7595653 1.5381448 0.23834711 0.047088604
6e-45 0.7382126 0.20138097 1.6778804 0.83447796 0.044057794 0.07168249 0.3627106
0.04570172 0.05359485 0.7033914 1.2399142 0.112878494 1.9289442 0.30839172 1.3220997
0.39399695 1.3510797 0.09372994 0.5142149 0.0 6e-45 0.059402782 0.21122049

dense.0.denselayer1.norm1.running_var f4 [32]
00000000: c154 143e b087 a13d 4fce 2a3d 1c97 db3a
00000010: 590c 5d3d 4d15 cd3d f88c 6a3f 727d 413d
00000020: 0400 0000 c9b6 503d 2f19 313f 6968 ed3d
00000030: 2c20 8a3d 6a65 293d 0cad 013e 2290 493c
00000040: 6141 5f3d d814 913d 2304 273f 4e15 883d
00000050: 4530 9e3e 2af9 223e 43e2 253f 9b7f 973d
00000060: 682e 6e3c 6d67 9e3d 4ee0 213e fd8b ca3c
00000070: 0400 0000 0400 0000 7120 b23d 6d2f 6b3f
0.14485456 0.078872085 0.041700657 0.0016753408 0.053966854 0.100138284 0.9162135 0.047238775
6e-45 0.050955568 0.6917905 0.1159218 0.067444175 0.04135648 0.12663668 0.01230243
0.05450571 0.07084054 0.6524069 0.066446885 0.30896202 0.15915361 0.64798373 0.07397386
0.014537431 0.07734571 0.15808222 0.024724955 6e-45 6e-45 0.08697594 0.9186924

dense.0.denselayer1.conv1.weight f4 [48, 32, 1, 1]
00000000: 8c03 8bbe 5999 573c 3a96 983c 4fdd c4bc
00000010: cc38 52bd dc31 5d3c 7325 19bd 6036 dabd
00000020: 518f aabc 0ea2 03be 05dd 06bd e8e5 eb3d
00000030: 3ffe 5c3d bde0 0e3e b203 b1be b2f2 1e3d
00000040: e942 dcbe 30b1 f1bd 8967 92be 06be dbbd
00000050: e5ba 48be 7e52 b93d cc49 fcbd a355 ed3d
00000060: c0b7 3f3e 7af0 e73d a4b7 45be 874c 283e
00000070: 9d9f 16bd 46c1 f83d e127 cfbe 05d0 e63b
00000080: fa27 ad3b 4755 45be 5774 5b3e 1a7c 9a3d
00000090: c845 ebbe 98c7 29bd 2b11 be3e 5777 873e
000000a0: fddd c0bd 42f9 5fbe 1a83 f03e a274 e93d
000000b0: 6a8f 903e 44eb a63e 4962 463e 3792 87be
000000c0: 62ab bf3d ff47 293e d8b3 503d 0b9a 4f3d
000000d0: 94cf c1bd f390 a6be da0b 853e a7cf eabd
000000e0: 5951 a5be 9ea1 88bc 9908 263e d1a7 59be
000000f0: caee 163c da40 62be 3a0f fbbb cdd2 e13d
00000100: 0c68 fa3d e72d 66be 2a4a a33d 6fb3 cbbd
00000110: 62ff 9f3d 7c6e 16be 03bb fcbd 2c29 96bd
00000120: daba 0b3d 9842 573b 4314 193e 24d1 583d
00000130: 5a17 16bd d20c 10bd d358 003f b85c 6c3c
00000140: 34d9 283d 5305 a53e a9c7 273f 1131 1c3d
00000150: 511a 143f 5be2 c23d 0f5f 3d3e 9af7 713d
00000160: 3479 96bc 4359 e23d 6fe6 143e 4c81 6bbe
00000170: 9c62 bb3c a7b2 6abe 7c05 863e 74a6 d1bd
00000180: 1884 d73d 0ad7 aebe f463 92bd 3c5d f1bd
00000190: d367 4fbe 5db0 67be e8e7 1bbd 80ff c53d
000001a0: 8292 55be 9f03 a5be 86ec 12be d03c eb3d
000001b0: 97da 4dbe 10d9 0ebe 1c90 9a3e 3ab6 02bf
000001c0: 6634 4e3e 1636 533e 9fc4 4f3e 7e45 94bd
000001d0: 546c d03d 3bb6 9abd 1b1e c63e 1f54 aebd
000001e0: c729 a0be ceec 0bbc 2f5c ae3e 3cfc 04bf
000001f0: ed22 acbd f4fc 70bd cc07 973e 25d4 8e3c
00000200: 6de6 fdbc 0c67 06be af44 e83e 6c4f 053d
00000210: cdb8 57be e96f aabd 59f4 8b3e dece 033f
00000220: 532e 273e 0e3b 733d 93f7 cf3e f2f1 0f3e
00000230: aaf2 b93e 312a f43e 736d 023e 91e0 fabd
00000240: 4566 86be 3129 c2bd 6ad5 7a3d 4f93 8b3e
00000250: 6e55 cabd 00de 0b3c df2e e13d 910b 113d
00000260: df4e ff3d b249 44bd c2b7 563c 2925 9bbc
00000270: 4c7b e43c 48ba 45bc 99d0 90bd 85da 913e
00000280: 0ca7 3f3d cf5e 4d3d 486a ab3e fa96 873d
00000290: fa8f c03d ff5a fc3d 1bbe 213e 0567 1e3f
000002a0: 048b 4ebd c608 9ebc 17fe 9c3e 2487 9a3e
000002b0: 4ea7 923e 3b58 0f3f 72dc adbd b345 56be
000002c0: 15c4 40be 0f1c 2a3e bf17 14bd b7e1 2a3e
000002d0: ce0c 9cbc 3747 1b3e 0cc5 afbd 5a1d 5c3d
000002e0: 8039 46be aadc 3f3e 58d9 e4bc 645f bfbd
000002f0: d05e 0bbe 028a 2e3d 7c0c 283d a052 4c3e
00000300: 881e 49bd 7d77 81be fcec b2bc 258c 07bd
00000310: 320b 1abd 6bbc 7cbd 3a2e 033f ceea 8c3d
00000320: dd00 38be 5b30 4abe 9a77 8cbd 6aba c43e
00000330: 37d8 e53d 6131 413e a425 2ebe 639b 393d
00000340: 850a 2a3e 1223 50bd eb92 e0bd 4d0d 7cbd
00000350: b665 72be c3f2 47bd e5f1 6f3e 7264 d93d
00000360: 3dd3 67be c2c1 95bc bfe1 593e 57ed a8bc
00000370: 4a43 05be 4b89 2b3d d375 3ebb 471e f43d
00000380: 53a7 1abd 499a 9e3d 56d3 ee3e 3a8e ce3d
00000390: 771e 183e 5d00 233b 52f6 7b3e 3a17 c53e
000003a0: e8d2 f7bd 3f75 203e 2cd5 cf3e 5d37 b23d
000003b0: 99e0 b93e 613d e93e 8595 4f3d 3e6e da3d
000003c0: 6c4e 0ebe c46f 87bc 420c f5bd 2da1 043e
000003d0: 6513 383d e106 bd3d 459e 66be ee4e 3e3e
000003e0: e244 1d3e ca51 0f3e 185f 32bd a1e0 8e3d
000003f0: 317d 9ebd b9ed 503d d0c7 ea3d fd00 1c3f
-0.27151144 0.0131591195 0.018626321 -0.02403131 -0.051323697 0.013500657 -0.03738923 -0.106549025
-0.020820292 -0.12854788 -0.032925624 0.115184605 0.053953405 0.13952918 -0.34573132 0.03880567
-0.43019798 -0.11801374 -0.28594616 -0.107296035 -0.19602545 0.09048937 -0.12318763 0.115885995
0.18722439 0.11325164 -0.19308335 0.16435443 -0.036773313 0.12146239 -0.40460113 0.007043841
0.0052843066 -0.19270812 0.21431099 0.07543202 -0.45951676 -0.041450113 0.37122473 0.26458237
-0.09417341 -0.21872428 0.46975023 0.11399199 0.28234416 0.32601368 0.1937343 -0.2647874
0.093588606 0.1653137 0.050952762 0.050684016 -0.094634205 -0.32532462 0.25985605 -0.11465388
-0.32288626 -0.016678628 0.16214217 -0.21255423 0.009212205 -0.22095051 -0.0076617273 0.11026535
0.122268766 -0.22478448 0.0797313 -0.099463336 0.07812382 -0.14690584 -0.12340357 -0.07332072
0.034113742 0.003284609 0.14949135 0.052933827 -0.036643364 -0.035168476 0.50135535 0.014426403
0.041222766 0.32230625 0.6553903 0.03813273 0.57852656 0.0951583 0.18493293 0.059074022
-0.018368341 0.110521816 0.14541028 -0.22998542 0.022874169 -0.22919713 0.2617606 -0.102368265
0.10523242 -0.34148437 -0.07147971 -0.11785361 -0.2025445 -0.22625871 -0.03806296 0.096678734
-0.2085667 -0.32229325 -0.14348039 0.114862084 -0.20102917 -0.1394999 0.30188072 -0.51059306
0.20137176 0.20626101 0.20289849 -0.07239817 0.10176912 -0.07554289 0.38694844 -0.085121386
-0.31281874 -0.008540345 0.34054706 -0.5194738 -0.08405099 -0.058834985 0.29498136 0.017435143
-0.030993665 -0.13125247 0.453649 0.032546446 -0.2106659 -0.083221264 0.2733486 0.5148753
0.16326265 0.05938249 0.40618572 0.14057139 0.3631795 0.4768844 0.12737064 -0.12249864
-0.262499 -0.09480513 0.061238684 0.27260825 -0.09879576 0.008536816 0.10995268 0.03541142
0.12466215 -0.047921844 0.013105335 -0.018938618 0.027890824 -0.012068339 -0.07071037 0.2848703
0.046790168 0.050139245 0.33479524 0.06620593 0.09402461 0.12322044 0.15795176 0.61875945
-0.050425544 -0.019291293 0.30662605 0.3018123 0.28643268 0.55994004 -0.08489312 -0.20925026
-0.188248 0.16612266 -0.03615546 0.16687666 -0.019049075 0.15163885 -0.085825056 0.05373893
-0.19357872 0.1873652 -0.027935669 -0.09344366 -0.13610387 0.042612083 0.04102753 0.19953394
-0.049101382 -0.25286475 -0.021841519 -0.033092637 -0.037608333 -0.061703127 0.5124241 0.06880723
-0.1796908 -0.19745009 -0.0685875 0.38423473 0.1122288 0.18866493 -0.17006546 0.045314204
0.16605575 -0.050814696 -0.109655224 -0.061536122 -0.23671612 -0.0488155 0.23432119 0.106148615
-0.22639175 -0.018280867 0.21277522 -0.020620985 -0.1301395 0.04187898 -0.0029061928 0.119198374
-0.03775723 0.07744271 0.46645612 0.10085721 0.14855371 0.0024872043 0.24605682 0.38494283
-0.12100774 0.15669726 0.40592325 0.08701966 0.36304167 0.4555464 0.050679702 0.10665558
-0.13897103 -0.016532786 -0.119652286 0.12952109 0.04494037 0.09229828 -0.22521313 0.18584797
0.15358308 0.13996044 -0.04354772 0.06976438 -0.07738722 0.05100796 0.114638925 0.6093901

dense.0.denselayer1.norm2.weight f4 [48]
00000000: 4b4b 263f b36c 053f f51c d03e 6ebc 833f
00000010: f4fb 8b3f c64c 873f 931d 923f 7567 823f
00000020: 23b4 753f 1764 793f d4d1 7d3f 194c 7e3f
00000030: 7c48 6c3f 888b b13f aefe 703f 32d8 403f
00000040: 51e1 8f3f af2d 413f cd50 833f 68eb 3a3f
00000050: 0efc 6f3f 7f93 a33f c885 5a3f 3213 ad3f
00000060: bd02 5c3f fef9 173f ab64 373f 900d 733f
00000070: a5c2 5a3f a67d 723f 15a4 883f f513 813f
00000080: 284a 783f a47d 963f 583e 993f f385 653f
00000090: dc57 423f c31a 573f 0402 533f 2b35 3c3f
000000a0: ac2a 303f 7439 343f a3f2 953f 764b 343f
000000b0: a20e 753f 7b9b 8e3f 03a3 8a3f f730 843f
0.6495864 0.52118987 0.40647092 1.0291879 1.0936265 1.0570304 1.1415275 1.0187823
0.9597799 0.9741835 0.991483 0.99334866 0.922981 1.3870707 0.9413861 0.7532989
1.1240636 0.7546033 1.0259033 0.7301545 0.9374398 1.2779387 0.85360384 1.3521483
0.8594168 0.5936583 0.7163798 0.9494257 0.85453254 0.94722974 1.0675074 1.0084215
0.96988153 1.1757092 1.1972151 0.89657515 0.7591531 0.8402521 0.8242495 0.7351863
0.6881511 0.70400167 1.1714672 0.70427644 0.9572545 1.1141199 1.0830997 1.0327443

dense.0.denselayer1.norm2.bias f4 [48]
00000000: e28f 51be 2916 a1be 2811 dcbe b183 333d
00000010: 4863 243d bbab 1e3c 0a85 853d 22d0 0ebd
00000020: 4e8a 32bd f57e ccbc 2ea4 dcbc f71f b7bc
00000030: 2e38 26be ece4 643e 89c5 aebc 7473 62be
00000040: d962 8e3d fdef 51be 880c 0bbd 97af 69be
00000050: c2e2 c7bc 69e3 513e 1d5e 06be 383e 6f3e
00000060: abfd d1bd f1e8 a7be fb8e 6dbe 5b1b bcbd
00000070: 9bf9 4dbe 63a3 90bd ed05 8f3d a090 f4ba
00000080: 9568 babc 4c2e 083e 63e6 ae3d 8145 98bc
00000090: 50d1 72be cc7b febd 8b7c 1fbe 0dfd 6cbe
000000a0: 17f5 3ebe da8a 66be 23df 953d 7188 7fbe
000000b0: 5391 27bd f978 4c3d ce47 323b 4f69 823b
-0.20465043 -0.3146222 -0.4298184 0.043826763 0.040133744 0.009684498 0.06519516 -0.03486646
-0.04358893 -0.024962882 -0.026933756 -0.02235411 -0.16232368 0.22352952 -0.021334426 -0.22114354
0.069524474 -0.20501705 -0.033947498 -0.22820888 -0.024400119 0.20496906 -0.13121839 0.23363578
-0.102534615 -0.32794908 -0.23199074 -0.09184905 -0.20114748 -0.070624135 0.06983552 -0.0018658824
-0.022754947 0.13298911 0.085400365 -0.01858783 -0.23712659 -0.12425956 -0.15574853 -0.23143406
-0.18648182 -0.22513905 0.073179506 -0.24954392 -0.040910076 0.049920056 0.0027203443 0.003979839

dense.0.denselayer1.norm2.running_mean f4 [48]
00000000: 6092 d4be f912 a03e 0821 0a3f c9ac a73d
00000010: c8f4 f23e 5562 e83e 8c18 743e 3f16 0c3f
00000020: 188b c7be 5a33 993d 5e97 aa3d 5caf 5b3c
00000030: 9630 a73d 1b48 1b3f fc33 b03e 827d c7be
00000040: 9655 2b3e bde2 37bf 01f2 063f d330 0dbf
00000050: 3983 b9be a8b8 213f 92fb 4cbd 30f6 173f
00000060: 8888 43bf bfad 9f3e f323 d8be 6d85 da3e
00000070: 3b1f 1fbd 863e 1bbe 2c55 083f bb33 42be
00000080: 7e5b ff3e b06f fa3e efc4 ae3e 6f06 0b3e
00000090: 1677 88be 921b eebe 30a3 5e3e ab05 febe
000000a0: 4838 91be 9ab6 c1be 1ef0 133f a7bd a1be
000000b0: 493f 19be 58b7 373f c4fb 443e ea16 7d3e
-0.41517925 0.31264475 0.5395665 0.08187253 0.47452378 0.4538752 0.23837489 0.54721445
-0.38973308 0.07480498 0.08329652 0.013408508 0.08163564 0.606569 0.3441466 -0.38962942
0.16731867 -0.7183035 0.5271302 -0.55152625 -0.36232927 0.6317239 -0.050044604 0.5936003
-0.76380205 0.31187245 -0.42214927 0.4267992 -0.038848143 -0.1516057 0.5325496 -0.18965046
0.4987449 0.48913336 0.34134623 0.13576673 -0.26653355 -0.4650541 0.21741939 -0.496137
-0.28363252 -0.37834626 0.57788265 -0.31590006 -0.14965548 0.71764135 0.19236666 0.24715772

dense.0.denselayer1.norm2.running_var f4 [48]
00000000: 1866 8740 9b4a 8e40 dc81 e140 889a 7940
00000010: 22a3 ab40 f1d1 7c40 165f 9e3f eef3 8940
00000020: b097 8340 7c13 4240 5814 3840 b5d1 5740
00000030: f75e 293f f198 0641 7b38 4840 ca2b c43f
00000040: b768 1d40 6c05 d840 6ae0 d140 c9e6 8140
00000050: dc31 c140 fecd dc40 1254 1e40 0240 1841
00000060: 1b15 3d41 5e13 4040 4938 3840 db39 8640
00000070: c14e cc3f 4224 5940 7e3c 9740 1ca3 8f40
00000080: e54f c740 8b55 be40 3cca 6040 355b 5f40
00000090: bb4f 0b40 2c7c 8740 aa42 1a40 8060 8140
000000a0: d0c1 743f 3c0a 1040 005a 9440 7adc 1140
000000b0: 7734 6840 b149 df40 ff69 3140 dec0 2e40
4.2312126 4.446607 7.047102 3.9000568 5.3636637 3.9503138 1.2372768 4.3110266
4.1122665 3.0324392 2.8762417 3.3721745 0.6616053 8.412339 3.1284473 1.5325863
2.4595163 6.750662 6.5586443 4.059422 6.0373363 6.9001455 2.4738812 9.515627
11.817653 3.001182 2.8784354 4.1945624 1.5961534 3.392838 4.7261343 4.488661
6.2285028 5.9479423 3.5123434 3.4899418 2.1767414 4.2339077 2.4103189 4.04303
0.95608234 2.2506247 4.6359863 2.2790818 3.6282022 6.9777455 2.7720945 2.7305217

dense.0.denselayer1.conv2.weight f4 [12, 48, 3, 3]
00000000: 47a8 a9be 08f4 783b ef85 3fbe 33bc 053e
00000010: 7dfa 88bc d363 323d 67ab 85bd 8a9d ac3d
00000020: eee3 78be 0c36 8cbe f1c7 f93b 07d8 34be
00000030: 808f bd3d 1c91 f7bc 3a13 8e3d 5108 4ebd
00000040: d943 bcbb a97f 1fbe b90e fb3d 26f5 a8bd
00000050: 917d 93bc fded 66bd 39c7 893c ddf7 ddbb
00000060: a758 ea3d de64 7cbe 6388 2e3e 76c5 193e
00000070: fdb0 f1bd b5a4 783d 1e60 29be 47e1 b73c
00000080: 90fc ac3c 3fd0 683e 3ee1 97be 0cf3 763e
00000090: 316b 08bf a9a2 0cbc d33e 98be e1cd 2f3e
000000a0: e935 0bbd 556e f63d aad6 8ebe f0bc e73d
000000b0: d0ff 00bf 3c31 0ebf 0fb9 583d c913 a9be
000000c0: 6cf7 e83d d8c6 943c 7c9c c73d fbba 82be
000000d0: aa9b bf3d 5b21 e3be 6f2d 0fbf f34d 1a3d
000000e0: 34cf aabe d9d0 d63d 945b 35bd 857a 053e
000000f0: dee3 4ebd 80a5 923d 1206 64be c638 06bf
00000100: 46aa e73c edee 8fbe 71d3 db3d d075 f43b
00000110: 8ee0 1e3e ffa8 35be 94d4 dc3d 7051 c4be
00000120: 5f99 d83c 5b5e 70bd f911 813d 3791 85be
00000130: 3b5a aebe a5a6 52be 58a0 1fbe 739e 46be
00000140: ae3a 3dbd 5088 b8bb d457 acbd 7183 d93d
00000150: b593 a0be d517 bfbe 0664 40be 1e9f 4fbe
00000160: 58c6 41be f278 b8bd 3119 dcbc b206 f6bd
00000170: 20f6 b13d dbfc 8dbe 201d cfbe f96d 84be
00000180: f516 26be 382f 38be bf92 8dbd fe81 fd3b
00000190: 3954 70bd 6750 df3c 9268 7abe fd3c bfbe
000001a0: d822 81be 3879 3dbe 8bef 4bbe d717 4abd
000001b0: c1c3 0abf d750 dd3d c28e 4fbe 1933 ad3d
000001c0: 0fb9 7fbd e9b1 a03c c217 533d 7462 033d
000001d0: 79fd 36be 4359 603e 9d42 16be bf3f c73d
000001e0: 30f8 09be b416 803b 8ed6 a33b 002c 1d3e
000001f0: faf8 a5be 43af 6a3e f871 303e 5d26 eabd
00000200: 73c0 cb3d 1c02 8ebd c72e 89bb 6adb 36bd
00000210: b318 e33d 8e61 9cbe bf5f 673e 5caf 1cbc
00000220: 17a3 cbbd f947 6dbc 7c3f 9dbd 3999 a1bd
00000230: 5c33 82bb da21 87bb dd85 4abc b04f 59bc
00000240: 9522 383e 9da5 c9bd 55af 8d3d 973e febd
00000250: 84ac 993c 1f0c a9bd 2064 5d3e 75f6 8abe
00000260: 59ca a33e 1b5d 34bb 95e4 b6bc eb45 ae3d
00000270: 3c98 55bd b257 bbbd 030c 423d f954 3b3c
00000280: ff57 2abc 1dae 213c f7a5 05bf 8511 683c
00000290: e3ab a5be 5d16 273e cd96 91bb c31f 963d
000002a0: 191c 5fbe d7df 433d 3739 e6be 936f 9ebc
000002b0: cc46 713d 7130 9abd 02b0 4abd a4d3 0e3c
000002c0: 6d95 95bd 933d 843d cfc5 153d 0a55 3bbb
000002d0: d03d 8a3c e092 9abd b8f1 e13c 64e2 7ebe
000002e0: da60 d0be f96b 6ebe 6914 33be 9832 19be
000002f0: 2f07 1bbd f4b1 3b3e 3bfc d6bd 22d2 b83d
00000300: 018d fcbd ecd8 98bc 0567 9b3c a345 233e
00000310: 5bf6 8fbe a61f 973e 6a7b 183e a5d1 dfbd
00000320: 8d65 b23c 0c63 cabd 0f0e 88b9 2976 6bbc
00000330: 45eb 483e 1260 97be 82b9 a03e ca0c 563e
00000340: 1118 c5bd c549 903d 853f 04be 03d2 2b3b
00000350: a9bb f8bc 0e8a 083e d04a 83be ff0a 873e
00000360: 19c4 313d 8190 ddbd fad4 d23d eff1 2ebe
00000370: 5e0a adbe 0bdc 30be 569d 36be e8bf d8bd
00000380: 3c40 98bd f544 bebe d44d ec3c fd0b 31be
00000390: c042 883d 6cfc d13c 5892 043e c12f 2bbe
000003a0: 59b4 113d f263 a3be 50ee 293c 53de 753d
000003b0: 2ce2 0f3e fc88 4ebd 81e4 8bbc 06c1 963d
000003c0: 8d85 b83d 389a d93d b607 943d 7186 ffbe
000003d0: cd26 f53c e6fd 90be 721f 1e3e 0ab7 c93c
000003e0: b020 c03d 93d3 65be bc23 4a3d 96fb e7be
000003f0: 9398 27bd 0551 1dbd eaa0 ad3d a183 51be
-0.33136198 0.003798725 -0.18703435 0.13060074 -0.016721005 0.04355223 -0.06526833 0.08428486
-0.24305698 -0.27384984 0.007622712 -0.17660533 0.09255886 -0.03022056 0.06937261 -0.0503009
-0.0057453928 -0.15576042 0.122586675 -0.08249883 -0.01800421 -0.056379307 0.01681863 -0.0067739324
0.1144269 -0.24647853 0.17044215 0.15016732 -0.11801336 0.060703952 -0.16540572 0.022446288
0.021116525 0.2273569 -0.29664034 0.24116153 -0.5328856 -0.008583703 -0.2973543 0.1716838
-0.03398696 0.12032763 -0.2789815 0.11315334 -0.5039034 -0.55543876 0.05291086 -0.33022907
0.11375317 0.018161222 0.09746644 -0.2553328 0.093558624 -0.44361386 -0.559287 0.037671994
-0.33361208 0.10489053 -0.04427679 0.13035019 -0.05051028 0.07160473 -0.2226794 -0.5243038
0.028279435 -0.28111973 0.107336886 0.0074603334 0.15515348 -0.17740248 0.107827336 -0.38343382
0.02644032 -0.058683734 0.06302256 -0.26087353 -0.34053215 -0.20571382 -0.1558851 -0.19396381
-0.04619854 -0.005631484 -0.084151894 0.106207736 -0.31362692 -0.3732287 -0.18788156 -0.20275542
-0.18923318 -0.090074435 -0.026867481 -0.12012996 0.08689523 -0.27731976 -0.40451908 -0.25865152
-0.16219695 -0.17986763 -0.06912755 0.0077364435 -0.05867407 0.027260019 -0.24453953 -0.37351218
-0.25221896 -0.18503273 -0.19915597 -0.04933914 -0.54204947 0.108064346 -0.20269302 0.08457012
-0.062432345 0.019616084 0.05153633 0.032076314 -0.1787013 0.2190905 -0.14673848 0.097289555
-0.13473582 0.0039089564 0.004999942 0.15348816 -0.32416517 0.2291842 0.17230976 -0.114330985
0.09948816 -0.06933996 -0.0041864845 -0.044642843 0.110886954 -0.30543178 0.22595118 -0.009563293
-0.09943216 -0.014482492 -0.07678124 -0.07890553 -0.0039734077 -0.0041239085 -0.012361017 -0.013263628
0.17981942 -0.09846041 0.069182076 -0.12414282 0.01875902 -0.08254265 0.21620226 -0.27141157
0.31990317 -0.0027521315 -0.022325793 0.085094295 -0.052147135 -0.09147586 0.047374737 0.011433833
-0.0103969565 0.009868172 -0.5220637 0.014164333 -0.32357702 0.16317125 -0.0044430257 0.07330277
-0.21788062 0.047820892 -0.44965526 -0.019340312 0.058905408 -0.07528771 -0.04948426 0.008717451
-0.07303891 0.06457057 0.036565598 -0.0028584623 0.016875178 -0.075475454 0.02758108 -0.24891049
-0.40698892 -0.23283376 -0.17488255 -0.14960706 -0.037848648 0.18329602 -0.10497328 0.09024455
-0.12331582 -0.018658124 0.018970022 0.15944533 -0.28117642 0.29516333 0.14890829 -0.109286584
0.021776939 -0.09882173 -0.00025950416 -0.014371433 0.19620998 -0.29565483 0.3139153 0.20903316
-0.09623731 0.070453204 -0.12914856 0.0026217706 -0.03036292 0.13333914 -0.25643015 0.26375577
0.043399904 -0.108185776 0.10294528 -0.17084478 -0.33796972 -0.1727144 -0.17833456 -0.10583478
-0.07434127 -0.37161985 0.028845705 -0.1728973 0.066533566 0.02563306 0.1294645 -0.16717435
0.035572384 -0.3191219 0.0103717595 0.060026478 0.14051121 -0.050423607 -0.017076733 0.07361035
0.09009848 0.10625118 0.07228033 -0.49907258 0.029925728 -0.2831871 0.15441683 0.024623413
0.09381235 -0.2244399 0.049350485 -0.45309132 -0.04091699 -0.038407344 0.084779575 -0.20460369

dense.0.denselayer2.norm1.weight f4 [44]
00000000: e415 443f 429a 6c3f 9b8e 173f 595c 393f
00000010: 6df8 783f d095 403f a997 223f ae81 f93e
00000020: e88b 7b3f ac63 6f3f 781f 0b3f c12d 343f
00000030: 0877 163f 3433 0e3f e695 2f3f 66b6 703f
00000040: 9fbc 4d3f 5bde 233f 81c7 1c3f 2179 393f
00000050: a83a 3b3f 0b4b 533f 82d3 c03e bd80 4b3f
00000060: 1e78 6c3f e7a0 493f 11df 1f3f b1ae 7c3f
00000070: 0000 803f 063f 6b3f efd5 5d3f 9112 fa3e
00000080: 06e3 983f 170a bf3f 52d1 be3f 1687 953f
00000090: ed7d 903f 2a34 a93f b5ca be3f c6ac d23f
000000a0: 78a3 b03f a7b5 913f 9f82 a83f 76c3 d83f
0.765959 0.9242288 0.59201974 0.72406536 0.9725407 0.75228596 0.63512665 0.4873175
0.98260355 0.9351146 0.5434489 0.70382315 0.5877538 0.5554688 0.685881 0.9402832
0.8036594 0.6401116 0.6124192 0.72450453 0.7313638 0.8253638 0.37661368 0.79493314
0.92370784 0.7876114 0.6244975 0.9870406 1.0 0.9189304 0.8665456 0.4884229
1.1944282 1.4924954 1.490763 1.168185 1.128843 1.3219044 1.4905611 1.6458976
1.3799887 1.1383561 1.3164862 1.693465

dense.0.denselayer2.norm1.bias f4 [44]
00000000: 75ea 71be 6c65 37be 6242 b4be f855 90be
00000010: 36c6 19be c59f 82be 753b a8be 60b6 f9be
00000020: 5b9a 8fbc c319 36be 1d78 d0be 5984 77be
00000030: 3a67 b5be 0459 cdbe c2d4 5cbe 14d5 32be
00000040: 4e01 29be da97 93be b5c7 8dbe 0763 5ebe
00000050: 3682 1ebe 88e3 61be b7c7 0cbf 30bb 6abe
00000060: c50c 30be 095a 40be 490f e2be 8b57 0fbe
00000070: 0000 0000 9648 adbd 19d1 44bd eea0 f5be
00000080: 5705 23be 6a13 223f 9520 80be d79c 03be
00000090: 91b7 95be 9afa 0e3f 6f1e 0c3f 87af ae3e
000000a0: 3079 6d3e 65e3 be3e 20d4 193f f2f7 933e
-0.23624595 -0.17909783 -0.35206896 -0.2819059 -0.15017018 -0.2551252 -0.32857862 -0.48771954
-0.017529657 -0.17783265 -0.4071664 -0.2417158 -0.35430318 -0.40106976 -0.21565536 -0.17464095
-0.16504404 -0.2882679 -0.27691427 -0.21717463 -0.15479359 -0.22059453 -0.5499224 -0.22922969
-0.17192371 -0.18784346 -0.44152287 -0.13998239 0.0 -0.0846111 -0.048050974 -0.47974342
-0.15920006 0.63310874 -0.25024858 -0.12852798 -0.29241613 0.5585114 0.5473394 0.34118292
0.2319076 0.37282863 0.600893 0.28900105

dense.0.denselayer2.norm1.running_mean f4 [44]
00000000: fcdc db3f 691f 6b3f d535 353d bb87 083e
00000010: df72 423f eee1 c43f 4411 743e fbdf 403d
00000020: 0400 0000 80fb 3c3f d036 4e3e c9c4 d63f
00000030: 59a0 553f f275 343d 45ce 923d 34b5 b93e
00000040: ba31 3b3d 4686 5b3d 7511 343f 82b5 9e3f
00000050: d72c e73d a5e7 f63f 85e5 9d3e 903a a93f
00000060: f8b9 c93e 2ef0 ac3f 7cf5 bf3d 96a3 033f
00000070: 0000 0000 0400 0000 5550 733d 2f4a 583e
00000080: c245 89c0 faf6 3dc0 3613 93c0 7778 84c0
00000090: 8736 afc0 5e68 96c0 3373 76c0 1076 72c0
000000a0: 2727 81c0 a7fa edbf 8c63 2ec0 49c8 7bc0
1.7176814 0.91844803 0.04424079 0.13333027 0.7595653 1.5381448 0.23834711 0.047088604
6e-45 0.7382126 0.20138097 1.6778804 0.83447796 0.044057794 0.07168249 0.3627106
0.04570172 0.05359485 0.7033914 1.2399142 0.112878494 1.9289442 0.30839172 1.3220997
0.39399695 1.3510797 0.09372994 0.5142149 0.0 6e-45 0.059402782 0.21122049
-4.2897654 -2.9681993 -4.596095 -4.139705 -5.475406 -4.70024 -3.8507812 -3.788456
-4.0360293 -1.8592118 -2.7248259 -3.9340994

dense.0.denselayer2.norm1.running_var f4 [44]
00000000: c154 143e b087 a13d 4fce 2a3d 1c97 db3a
00000010: 590c 5d3d 4d15 cd3d f88c 6a3f 727d 413d
00000020: 0400 0000 c9b6 503d 2f19 313f 6968 ed3d
00000030: 2c20 8a3d 6a65 293d 0cad 013e 2290 493c
00000040: 6141 5f3d d814 913d 2304 273f 4e15 883d
00000050: 4530 9e3e 2af9 223e 43e2 253f 9b7f 973d
00000060: 682e 6e3c 6d67 9e3d 4ee0 213e fd8b ca3c
00000070: 0400 0000 0400 0000 7120 b23d 6d2f 6b3f
00000080: 6395 2b43 d6f7 2f43 5a00 6e43 a72a ef42
00000090: fa10 f042 dc52 9243 3064 5e43 fe91 5a43
000000a0: 0022 4a43 9acf 1943 80c3 2e43 14c4 8143
0.14485456 0.078872085 0.041700657 0.0016753408 0.053966854 0.100138284 0.9162135 0.047238775
6e-45 0.050955568 0.6917905 0.1159218 0.067444175 0.04135648 0.12663668 0.01230243
0.05450571 0.07084054 0.6524069 0.066446885 0.30896202 0.15915361 0.64798373 0.07397386
0.014537431 0.07734571 0.15808222 0.024724955 6e-45 6e-45 0.08697594 0.9186924
171.58354 175.96811 238.00137 119.583305 120.03316 292.64734 222.39136 218.57028
202.13281 153.81094 174.76367 259.53186

dense.0.denselayer2.conv1.weight f4 [48, 44, 1, 1]
00000000: 5415 ca3d 12e7 a53e 3f73 0cbd d15f 223e
00000010: e2ca 8f3e 6471 253e 8cff 25be ba91 f5bd
00000020: 3206 143e d2ab 9b3e df1b 3ebd 1c50 36bc
00000030: e83e 82bc 7ec1 dabd f29f 49be 28f7 953e
00000040: 705b 08be 6d28 62bc 0b02 853d c844 a83d
00000050: adc0 0abe 6df0 803d e7e3 32be f6d1 dabd
00000060: 3ceb 813e bb54 283e 05e6 e0bd ca5c 4e3e
00000070: 5d79 37bc 4342 0a3e 6593 0d3d ecdd b7bd
00000080: 719d 6cbd e5f6 c4be b33b 8c3e eef5 83be
00000090: 696c 403e 9a5f febe 5638 01bf a1fd d5be
000000a0: 5c55 c03d 5def 9fbd 09d4 b43d 8be1 8ebb
000000b0: eb36 7c3c efb6 56be dcb6 173e f1df 6ebe
000000c0: 6b7b 01be 8d3e 6b3d fb57 373e 0dd5 153d
000000d0: bd82 f53d 582a a4be f454 023a c591 683e
000000e0: 327f a03b 4827 ad3d e331 cdbd a4fc 55be
000000f0: a575 9f3e 5449 b33d bda5 c2bd eaf9 fa39
00000100: dc96 8c3b 7dad 76bc 9440 903d 656f 433d
00000110: e320 0bbe 5e7b 89bc 2377 843e d3af 0ebe
00000120: f64d 0e3e f145 f5bc 9305 c23d 0f45 2d3e
00000130: 0acd 893c c2b9 63bd eac5 b9be 437c b93e
00000140: 8cda 443e 397a d13e 71b4 3e3c 241b 26bc
00000150: 1ff2 413c 2884 cc3e 55c1 503e 3d31 ef3e
00000160: 2245 86bd 00f2 073e 335e fdbd 1a58 c1bd
00000170: 1b46 3e3e a8f9 973d 2c63 5e3d cba6 16bd
00000180: 6d92 cf3d 011e 683e 3078 71bd fb42 073e
00000190: c9b8 6fbd 0703 0ebe d3cc 13bd 2fb0 333e
000001a0: 564f 1fbe f87c 66be 96f6 313d ea2d 203e
000001b0: db39 36be e084 443d 9f0a c1bd 8131 17be
000001c0: aff1 883e ee3a 6e3d c4c6 843b 2dc9 553e
000001d0: 51c4 82bc bb0f f03d 36c5 b7bd 16ec db3d
000001e0: 910e 863e e687 473e 03e5 87be 7d78 bfbe
000001f0: f1e3 103e f1eb c2bd 37c6 8bbe 33ed acb9
00000200: 1fb3 dc3e d0fb 1e3e 4c02 893c 9f02 5bbf
00000210: a247 b1ba b3d7 ccbd 47e1 0fbe 8e3a 1cbe
00000220: a3f5 31be 139e 27bc e65e 5b3c feb6 f2bd
00000230: c724 633c a931 42be cffb 45be e049 153e
00000240: eafe 32be d47e 0abe e1d8 253d 780c 68be
00000250: 6372 953e df22 aebc 94d1 a03d 3141 873d
00000260: 285e 9b3b 33f5 233d 63cc 86bd 2e6b 813d
00000270: def2 01be 64a0 70be b280 463e 6c41 5ebe
00000280: 95f5 09be dcd1 533d d9a9 1e3e 5094 973d
00000290: 3481 c23d e316 e53e 6edc 95be c31e b2be
000002a0: a5e5 35be 9a03 9a3e 8f7c 943c 9918 ac3b
000002b0: 4e95 023f 3868 4cbe 2864 38bd 6b61 273e
000002c0: 6a81 4ebc e5b3 c63d 759d c5bd 7ff1 fbbc
000002d0: 6eb3 b43d 7ba7 7d3d 7726 333e b436 be3d
000002e0: 9163 683d ccec d23d 463c 30be cac4 2f3e
000002f0: cd5c c03d 6074 aa3d 6245 58be 1fd0 373d
00000300: 7712 1b3e 94b2 24be 392e a2be b3d8 2ebd
00000310: 89ad 5abe 8148 11bc 0773 0d3e bcd9 05be
00000320: c333 d83d 5a5b a9bd b92b 863e 0fa4 35bc
00000330: 8a0b b4bd 2cd7 2c3d dd4c a8be 7744 24bd
00000340: a1e9 03bd 7607 513d 68fe 2cbe 5559 78be
00000350: a44b 933e 5e2e 9ebe 0910 d73e 454d 013e
00000360: 904c dbbe 03e9 d4be da49 89be fdbc 783e
00000370: 94b9 033e e749 243e ea70 51be ffa9 44be
00000380: 58ac 963e faf8 52bd 734b 43be a156 53be
00000390: b4e6 1d3c 041e 5c3d 3bb3 69be b1eb 0dbe
000003a0: 6ce6 0bbe 7c37 1cbe a23b 793c 68cd 343e
000003b0: ec4a 98bd 49bf 6abe b235 34be 2856 d33b
000003c0: bd90 10be 3a23 563b 47f8 07be 1054 d0bd
000003d0: eec0 5c3e 6ad1 6d3e f46b 0fbd a4f1 283e
000003e0: e940 c93d 508a c63c 2ba3 44be 4e2e 5dbd
000003f0: 3146 663e f2d3 a23e 8a27 39be b419 413e
0.09867349 0.32402855 -0.034289595 0.15856864 0.28084475 0.16156536 -0.16210765 -0.11990686
0.14455488 0.30404526 -0.0464133 -0.011127498 -0.015899137 -0.10681437 -0.1968992 0.29290128
-0.1331613 -0.013803584 0.0649453 0.08216244 -0.13550062 0.062958576 -0.1746975 -0.10684578
0.25374782 0.16438572 -0.10981373 0.20152584 -0.011198369 0.1350184 0.034564395 -0.08977875
-0.057767335 -0.38469616 0.27389297 -0.25773567 0.18791355 -0.49682313 -0.50476587 -0.41795066
0.09391281 -0.07809327 0.08829505 -0.004360383 0.015393953 -0.20968221 0.14815849 -0.23327614
-0.12644736 0.0574327 0.17904656 0.036580134 0.11987827 -0.32063556 0.00049717654 0.22711857
0.0048979754 0.08454758 -0.10019281 -0.20897156 0.31144443 0.087542206 -0.09504268 0.00047869916
0.004290445 -0.015056011 0.07043567 0.047713656 -0.13586764 -0.016782459 0.25872144 -0.13934259
0.13896927 -0.029940577 0.094737194 0.16920875 0.016821403 -0.055597074 -0.3628381 0.36227617
0.19223994 0.4091356 0.0116397 -0.010138307 0.011837511 0.39944577 0.2038625 0.46717253
-0.06556155 0.1327591 -0.12371483 -0.09440632 0.1858143 0.07420665 0.054293796 -0.03678016
0.101353504 0.22667696 -0.05895251 0.13209145 -0.058525834 -0.13868342 -0.036084007 0.17547677
-0.15557608 -0.2250861 0.043448053 0.15642515 -0.17795508 0.047978282 -0.09425854 -0.14764978
0.2674689 0.05816167 0.004052015 0.20877524 -0.015962752 0.1172175 -0.08973162 0.10738389
0.26182988 0.19485435 -0.2654191 -0.37396613 0.14149453 -0.095176585 -0.27299663 -0.00032983124
0.4310541 0.15525746 0.016724728 -0.85550874 -0.0013525377 -0.10002079 -0.1405078 -0.15256712
-0.17378859 -0.010230559 0.013389325 -0.11851309 0.013863749 -0.18964256 -0.19334339 0.14578962
-0.17480054 -0.13524944 0.040490035 -0.22661006 0.29188833 -0.021256862 0.07852474 0.06604231
0.004741449 0.040028762 -0.065819524 0.06319271 -0.12690303 -0.23498684 0.19385031 -0.21704644
-0.13472588 0.05171381 0.15494479 0.07401335 0.094973 0.44744024 -0.29269737 -0.34789094
-0.17763384 0.30080873 0.0181258 0.0052519557 0.5100907 -0.19961631 -0.04501739 0.16345756
-0.012604097 0.09702281 -0.09649173 -0.030754803 0.08823286 0.0619273 0.17495142 0.092877775
0.05673558 0.10299072 -0.17210492 0.17164913 0.093927 0.08322978 -0.21120217 0.044876214
0.15143763 -0.16083747 -0.3167589 -0.04268713 -0.21355261 -0.008867384 0.1381341 -0.1307134
0.10556748 -0.08269377 0.26205233 -0.011086478 -0.087912634 0.04219739 -0.32871142 -0.040104356
-0.032205228 0.051032506 -0.16893923 -0.24252827 0.28768647 -0.3089475 0.4200442 0.12627132
-0.4283185 -0.41584024 -0.26814157 0.24290843 0.12863761 0.16043817 -0.2045323 -0.19205473
0.29428363 -0.051506974 -0.1907175 -0.20638515 0.009637523 0.053739563 -0.22822277 -0.1385944
-0.13662118 -0.1525554 0.0152119715 0.17656481 -0.07436165 -0.22924532 -0.17598608 0.0064494796
-0.14117713 0.0032674805 -0.13278304 -0.10172284 0.21557972 0.23224416 -0.03501506 0.16498429
0.09826834 0.024235874 -0.19202869 -0.053999238 0.22487713 0.31802326 -0.18081489 0.18857461

dense.0.denselayer2.norm2.weight f4 [48]
00000000: d57d 923f 7aec fe3e 9565 6f3f fe20 8f3f
00000010: 863a 6a3f 736e 4e3f adc9 623f 12b3 913f
00000020: ab6e 903f da83 a03f a232 853f 8fd0 8a3f
00000030: 6cbf 753f de3d 7a3f 8d9f 913f 2e8c 413f
00000040: d01e 693f ccbb 793f 25fe 803f 37e4 8f3f
00000050: 8de5 5d3f 0ad1 443f 6910 823f 4c3d 683f
00000060: c1a2 713f 6c76 7e3f 8a72 5a3f 1876 403f
00000070: ea41 893f a7a5 8b3f 5d31 803f dec6 903f
00000080: a649 4a3f 5720 8c3f 274b 293f 28f0 873f
00000090: b889 833f 9e47 7b3f 9727 673f 2666 473f
000000a0: d294 843f d5a2 7f3f 127a 7f3f d0a3 893f
000000b0: 970f a53f 27d5 603f 3f85 8c3f 162f 5c3f
1.1444651 0.49789792 0.93514377 1.1181943 0.9149555 0.8063728 0.8858898 1.1382773
1.1283773 1.2540238 1.0406077 1.0844897 0.9599521 0.9775065 1.1376816 0.7560452
0.9106264 0.9755218 1.0077559 1.1241521 0.8667839 0.7688147 1.0161258 0.9071853
0.9438897 0.9939945 0.8533102 0.75180197 1.072324 1.0909928 1.0015064 1.131069
0.7901863 1.0947369 0.661303 1.0620165 1.0276403 0.98156154 0.90294784 0.7789024
1.0357916 0.99857837 0.9979564 1.0753117 1.2895383 0.87825245 1.0978163 0.8600935

dense.0.denselayer2.norm2.bias f4 [48]
00000000: 9508 57be 4060 2bbf 81e2 40be 28af 85be
00000010: 7aa3 85be f9f2 64be a224 6b3e f4e7 27be
00000020: d21f 653a 6d41 61be e5af 7ebe cd83 99be
00000030: 53dd 84be 5a8b bd3d 2f30 4abe 85e6 5fbe
00000040: 32d0 62be 6d3f 59be b0b7 39be d0c0 bdbe
00000050: 3d3f 36be f6a0 40bd ecd8 4ebe 5e36 f4bd
00000060: 7c06 01bf ca71 8dbd fbed 4dbd bdf7 46be
00000070: ebc1 9abe 9051 dabe 2a16 e73d 743a 55be
00000080: 9482 39be bbdb 04be e3b4 ecbd ae26 f5be
00000090: e092 c6be 5bac 8c3d d4fc 8cbc 9f61 aabe
000000a0: 4398 75be af7a 32bd bcac bc3c 87be 1bbf
000000b0: 9383 1ebe 55f6 f8be 91f9 52be 5342 123c
-0.20999368 -0.6694374 -0.18836404 -0.26110196 -0.26101285 -0.22358312 0.22963193 -0.16397077
0.00087403983 -0.21997614 -0.24871786 -0.2998337 -0.25950107 0.09255095 -0.19744943 -0.2186528
-0.22149733 -0.21215601 -0.18136477 -0.37061167 -0.17797561 -0.047028504 -0.20199937 -0.11924432
-0.5040052 -0.06906469 -0.050275784 -0.19430442 -0.30226073 -0.42640352 0.11283524 -0.2082308
-0.18116218 -0.12974446 -0.11557939 -0.47881073 -0.38783932 0.06868812 -0.017210402 -0.33277604
-0.23983864 -0.04357403 0.023031585 -0.60837597 -0.15479879 -0.48625436 -0.20603015 0.008926946

dense.0.denselayer2.norm2.running_mean f4 [48]
00000000: 0b5c b4bf 9745 913f d158 edbe 474d 2f3f
00000010: c1f0 cebe 7066 1f3f 0664 3cbf cd08 0cbd
00000020: 41d8 3abe 71b4 44bf 84b4 c13c d6d0 393d
00000030: 90b8 eabe 921a 043d 033c 8f3f 202a b33e
00000040: f94a 37bf 9b2f 8abb 5933 34bf 2244 0b3e
00000050: 5852 243f 5c08 0d3f 0f8f 2ebf de0f 94be
00000060: ff79 92bf 973f 93bf 46ec 4dbd 5356 7c3d
00000070: 0e40 053f ac6b 4c3e 1bbb e1be 047d 09bf
00000080: 9ed1 2fbf 2c32 d6bf 1552 1fbf 86c6 3ebe
00000090: 1ad5 c83e c267 e7bd 95a0 5c3f 79f8 42bf
000000a0: e645 8f3f 7ed3 383f 0d5f 8ebf 17d4 463f
000000b0: c6a0 ca3e 04df e8be 6ce8 ff3e a15b c5be
-1.4090589 1.1349362 -0.46356824 0.6847729 -0.40418056 0.6226568 -0.73590124 -0.03418808
-0.18246557 -0.7683783 0.023645647 0.045365177 -0.45843935 0.032251902 1.1190189 0.34993076
-0.71598774 -0.004217101 -0.7039085 0.1360021 0.64188147 0.5509088 -0.6818704 -0.28918356
-1.144348 -1.1503781 -0.050274156 0.061605763 0.52050865 0.19962949 -0.44088063 -0.53706384
-0.68679225 -1.6734061 -0.6223462 -0.18630418 0.39225084 -0.11299087 0.8618253 -0.7616039
1.1193206 0.7219771 -1.1122757 0.77667373 0.39575785 -0.45482647 0.4998201 -0.3854647

dense.0.denselayer2.norm2.running_var f4 [48]
00000000: 6f8f 0d3f eece e53e 0c38 323f 249d 1d3f
00000010: 0d58 413f ae3f 433f ca08 2040 2561 f43e
00000020: 3be5 b53f 21ca 2d3f 6745 773f 6892 293f
00000030: 6fdc 363f 1f5b 3340 c2bd e63e 10c9 3e3f
00000040: 952c f13e 965b ce3f fb83 2d3f 8e9d 1740
00000050: 4763 2740 9f1a 6a3f 8f41 273f d84b 123f
00000060: e1ec 013f c643 083f bad4 033f df0c b03e
00000070: c96b cd3f ada5 0940 0e68 fa3e baf6 2e3f
00000080: 447f 6d3f 04b0 213f ab2a 0e40 1c63 343f
00000090: 706a 0740 fb18 0540 ca96 0d3f e097 353f
000000a0: 392b ea3e a93b 613f 482a 0f3f 6d73 063f
000000b0: 6123 ff3f 0d79 263f 1f9f 413f 4efb 503f
0.5529699 0.44884437 0.6961677 0.615679 0.7552498 0.7626904 2.5005364 0.47730365
1.421058 0.6788655 0.96590275 0.66239023 0.71430105 2.8024366 0.4506665 0.7452555
0.47104326 1.61217 0.6777951 2.3689914 2.6154344 0.9144687 0.6533441 0.5714698
0.50752074 0.53228414 0.5149647 0.3438482 1.6048518 2.150737 0.48907512 0.68345225
0.92772317 0.63159204 2.2213542 0.7046373 2.1158714 2.0796497 0.5530821 0.7093487
0.457361 0.8798166 0.5592389 0.52519876 1.9932672 0.6502846 0.75633425 0.8163346

dense.0.denselayer2.conv2.weight f4 [12, 48, 3, 3]
00000000: 0889 2bbf 24a2 5e3d c5ff eabd fcd9 c33c
00000010: 7e5e 63be 0dda ecbd 5ad9 06bf 5e7f fe3c
00000020: ea53 273d 9cc7 af3d 98b1 8cbd 676e 34bd
00000030: fd23 1d3d 0736 923e 4002 1a3e 6c66 d53c
00000040: 45f1 f03c 9e9f 8b3e f879 19be 4196 f33d
00000050: a15a 0abe 2ccf 5cbd f0fa b0bd f0aa 003d
00000060: 3b6f 66be 4b5b 8bbe 5672 52bf 338b ba3d
00000070: 203e d53c 4bb6 083e 571a a33c 2d80 b73d
00000080: ad91 723e dae4 f33d 5d81 f83c 1a3e d33d
00000090: 38f2 f3bd e5e8 93be 560c babe 2944 143d
000000a0: d1ba e6bc 8141 42bd aa4e dabd b4b1 6a3e
000000b0: a4df bfbd aa75 d3be 0933 433e 2b83 c1be
000000c0: c613 ef3d 6292 75bd 8cf7 bf3e f394 3e3d
000000d0: b8e1 673c 2d05 9ebe faf0 66be 1919 073d
000000e0: f39e 8cbd d07d 39bc 48dd 9e3e fcad 593c
000000f0: 0fd5 c1bc 001e 04bc ec71 44be e241 debe
00000100: dc99 123d 10f1 043b 2f18 f03d 6e6f 23bd
00000110: 25af 0ebe 2478 36bf f915 2ebe 73da 8bbe
00000120: 5df7 043e 3f73 90bd aaf9 7b3e b312 6dbc
00000130: 275e 5e3e 55c8 03be 16d8 463e 0ca9 053d
00000140: 5101 8f3d 859b 54be 1904 aebb 4266 09bf
00000150: b8c7 2a3e f186 07be 13ac ac3d e921 d9be
00000160: f996 75be caf7 eebe bd49 8bbe 72dc 82bd
00000170: ba52 6ebd 3f6e f2bd d311 8d3c affb 66bd
00000180: 5f04 97be 536c 1fbd fa2e 8dbd 5323 c4be
00000190: 7210 c4bd 60e6 eebe e84c ea3d 9a32 65be
000001a0: 546f b0bc a9c6 51be 7160 593e d0ed ddbe
000001b0: 8285 55be bbbd 69be cf0f 1ebe 5059 b43c
000001c0: cb4e e73d a3b6 1cbd d8b1 9d3d df61 943d
000001d0: 4cfc 4dbe 0c11 abbd b684 343e cb24 24bd
000001e0: ba87 963e 8bf7 ae3d 9d49 c63d 86dd 4ebd
000001f0: de1e e83d 55e6 39be aca4 ab3d e2b5 733b
00000200: 38dd 3ebe 6536 18bd 6d62 8a3d 9f91 bcbd
00000210: 8711 8ebd 9b6e bc3d be2c 84be d345 3bbf
00000220: 0830 813e 06d0 d3bd aec2 643e d57b 39be
00000230: d46f 103b e251 c6bd 153f 9d3c c7af 0cbf
00000240: 55f7 553d 0614 38bd 42e4 f2be c73d 693d
00000250: 2897 3cbb dc22 0b3e cf3e 153c 1d5d 58be
00000260: e875 e5be fafd 003e 3580 1f3d 21c0 f83d
00000270: d2b5 993d 2a62 a43e 64ad c03d 4d92 093e
00000280: 067a 34bd 942e b93d a160 1cbc 8aa9 3ebd
00000290: f9bb efbe 32bb 1b3d 8845 003e 63ee 153d
000002a0: 4ad5 90be fcb7 eb3d 8184 a6be b151 c7be
000002b0: f90f 99be fdce 38be a7ae c9be 4d77 693e
000002c0: d5e3 58bd 81b6 3dbe 295b e3bd 5e75 203c
000002d0: b05d 453e dc31 aebc 8b81 e03d e0f9 38bc
000002e0: a1e8 b03e 0d10 bbbd e883 523e 8725 943d
000002f0: 586c 7c3d 4489 5dbe ed60 9dbd 9354 11be
00000300: 109b 1bbe a2e3 253e 9fff d2bd 1da5 15be
00000310: 2971 5cbe 24df e9bd b8d5 2abe cd6b 5f3d
00000320: eb04 62be 1725 403e d4d0 b4bd 2931 803c
00000330: 955f 90bd 87fa bb3d aca2 d7bc b507 19bf
00000340: 5080 a83c c497 ddbe 34f4 a53d 1ba7 1b3d
00000350: dc90 193d 1c51 25be 6503 07be a979 4dbe
00000360: e18d d63d 8843 e43d 1234 cb3c d8c2 7ebe
00000370: 5380 2fbe 82f5 f93c 9d05 533d 8a7a 1c3e
00000380: 98d8 d93d 139a d2be 4ebd 0dbe 70b2 11be
00000390: 4dbd e7bb 7ff6 083c c995 c93c f31a a6be
000003a0: 6bee 81bd c3f7 e4bd d5ce cf3d 206c 0cbe
000003b0: 1f93 183d 83e7 d83d 574d 123b eb3e 61be
000003c0: fed1 383d 27ef 1dbd 24fc c9bd bee5 04be
000003d0: eac0 05be b6bf 02bf 08e3 01be 54f3 e3bc
000003e0: de05 ed3d a686 2fbd 1404 cf3d fa4b 2cbd
000003f0: e325 d3be f301 5ebe da4e a2bc 1a80 a4be
-0.6700597 0.054353848 -0.114745654 0.023907654 -0.22204015 -0.115650274 -0.526754 0.031066593
0.04085151 0.08582994 -0.06869811 -0.0440506 0.0383644 0.28556845 0.15039921 0.026049815
0.029411921 0.27270216 -0.14987934 0.11893893 -0.13511135 -0.053908512 -0.086416125 0.03141302
-0.22503369 -0.27218089 -0.8220571 0.091085814 0.0260306 0.13350789 0.01991002 0.089599945
0.23688383 0.11908884 0.030335123 0.10314579 -0.11911434 -0.28888622 -0.36337537 0.036197815
-0.028165253 -0.04742575 -0.10659535 0.22919351 -0.09368828 -0.41300708 0.19062437 -0.37795386
0.11673693 -0.059954055 0.3749355 0.046528768 0.014152937 -0.30863324 -0.22552863 0.03298292
-0.06866255 -0.0113215 0.310282 0.01328611 -0.023661165 -0.008063793 -0.19184083 -0.4340964
0.035791263 0.0020285286 0.11723363 -0.03990119 -0.13934 -0.7127707 -0.1700057 -0.273151
0.12984987 -0.070532314 0.24606958 -0.01446979 0.21715604 -0.1286939 0.19418368 0.03263192
0.06982673 -0.20762451 -0.005310547 -0.5367166 0.16677749 -0.1323507 0.08431258 -0.42408684
-0.23983373 -0.46673423 -0.27204695 -0.06389703 -0.058184363 -0.11837434 0.017220413 -0.056392368
-0.29495522 -0.038921665 -0.06893726 -0.383082 -0.09573449 -0.46660137 0.1144045 -0.22382584
-0.02153746 -0.20485939 0.21228196 -0.433455 -0.2085171 -0.22826283 -0.15435718 0.022015244
0.112943254 -0.038260113 0.07699937 0.0724523 -0.20115775 -0.08352861 0.1762875 -0.04007415
0.29400426 0.08543309 0.09682009 -0.05050423 0.113340124 -0.18154271 0.08381018 0.0037187268
-0.18639076 -0.03716125 0.067570545 -0.092074625 -0.06936937 0.09200784 -0.25815386 -0.7315342
0.25231957 -0.10342412 0.2233989 -0.18113644 0.002203931 -0.09683587 0.019195119 -0.54955715
0.052237827 -0.04494097 -0.47439772 0.05694368 -0.002877662 0.13587517 0.009109213 -0.2112927
-0.44816518 0.12596884 0.038940627 0.12146021 0.075053826 0.32106143 0.09408072 0.13434716
-0.044061683 0.09042087 -0.0095445225 -0.046548404 -0.468231 0.03802032 0.12526524 0.036604296
-0.28287727 0.115097016 -0.32522967 -0.38929513 -0.29895 -0.1804771 -0.39391062 0.22799416
-0.052951653 -0.18526651 -0.11101372 0.0097936075 0.1927402 -0.02126401 0.10962208 -0.011290044
0.34552482 -0.09133921 0.2055813 0.0723372 0.061626762 -0.21634394 -0.07684503 -0.14192419
-0.1519587 0.16200116 -0.10302662 -0.14613767 -0.21527542 -0.11419514 -0.1668309 0.054546166
-0.22072189 0.18764149 -0.08828893 0.015648441 -0.07049481 0.09178644 -0.026322685 -0.59777385
0.020568997 -0.4327985 0.08103219 0.03800116 0.037491664 -0.16144222 -0.13184889 -0.20065941
0.1047628 0.11145693 0.024805102 -0.24879014 -0.17138796 0.030512575 0.051519025 0.1528112
0.10637015 -0.41133174 -0.13841745 -0.14228225 -0.007072127 0.0083595505 0.024607556 -0.32442436
-0.06344303 -0.11180069 0.10146872 -0.13713121 0.03724968 0.10591032 0.002232393 -0.21996658
0.04512214 -0.03855815 -0.09862545 -0.12978265 -0.13061872 -0.5107378 -0.12684262 -0.027825989
0.11573385 -0.04285302 0.101082 -0.042064644 -0.41239843 -0.21680431 -0.01981299 -0.32128984

dense.0.denselayer3.norm1.weight f4 [56]
00000000: dd39 233f 8981 373f 424c 533f aa51 333f
00000010: 85bc 3d3f 5c2a 363f 9dbf 253f f920 0d3f
00000020: 595e 7a3f 9877 373f b281 ab3e 7454 3b3f
00000030: 75da 183f 2f5c 1a3f c7b4 243f 21e1 3b3f
00000040: 44d6 223f 3f34 183f 4553 0f3f 81a1 3e3f
00000050: ea34 3d3f 69b8 473f 5d64 283e a430 403f
00000060: 57de 383f b55e 503f d99e db3e 9637 4f3f
00000070: 0000 803f 7a5c 643f 7fbc 2f3f 2dd6 283f
00000080: c66e 9d3f 60d9 973f 346d a43f f545 a63f
00000090: 21be 8c3f 9844 a43f c271 af3f 0685 bf3f
000000a0: 01ab a63f 9542 a93f b20f 953f 7de8 aa3f
000000b0: d53d c93f 3134 b83f 8c4e c13f 88e7 a23f
000000c0: e275 c93f 27ff b43f da1d a63f e3d8 8d3f
000000d0: a1a3 aa3f de76 8a3f 7b67 9a3f b609 b63f
0.6376017 0.7168203 0.82538235 0.70046484 0.7411578 0.71158385 0.64745504 0.5512844
0.97800213 0.7166686 0.33497387 0.7317574 0.5970834 0.6029691 0.64338344 0.73390394
0.63608193 0.5945472 0.55986434 0.74465185 0.73908865 0.7801576 0.16444536 0.7507422
0.72214264 0.8139451 0.4289463 0.8094419 1.0 0.8920361 0.68647 0.65951806
1.229943 1.1863213 1.2845826 1.2990099 1.0995523 1.2833433 1.3706591 1.496247
1.3020936 1.3223444 1.1645415 1.33522 1.5721995 1.4390928 1.5102096 1.2726908
1.57391 1.4140366 1.297786 1.1081814 1.3331186 1.0817525 1.206283 1.4221714

dense.0.denselayer3.norm1.bias f4 [56]
00000000: 1581 60be 12ee 9abe bbcf 07be 5025 97be
00000010: 2748 90be 4814 2cbe 6111 b5be 1739 dabe
00000020: 4c3f a8bc 1ba5 96be 1986 23bf 8c17 47be
00000030: 1425 c0be c571 c4be 8c24 9ebe 8976 97be
00000040: e7dd b9be bebc bdbe ad26 a5be 732a 58be
00000050: ee24 54be dc1c 6ebe b940 4abf 2a04 4bbe
00000060: 1e0b 9cbe 05ca 67be 5e0f 0abf 19c4 67be
00000070: 0000 0000 db81 91bd b9ac 88be 5e15 a2be
00000080: df44 233f 72b8 fc3e 9ba7 d23d a624 b9bd
00000090: 5a43 d3bd 6293 893e 6eaf f63d 120b a2bc
000000a0: 4621 bc3d 9c64 6e3e 0221 0a3e eb8c c5bc
000000b0: e8d5 22be 17af 733e 8a5c 06be c69f 843e
000000c0: 0ed2 8b3e 766c 003f d5ff 79bd 0055 443e
000000d0: a8a5 fcbd 60ce af3e bb31 c1be 9091 833e
-0.21924241 -0.30259758 -0.13262837 -0.29520655 -0.28180048 -0.16804612 -0.35364822 -0.4262168
-0.020537995 -0.2942284 -0.6387649 -0.19442576 -0.37528288 -0.3836805 -0.30887258 -0.29582623
-0.3630211 -0.3705806 -0.3225607 -0.21109943 -0.20717213 -0.23253196 -0.7900501 -0.19825807
-0.30477232 -0.22635658 -0.539297 -0.22633399 0.0 -0.07104846 -0.26694277 -0.31656927
0.63776964 0.4935947 0.102858745 -0.09040193 -0.10315581 0.26870257 0.12045179 -0.01978067
0.09186034 0.23280567 0.13489154 -0.024115046 -0.15901911 0.2379726 -0.13121238 0.25903147
0.27308697 0.501655 -0.061034996 0.1917305 -0.12336284 0.3433714 -0.37733254 0.25696993

dense.0.denselayer3.norm1.running_mean f4 [56]
00000000: fcdc db3f 691f 6b3f d535 353d bb87 083e
00000010: df72 423f eee1 c43f 4411 743e fbdf 403d
00000020: 0400 0000 80fb 3c3f d036 4e3e c9c4 d63f
00000030: 59a0 553f f275 343d 45ce 923d 34b5 b93e
00000040: ba31 3b3d 4686 5b3d 7511 343f 82b5 9e3f
00000050: d72c e73d a5e7 f63f 85e5 9d3e 903a a93f
00000060: f8b9 c93e 2ef0 ac3f 7cf5 bf3d 96a3 033f
00000070: 0000 0000 0400 0000 5550 733d 2f4a 583e
00000080: c245 89c0 faf6 3dc0 3613 93c0 7778 84c0
00000090: 8736 afc0 5e68 96c0 3373 76c0 1076 72c0
000000a0: 2727 81c0 a7fa edbf 8c63 2ec0 49c8 7bc0
000000b0: 3d45 22c0 943e 03c0 37c1 26c0 8b9c 01c0
000000c0: 76d7 fdbf d0f5 d1bf 6444 cabf 7dcd f9bf
000000d0: 7426 0dc0 51fb fabf d996 dbbf 5c1d 15c0
1.7176814 0.91844803 0.04424079 0.13333027 0.7595653 1.5381448 0.23834711 0.047088604
6e-45 0.7382126 0.20138097 1.6778804 0.83447796 0.044057794 0.07168249 0.3627106
0.04570172 0.05359485 0.7033914 1.2399142 0.112878494 1.9289442 0.30839172 1.3220997
0.39399695 1.3510797 0.09372994 0.5142149 0.0 6e-45 0.059402782 0.21122049
-4.2897654 -2.9681993 -4.596095 -4.139705 -5.475406 -4.70024 -3.8507812 -3.788456
-4.0360293 -1.8592118 -2.7248259 -3.9340994 -2.535476 -2.0506945 -2.605543 -2.0251796
-1.9831378 -1.6403141 -1.5802121 -1.9515835 -2.205472 -1.9607946 -1.715541 -2.329917
