Trained Model/8-8 4-network.pt (torch_old, 673471 bytes, 154 tensors)

conv.0.weight f4 [4]
1.0312754 1.1118001 0.44215828 1.0850408
00000000: d500 843f 774f 8e3f 9262 e23e 9ee2 8a3f

conv.0.bias f4 [4]
-0.19119959 0.1807179 -1.0493238 -0.22549753
00000000: d3c9 43be 1d0e 393e 3e50 86bf d3e8 66be

conv.0.running_mean f4 [4]
0.026739072 0.034055468 0.014819819 0.020212857
00000000: e60b db3c bf7d 0b3d d3ce 723c 6f95 a53c

conv.0.running_var f4 [4]
0.026022457 0.032891948 0.014598533 0.019801063
00000000: 0c2d d53c b5b9 063d af2e 6f3c d735 a23c

conv.1.weight f4 [32, 4, 1, 1]
-0.37277183 -0.2522969 0.40688032 -0.358752 -0.0037248067 -0.19243038 -0.05365479 0.18138434
-0.4749255 0.8840473 -0.31384408 -0.22613035 -0.992575 0.23799889 -1.1323004 -0.2530385
0.07811851 -0.9237284 0.7451989 0.063188024 -0.4283072 -1.8236326 0.10999424 -0.57251656
0.016504517 0.46072236 -0.20264928 0.9566549 2.1945949 -0.7289082 -0.13317443 -0.75164497
0.10207665 0.6961293 0.48859555 -0.22349562 -1.9273717 -0.071218066 -1.3720706 -1.4752567
0.7453618 -0.24865101 -0.3181026 0.05058213 -0.60068244 0.49698564 0.20103931 -0.6800727
0.24054281 1.2935123 -0.5792061 -0.10174376 -0.2785194 -0.37749857 -0.0673641 -0.007425785
-0.6183088 -0.0070303907 -0.58167195 0.73831594 1.072884 0.018682271 -0.273105 -0.00514688
-0.025382983 -1.3226073 0.61776847 -0.9308548 -0.4762776 -1.272598 -0.062871575 -0.5605215
-1.4630743 -0.076210335 -0.88555413 -1.196073 -0.29943088 2.5121326 0.12108737 -0.0578468
0.14449237 -2.2191026 -3.1627612 -3.2342563 -0.10280898 2.792628 0.08811519 -0.35442463
0.8807214 -0.121236846 -0.2242796 -0.1940912 -0.20771822 -0.56824017 -1.4170381 -0.8494902
1.6349924 -0.050325915 -0.34386075 -0.16505556 0.16070017 -0.33009163 -0.9876599 -0.40686464
-0.8199429 0.36279428 -0.33268964 0.5591187 -0.18590799 -0.31340802 0.3027555 -0.037754804
-1.4998174 -0.12772039 -1.469317 -1.0279237 0.54071003 0.6154304 -0.02273438 -0.8063492
-0.04404843 1.2595879 0.12688826 -0.39042386 -1.7837349 -0.034202125 -1.7045372 -1.7559438
00000000: f3db bebe 0f2d 81be 9e52 d03e 58ae b7be
00000010: e31b 74bb 780c 45be 20c5 5bbd d1bc 393e
00000020: 6f29 f3be ed50 623f 2cb0 a0be b78e 67be
00000030: 6519 7ebf fbb5 733e 38ef 90bf 438e 81be
00000040: 99fc 9f3d 7779 6cbf 5bc5 3e3f b968 813d
00000050: 154b dbbe cb6c e9bf a944 e13d 7290 12bf
00000060: 7b34 873c cde3 eb3e 4b83 4fbe 56e7 743f
00000070: 3e74 0c40 ba99 3abf e15e 08be ce6b 40bf
00000080: 900d d13d 8835 323f 3229 fa3e 09dc 64be
00000090: 1eb4 f6bf c7da 91bd 02a0 afbf 36d5 bcbf
000000a0: 08d0 3e3f 5f9e 7ebe 58de a2be 352f 4f3d
000000b0: 53c6 19bf e774 fe3e 40dd 4d3e 3f19 2ebf
000000c0: db50 763e d091 a53f da46 14bf 085f d0bd
000000d0: 189a 8ebe 7e47 c1be 30f6 89bd 0054 f3bb
000000e0: 7c49 1ebf 315f e6bb 74e8 14bf 4602 3d3f
000000f0: 4354 893f 900b 993c 6bd4 8bbe 29a7 a8bb
00000100: f9ef cfbc 324b a9bf 1326 1e3f 804c 6ebf
00000110: a8da f3be 7ee4 a2bf d0c2 80bd 567e 0fbf
00000120: 0546 bbbf 2a14 9cbd adb3 62bf ec18 99bf
00000130: 014f 99be c8c6 2040 a8fc f73d c4f0 6cbd
00000140: cff5 133e c705 0ec0 ae6a 4ac0 0efe 4ec0
00000150: 848d d2bd 6bba 3240 bd75 b43d 2577 b5be
00000160: f576 613f 064b f8bd 8da9 65be d8bf 46be
00000170: 16b4 54be 3078 11bf 8161 b5bf 3178 59bf
00000180: 6e47 d13f 8c22 4ebd 840e b0be 5304 29be
00000190: 968e 243e c501 a9be 47d7 7cbf 9050 d0be
000001a0: c7e7 51bf 2cc0 b93e 4c56 aabe 6722 0f3f
000001b0: aa5e 3ebe 0477 a0be c502 9b3e c8a4 1abd
000001c0: 04fa bfbf 22c9 02be 9412 bcbf 0193 83bf
000001d0: f96b 0a3f d98c 1d3f 733d babc e76c 4ebf
000001e0: 206c 34bd 2d3a a13f ffee 013e a3e5 c7be
000001f0: 6d51 e4bf 8717 0cbd 462e dabf c4c2 e0bf

conv.1.bias f4 [32]
-0.46639153 -0.48708928 0.90662366 1.4340456 0.12532155 -0.101084076 0.63036776 0.5319275
1.1035373 1.7714726 -0.11594508 -0.321238 -0.25696695 -0.35416573 0.70584023 -0.12964833
0.18678851 0.2813698 1.3908694 0.13171226 3.1603353 0.23808013 1.0024724 1.5518979
0.57211834 0.91419333 0.9432602 0.0515419 1.29373 0.6615076 0.40610746 1.2122717
00000000: dfca eebe c463 f9be 7d18 683f ce8e b73f
00000010: 4b54 003e 2b05 cfbd c85f 213f 672c 083f
00000020: b640 8d3f 9dbf e23f 9d74 edbd 4f79 a4be
00000030: 2c91 83be 3655 b5be f2b1 343f 88c2 04be
00000040: 7d45 3f3e b40f 903e 0208 b23f 94df 063e
00000050: ef42 4a40 47cb 733e 0451 803f 97a4 c63f
00000060: 5976 123f 9308 6a3f 8079 713f 991d 533d
00000070: f298 a53f 9058 293f 51ed cf3e b82b 9b3f

dense.0.denselayer1.norm1.weight f4 [32]
0.81893927 0.7936632 1.0959799 0.8316202 1.1201382 0.732147 0.8954423 1.4901751
0.2267518 0.77866006 1.3531976 1.1111888 0.89287895 1.0 0.92532665 0.8100658
1.1029522 0.7961419 0.75957817 0.9603321 0.59206223 1.0427103 1.1728991 0.849818
1.7152232 1.1648498 1.4107568 0.7723737 0.7304077 0.7253107 0.849429 0.7966439
00000000: 01a6 513f 832d 4b3f 1249 8c3f 10e5 543f
00000010: b060 8f3f fc6d 3b3f b53b 653f 0fbe be3f
00000020: a031 683e 4456 473f 9435 ad3f 6f3b 8e3f
00000030: b793 643f 0000 803f 35e2 6c3f 7960 4f3f
00000040: 8a2d 8d3f f5cf 4b3f b773 423f 53d8 753f
00000050: 6491 173f 8877 853f 8f21 963f ac8d 593f
00000060: 6f8c db3f cc19 953f ae93 b43f 48ba 453f
00000070: 00fc 3a3f f6ad 393f 2e74 593f dbf0 4b3f

dense.0.denselayer1.norm1.bias f4 [32]
-0.17763945 -0.22370626 -0.07798532 -0.03357865 0.034491196 -0.29140458 0.034229055 0.2876092
-0.9415205 -0.1222322 0.14190608 0.18026252 -0.36148137 0.0 0.39819226 0.32138216
0.020333076 -0.24762166 -0.24946432 0.102105774 -0.41998255 -0.055637464 0.39719778 -0.24534766
0.30963007 0.26193026 0.55018765 -0.22406496 -0.19480653 0.43040255 -0.40421203 -0.23722057
00000000: 1ee7 35be 4113 65be c4b6 9fbd c489 09bd
00000010: a446 0d3d fb32 95be c433 0c3d 8341 933e
00000020: 7d07 71bf e054 fabd d44f 113e bd96 383e
00000030: 1614 b9be 0000 0000 dbdf cb3e 348c a43e
00000040: 8d91 a63c 8890 7dbe 9373 7fbe d51c d13d
00000050: f407 d7be 1ce4 63bd 825d cb3e 6b3c 7bbe
00000060: d587 9e3e b91b 863e 19d9 0c3f 4971 65be
00000070: 5d7b 47be b95d dc3e e1f4 cebe f3e9 72be

dense.0.denselayer1.norm1.running_mean f4 [32]
6e-45 6e-45 1.5987178 3.0593154 0.03695279 0.18562672 0.7095471 0.5492713
0.748884 4.3267326 0.10889361 0.041003216 0.5696642 0.0 1.3693163 0.16293855
0.029867848 0.7187048 3.1942234 0.5755184 7.4990025 0.7616032 1.1133935 3.343773
0.67007196 2.014466 1.5113348 6e-45 3.663428 0.9058076 0.5980726 4.1991153
00000000: 0400 0000 0400 0000 c9a2 cc3f d3cb 4340
00000010: cf5b 173d ee14 3e3e e1a4 353f 0b9d 0c3f
00000020: ddb6 3f3f 9874 8a40 9d03 df3d fdf2 273d
00000030: 83d5 113f 0000 0000 c245 af3f 5dd9 263e
00000040: 6bad f43c 0afd 373f 286e 4c40 2d55 133f
00000050: d4f7 ef40 6df8 423f ae83 8e3f 6000 5640
00000060: d689 2b3f 03ed 0040 6b73 c13f 0400 0000
00000070: 9b75 6a40 02e3 673f 491b 193f 275f 8640

dense.0.denselayer1.norm1.running_var f4 [32]
6e-45 6e-45 0.72349566 0.29171237 0.0913007 0.002315707 2.1578088 4.950331
0.45087224 0.925944 0.441597 0.11996965 1.8499134 6e-45 0.685834 0.9751717
0.059536565 0.03361359 0.5061251 7.4974937 2.9042778 7.937832 0.7411037 0.5873484
2.506953 0.21621072 0.9659421 6e-45 0.6700905 0.5067075 1.227103 0.8704088
00000000: 0400 0000 0400 0000 0337 393f 535b 953e
00000010: ddfb ba3d 1ec3 173b 8a19 0a40 1d69 9e40
00000020: bad8 e63e aa0a 6d3f 0119 e23e a6b2 f53d
00000030: f6c9 ec3f 0400 0000 d192 2f3f daa4 793f
00000040: 9ddc 733d 67ae 093d 6a91 013f 78eb ef40
00000050: b0df 3940 b802 fe40 f9b8 3d3f 775c 163f
00000060: eb71 2040 5866 5d3e fb47 773f 0400 0000
00000070: 0d8b 2b3f 95b7 013f b611 9d3f 1cd3 5e3f

dense.0.denselayer1.conv1.weight f4 [48, 32, 1, 1]
-0.11458504 0.095739126 -0.18860051 -0.12820458 -0.1518383 -0.44157657 0.45986238 1.2711493
-0.3371155 -0.6085615 1.1289164 -0.19512303 0.083866194 -0.01085265 0.13093078 2.013013
-0.11133598 -0.7112432 -0.6572332 0.09313745 0.30249685 0.14600614 1.795208 -0.52414066
2.3853118 0.36492744 0.1125749 -0.110178016 -0.6622895 0.033892483 0.031980526 -0.48491842
0.029553501 -0.16404063 -0.27897483 -0.015165141 -0.11213852 0.07921403 0.077969015 -0.050596222
0.13066418 0.20559591 0.12562467 0.058175296 -0.19693439 -0.15132685 -0.22579719 -0.031465575
-0.15204363 -0.08183405 0.0061968192 -0.16109477 0.067453355 -0.19286132 -0.0793089 0.14704269
-0.017789228 0.051081136 -0.34043232 -0.06483436 -0.086321734 0.00032088647 -0.14555012 0.20427403
-0.35183996 -0.14577082 0.14457977 0.0986494 -0.3652392 0.014561676 -0.1700293 -0.45085812
0.015781378 0.033613328 -0.50648206 -0.061638787 0.11749364 0.11839919 0.12554927 -0.0518606
-0.45468327 0.19249068 0.14455211 -0.1742774 -0.13065575 -0.027891725 -0.29354495 -0.14260164
-0.15662985 -0.17595349 -0.079428025 -0.38695714 -0.12144476 -0.45743904 0.008712706 -0.044640303
0.19084537 0.08117092 -0.114422835 -0.37780437 0.81731313 -0.10422815 0.42431563 0.51341665
0.09534907 -0.42899606 0.20031135 -0.25843546 0.08509925 -0.1013916 0.20174469 0.30114496
1.0219114 -0.1974032 0.07566347 0.113682255 -0.055788137 0.0461325 0.20311117 -0.054007217
0.3244481 -0.17139478 0.017187336 0.97363406 -0.28021902 0.3925549 -0.13136333 -0.07993842
-0.03571644 -0.108770475 -0.00067442295 -0.24279915 0.0029063344 0.05036642 -0.23544066 -0.08777823
-0.08374861 0.006086237 -0.009470226 0.0798731 -0.09669691 -0.08617764 -0.27835667 -0.101333015
-0.02024272 0.019378942 0.070221044 0.056201264 0.15537389 -0.09350924 -0.06938011 -0.002162018
-0.06976965 -0.038181778 -0.27215514 0.055129036 0.13055216 0.105908535 0.068568766 -0.09884811
-0.2581134 0.15032057 0.13137317 -0.007560665 -0.5174286 -0.083630025 0.0097962 -0.91107845
-0.1787174 -0.1779327 -0.95412785 0.011023393 -0.0017594257 0.10201691 0.019445786 -0.2218543
-0.7214154 -0.04295679 0.067552075 0.059555832 0.0914566 -0.08940824 -0.7157791 -0.060272887
-0.67171985 0.16720924 -0.08018316 -0.67410636 0.0048293574 -0.8093819 -0.06676706 0.02327212
0.11760085 0.13395055 0.15585361 0.1438109 -0.20361926 0.05907082 -0.17697771 -0.1809602
-0.061953355 0.14635007 -0.12180327 0.04550255 0.16826962 -0.034865856 -0.15085769 -0.20093301
-0.14663593 0.08815134 0.017926525 -0.14783995 0.1595533 -0.1124368 -0.281652 -0.010368702
-0.028924007 0.2656987 0.0066083446 -0.025252558 0.14179915 -0.29956385 0.017759634 0.219015
0.2625459 -0.1210826 -0.24797672 -0.3578111 0.18930145 -0.09693204 0.09273253 1.1298368
-0.22265463 -0.1430253 0.5403217 0.071840696 -0.35633576 -0.12110178 -0.37887618 0.5853798
0.006229291 0.040115 -0.23474705 -0.32906893 -0.20076397 -0.29186353 0.73967797 -0.16561577
0.9417605 0.095296204 -0.29346055 0.2804906 -0.31660742 1.845176 -0.076424316 -0.046388663
00000000: 90ab eabd e012 c43d 7e20 41be 1048 03be
00000010: 807b 1bbe 5316 e2be 1573 eb3e 05b5 a23f
00000020: 679a acbe b0ca 1bbf 5580 903f 55ce 47be
00000030: 0ac2 ab3d 50cf 31bc b812 063e 34d5 0040
00000040: 1e04 e4bd 0914 36bf 6f40 28bf d9be be3d
00000050: dee0 9a3e a282 153e 60c9 e53f 152e 06bf
00000060: f3a8 1840 c5d7 ba3e ab8d e63d 03a5 e1bd
00000070: ce8b 29bf d8d2 0a3d 03fe 023d 3a47 f8be
00000080: 2f1a f23c 44fa 27be cad5 8ebe 3677 78bc
00000090: e1a8 e5bd f73a a23d 38ae 9f3d fc3d 4fbd
000000a0: d5cc 053e bc87 523e c1a3 003e 3849 6e3d
000000b0: 2ba9 49be 6df5 1abe 6137 67be 0ce2 00bd
000000c0: 53b1 1bbe 9c98 a7bd b00e cb3b 07f6 24be
000000d0: fc24 8a3d 707d 45be b46c a2bd 5c92 163e
000000e0: b7ba 91bc 743a 513d 254d aebe e0c7 84bd
000000f0: 73c9 b0bd a73c a839 170b 15be 362d 513e
00000100: 5e24 b4be f244 15be b80c 143e b208 ca3d
00000110: a200 bbbe 1994 6e3c 291c 2ebe e0d6 e6be
00000120: f347 813c 21ae 093d cfa8 01bf f478 7cbd
00000130: 81a0 f03d 467b f23d fd8f 003e c86b 54bd
00000140: 3fcc e8be 471c 453e 7805 143e c675 32be
00000150: 9fca 05be 307d e4bc 864b 96be 2a06 12be
00000160: 9363 20be 272d 34be 29ab a2bd 3f1f c6be
00000170: 08b8 f8bd 7335 eabe bdbf 0e3c c0d8 36bd
00000180: f86c 433e f03c a63d 8556 eabd 936f c1be
00000190: 6f3b 513f 9175 d5bd e63f d93e 466f 033f
000001a0: 6046 c33d 5fa5 dbbe 6b1e 4d3e a751 84be
000001b0: 8448 ae3d 66a6 cfbd 2996 4e3e ac2f 9a3e
000001c0: fecd 823f 1124 4abe 73f5 9a3d 3ed2 e83d
000001d0: 1a82 64bd 6ff5 3c3d 60fc 4f3e ac36 5dbd
000001e0: 101e a63e 1d82 2fbe 75cc 8c3c 1540 793f
000001f0: de78 8fbe f5fc c83e 1c84 06be c1b6 a3bd
00000200: 674b 12bd 0ec3 debd c2cb 30ba 57a0 78be
00000210: 3378 3e3b 054d 4e3d 5b17 71be 13c5 b3bd
00000220: 6484 abbd 0e6f c73b 0229 1bbc 8294 a33d
00000230: 0809 c6bd e77d b0bd c484 8ebe af87 cfbd
00000240: 10d4 a5bc 96c0 9e3c 0dd0 8f3d 4c33 663d
00000250: 551a 1f3e c681 bfbd 2917 8ebd a5b0 0dbb
00000260: 64e3 8ebd 7f64 1cbd eb57 8bbe fcce 613d
00000270: 77af 053e 93e6 d83d c86d 8c3d e170 cabd
00000280: 7127 84be a3ed 193e b086 063e 74bf f7bb
00000290: 3376 04bf 3846 abbd 3e80 203c 703c 69bf
000002a0: b201 37be fd33 36be b941 74bf 769b 343c
000002b0: 889c e6ba 3eee d03d c54c 9f3c c62d 63be
000002c0: aeae 38bf 76f3 2fbd be58 8a3d d1f0 733d
000002d0: 994d bb3d ab1b b7bd 4d3d 37bf b4e0 76bd
000002e0: d5f5 2bbf e638 2b3e 1237 a4bd 3c92 2cbf
000002f0: 963f 9e3b a733 4fbf 2bbd 88bd 2ca5 be3c
00000300: b7d8 f03d 552a 093e 1798 1f3e 2a43 133e
00000310: 9181 50be 3ff4 713d a539 35be a14d 39be
00000320: cdc2 7dbd cbdc 153e fe73 f9bd e260 3a3d
00000330: df4e 2c3e 80cf 0ebd 707a 1abe 62c1 4dbe
00000340: bb27 16be b188 b43d a6da 923c 5b63 17be
00000350: f161 233e 4445 e6bd b134 90be 7de1 29bc
00000360: 0af2 ecbc a909 883e d08a d83b 74de cebc
00000370: cc33 113e 6f60 99be a77c 913c 7845 603e
00000380: 6b6c 863e 27fa f7bd 9ced 7dbe 0433 b7be
00000390: 3dd8 413e 4e84 c6bd 8dea bd3d 7e9e 903f
000003a0: 93ff 63be 3975 12be 8652 0a3f 3721 933d
000003b0: a471 b6be 3604 f8bd 0ffc c1be 73db 153f
000003c0: 151f cc3b a04f 243d 8861 70be b97b a8be
000003d0: 1295 4dbe 236f 95be 895b 3d3f 2e97 29be
000003e0: 3717 713f a82a c33d 7640 96be 779c 8f3e
000003f0: 5e1a a2be ba2e ec3f 5a84 9cbd 0a02 3ebd

dense.0.denselayer1.norm2.weight f4 [48]
1.3380768 0.6892088 0.6858028 1.3782909 0.70876235 0.6625898 0.7301879 1.037891
0.8564194 1.3645301 0.9324465 1.1719046 0.6181474 1.0899972 1.2788103 1.0018456
1.2464743 0.70270306 0.67844236 1.5949862 0.84171015 0.57146 0.7961398 0.85994035
0.5778767 0.6528171 1.2461183 1.1399157 1.5605967 1.230989 1.1936839 0.62307143
0.6407752 1.4802952 0.6791539 1.3769403 0.6235623 1.1279069 0.67137563 0.18761936
1.2842586 1.1066859 0.6281931 1.1611259 1.1276373 0.6175364 0.7701076 0.6810752
00000000: 1a46 ab3f fd6f 303f c690 2f3f d66b b03f
00000010: 7371 353f 7c9f 293f 98ed 3a3f 9dd9 843f
00000020: 4d3e 5b3f eca8 ae3f d0b4 6e3f f800 963f
00000030: e83e 1e3f 0785 8b3f 0eb0 a33f 7a3c 803f
00000040: 788c 9f3f 59e4 333f 66ae 2d3f 8228 cc3f
00000050: 517a 573f 344b 123f d1cf 4b3f 0d25 5c3f
00000060: baef 133f 051f 273f ce80 9f3f c2e8 913f
00000070: a2c1 c73f 0c91 9d3f a2ca 983f 9c81 1f3f
00000080: d809 243f 507a bd3f 08dd 2d3f 943f b03f
00000090: c7a1 1f3f 415f 903f 46df 2b3f 4a1f 403e
000000a0: 9662 a43f e2a7 8d3f 43d1 203f c69f 943f
000000b0: 6b56 903f de16 1e3f c625 453f f25a 2e3f

dense.0.denselayer1.norm2.bias f4 [48]
0.24416354 -0.29606286 -0.21722889 0.26434693 -0.33129573 -0.22681604 -0.28918564 0.15645482
-0.0028383338 0.4412835 -0.3311592 0.07881158 -0.26408747 0.16249174 0.35538942 -0.054222427
0.16962284 -0.23877874 -0.22707015 0.24735446 -0.07599476 -0.2510337 -0.11951654 -0.04477898
-0.55505 -0.35931602 0.023767075 0.19043745 0.26679483 0.1484045 0.2984224 -0.3277955
-0.5246561 0.23348464 -0.29304203 0.1924262 -0.29052994 0.03713508 -0.26506802 -0.4041776
0.19478892 -0.022731116 -0.25137678 0.051728163 -0.12313584 -0.3116579 -0.3290584 -0.13834134
00000000: 0206 7a3e 8d95 97be 4071 5ebe 7b58 873e
00000010: 989f a9be 7742 68be 2410 94be b135 203e
00000020: 5703 3abb e9ef e13e b38d a9be f767 a13d
00000030: 7936 87be 3c64 263e 9af5 b53e 5618 5ebd
00000040: 9cb1 2d3e 6a82 74be 1485 68be 7d4a 7d3e
00000050: 24a3 9bbd 7d87 80be 16c5 f4bd 2a6a 37bd
00000060: c217 0ebf 45f8 b7be 2bb3 c23c 0902 433e
00000070: 5599 883e 59f7 173e d2ca 983e d0d4 a7be
00000080: dd4f 06bf 9916 6f3e 9b09 96be 600b 453e
00000090: 57c0 94be f41a 183d ffb6 87be 5ef0 cebe
000000a0: bf76 473e 9b36 babc 75b4 80be e9e0 533d
000000b0: a52e fcbd a091 9fbe 587a a8be 5aa9 0dbe

dense.0.denselayer1.norm2.running_mean f4 [48]
3.096533 -0.48079842 -0.84099793 0.86762685 -0.4271769 -1.5489447 -0.36886606 1.5636973
-1.890012 -1.3147907 0.3730784 2.1151023 -0.7571107 -1.2617749 -1.3591275 1.3683219
2.2844174 -0.7253714 -0.74216485 0.5376768 -1.4926244 -0.91551435 1.3637305 -1.7179862
0.37919506 -0.9319024 0.7872565 2.0105572 3.0781844 1.9405855 -1.5292385 -0.4826306
1.0578884 2.206919 -0.4894773 2.1515226 -1.3332357 1.8406622 -1.8165501 1.0360658
2.919196 1.5519241 -1.401055 1.8231636 1.7109665 -1.255143 -0.13667585 -2.7823029
00000000: 992d 4640 362b f6be a44b 57bf cb1c 5e3f
00000010: eeb6 dabe d243 c6bf 03dc bcbe 3c27 c83f
00000020: eaeb f1bf 104b a8bf 2204 bf3e d65d 0740
00000030: 02d2 41bf d781 a1bf e4f7 adbf 2c25 af3f
00000040: e533 1240 f1b1 39bf 84fe 3dbf 30a5 093f
00000050: 510e bfbf 265f 6abf b98e ae3f f9e6 dbbf
00000060: db25 c23e 2891 6ebf a489 493f f8ac 0040
00000070: f900 4540 1b65 f83f 16be c3bf 5c1b f7be
00000080: e368 873f 293e 0d40 c59c fabe 8cb2 0940
00000090: 78a7 aabf d29a eb3f b784 e8bf ce9d 843f
000000a0: 1bd4 3a40 73a5 c63f c555 b3bf 6d5d e93f
000000b0: f300 db3f 87a8 a0bf c1f4 0bbe 4011 32c0

dense.0.denselayer1.norm2.running_var f4 [48]
122.23597 1.9645154 8.804939 15.921413 0.8533522 38.77394 1.9899281 46.344078
19.27298 10.417933 9.084201 48.980373 5.7624803 11.722038 12.77698 54.048237
86.74734 10.091501 12.252637 20.179747 13.647812 12.146509 56.75806 14.421165
12.16168 4.9592104 9.275795 83.79673 147.39615 38.37805 12.066695 6.1019588
4.8356075 80.546135 2.8235898 81.06255 26.104227 45.901516 40.019184 16.622948
123.62736 59.024868 22.684528 35.58463 40.664227 19.197645 0.30873936 77.39007
00000000: d178 f442 3e75 fb3f 08e1 0c41 1cbe 7e41
00000010: 4a75 5a3f 8418 1b42 f7b5 fe3f 5660 3942
00000020: 102f 9a41 dbaf 2641 e358 1141 e7eb 4342
00000030: 3d66 b840 788d 3b41 836e 4c41 6531 5842
00000040: a37e ad42 ca76 2141 cd0a 4441 1f70 a141
00000050: 705d 5a41 1a58 4241 4108 6342 18bd 6641
00000060: 3e96 4241 dab1 9e40 a869 1441 ed97 a742
00000070: 6a65 1343 2083 1942 2f11 4141 3f43 c340
00000080: 4cbd 9a40 9f17 a142 b2b5 3440 0720 a242
00000090: 75d5 d041 279b 3742 a513 2042 ccfb 8441
000000a0: 3541 f742 7719 6c42 ea79 b541 a956 0e42
000000b0: 2ba8 2242 c794 9941 1613 9e3e b7c7 9a42

dense.0.denselayer1.conv2.weight f4 [12, 48, 3, 3]
-0.07171223 -0.16242026 0.95735556 -0.06298106 -0.12907982 -0.15013923 0.8446303 -0.15182053
-0.40248322 -0.14418249 -0.052147195 -0.07962439 -0.06950612 0.026242336 -0.08360229 -0.00552184
-0.08534866 -0.0583842 0.053597074 0.068270005 -0.0072715683 0.03384411 -0.028163869 0.09128985
0.10413027 0.010486189 0.067298084 0.1439627 0.13550465 0.96728104 0.23108965 -0.51313365
-0.031836983 0.8957556 0.26212534 -0.09111202 -0.00019061456 -0.032112442 -0.017637659 0.049200285
0.020349836 -0.06207955 -0.005154033 -0.059793547 -0.067531385 -0.07276389 -0.1439109 -0.030012911
0.11139856 0.056676954 0.100114435 -0.008256826 0.0010980429 0.17620794 -0.18852788 -0.06740079
-0.044087388 -0.035532296 -0.063912936 -0.055720653 -0.122223854 -0.060140025 -0.058311783 -0.0044485577
-0.04208359 0.94798803 0.058895875 -0.19575599 0.018848395 0.8845507 -0.027595464 -0.31796902
-0.019810623 0.074140385 -0.21300747 -0.01214856 0.11652894 0.09881883 -0.34989682 0.07454742
0.15821877 -0.06686185 -0.00047797244 -0.19381435 0.013752418 0.058396395 0.03211163 -0.33039895
0.049758255 0.13838932 -0.0050339587 0.3003985 -0.49226838 0.0953365 0.22321264 0.27129024
-0.8510388 0.21590978 0.057522807 -0.08160188 -0.2825142 -0.5685768 -0.2897998 -0.24688815
-0.24270797 -0.7271652 -0.26424715 0.0440393 0.11064075 0.00092178554 0.16494028 0.08680348
-0.17788224 -0.042776555 0.16847323 -0.121628076 -0.19781601 -0.05984779 0.014943305 -0.17948498
0.018365601 0.13398412 0.08080829 -0.38263577 0.03318506 0.110719204 -0.08314652 0.019046264
-0.1984684 -0.018149616 0.06362012 0.07616105 -0.36234295 0.07377166 0.12557164 0.090290375
-0.10582335 -0.48187098 -0.17930476 0.07899205 0.020816691 -0.82765883 -0.0046705566 -0.12159045
-0.10273812 -0.095764495 0.8999003 -0.04385252 -0.14158484 -0.0336628 0.86172575 -0.083535
-0.31073424 -0.19335607 -0.062439594 -0.16407737 -0.049896326 -0.011678351 -0.02642382 -0.032043736
0.02836986 0.059303332 -0.039317302 -0.02523202 -0.11204385 -0.006052752 -0.032459874 0.03120522
-0.10775007 -0.019566212 0.03481376 0.3884452 0.34006995 0.9099074 0.30289418 -0.73190224
-0.20153035 0.7210917 0.38869375 0.0974824 -0.06453088 0.08348332 -0.20364806 0.025136607
0.13463748 0.07260942 -0.35716233 0.100974776 0.11025393 -0.21250018 0.008945492 -0.02379689
-0.050832976 -0.050690506 0.09345331 0.06293554 -0.0108523965 0.04294021 -0.035992384 -0.08701896
-0.55799705 -0.13506408 -0.0682379 -0.07372499 -0.72012866 -0.10373695 -0.07863336 -0.045715317
0.10240566 -0.19180287 -0.020387063 0.12276498 0.09087892 -0.404911 0.08941926 0.10501783
-0.6518912 -0.50833833 0.3078452 -0.48701504 0.48696697 -0.4407508 0.4181976 -0.84995574
-1.2938949 0.25669464 -0.060670514 0.011139086 -0.41568795 -0.059340723 -0.08576193 -0.38509625
-0.05259048 -0.2256114 0.030205447 0.22688268 -0.34701884 -0.052016933 0.3206179 0.2851689
-0.6769018 0.2903632 -0.06849448 -0.13645397 -0.14742398 0.95239913 0.0057449834 -0.13730948
-0.025441976 0.93841153 -0.066054225 -0.3232142 -0.1313985 -0.14688411 0.96977186 -0.018800361
00000000: dddd 92bd 7f51 26be 4115 753f 37fc 80bd
00000010: 802d 04be 19be 19be b139 583f d776 1bbe
00000020: 4812 cebe 93a4 13be 4c98 55bd 1d12 a3bd
00000030: 3a59 8ebd 2bfa d63c ad37 abbd 8df0 b4bb
00000040: 47cb aebd 4524 6fbd 9b88 5b3d 25d1 8b3d
00000050: 5646 eebb 1fa0 0a3d eab7 e6bc 2cf6 ba3d
00000060: 4042 d53d 44ce 2b3c 94d3 893d f56a 133e
00000070: bbc1 0a3e bb9f 773f c4a2 6c3e ba5c 03bf
00000080: 7f67 02bd 3d50 653f 4b35 863e f098 babd
00000090: b5df 47b9 5688 03bd da7c 90bc 3d86 493d
000000a0: b3b4 a63c 2047 7ebd 2ae3 a8bb 14ea 74bd
000000b0: e54d 8abd 3c05 95bd 615d 13be a3dd f5bc
000000c0: ee24 e43d 1826 683d cc08 cd3d a347 07bc
000000d0: 35ec 8f3a db6f 343e 740d 41be 6d09 8abd
000000e0: fa94 34bd 508a 11bd c9e4 82bd 573b 64bd
000000f0: 8050 fabd 6355 76bd 56d8 6ebd 35c5 91bb
00000100: d85f 2cbd 58af 723f cd3c 713d 4274 48be
00000110: f367 9a3c ea71 623f e20f e2bc d6cc a2be
00000120: e349 a2bc ead6 973d a11e 5abe c10a 47bc
00000130: baa6 ee3d 8761 ca3d ad25 b3be 51ac 983d
00000140: 1a04 223e deee 88bd 6098 fab9 4577 46be
00000150: d251 613c 0f31 6f3d 7c87 033d 0d2a a9be
00000160: 50cf 4b3d eeb5 0d3e e8f3 a4bb d5cd 993e
00000170: 9a0a fcbe c83f c33d db91 643e 8ee6 8a3e
00000180: aedd 59bf 7417 5d3e 099d 6b3d e31e a7bd
00000190: b4a5 90be 408e 11bf a460 94be 3fd0 7cbe
000001a0: 7088 78be 8027 3abf 674b 87be 8e62 343d
000001b0: 9e97 e23d fba3 713a 1be6 283e 06c6 b13d
000001c0: c326 36be 7836 2fbd 3f84 2c3e 2418 f9bd
000001d0: 4890 4abe f522 75bd c4d4 743c e9ca 37be
000001e0: 7573 963c 2233 093e d17e a53d d6e8 c3be
000001f0: 0fed 073d c0c0 e23d b948 aabd e906 9c3c
00000200: 4d3b 4bbe 81ae 94bc 444b 823d 53fa 9b3d
00000210: 0485 b9be 9915 973d da95 003e 29ea b83d
00000220: eab9 d8bd cbb7 f6be ab9b 37be 95c6 a13d
00000230: c487 aa3c 73e1 53bf 780b 99bb 6a04 f9bd
00000240: 5d68 d2bd 2d20 c4bd de5f 663f b39e 33bd
00000250: 9efb 10be 01e2 09bd 0f9a 5c3f 6614 abbd
00000260: 8f18 9fbe 22ff 45be a9c0 7fbd e603 28be
00000270: 1760 4cbd 8e56 3fbc c476 d8bc 4b40 03bd
00000280: e967 e83c 0de8 723d 2e0b 21bd 62b3 cebc
00000290: 3f77 e5bd 2a56 c6bb a5f4 04bd 17a2 ff3c
000002a0: 12ac dcbd 5249 a0bc e098 0e3d 4ae2 c63e
000002b0: a61d ae3e b1ef 683f f214 9b3e f25d 3bbf
000002c0: f95d 4ebe 7799 383f de02 c73e daa4 c73d
000002d0: c428 84bd 4ef9 aa3d 1e89 50be 49eb cd3c
000002e0: 68de 093e 3fb4 943d fbdd b6be ddcb ce3d
000002f0: d0cc e13d a699 59be 1d90 123c b2f1 c2bc
00000300: 3d36 50bd d9a0 4fbd 7364 bf3d 59e4 803d
00000310: 40ce 31bc 13e2 2f3d c06c 13bd ff36 b2bd
00000320: e5d8 0ebf 3d4e 0abe 50c0 8bbd 21fd 96bd
00000330: 5a5a 38bf 0a74 d4bd 870a a1bd fc3f 3bbd
00000340: 0fba d13d f967 44be c502 a7bc 356c fb3d
00000350: ba1e ba3d 7f50 cfbe 7221 b73d 9713 d73d
00000360: 57e2 26bf 7622 02bf e39d 9d3e 095a f9be
00000370: bc53 f93e 17aa e1be ff1d d63e b396 59bf
00000380: 599e a5bf 7b6d 833e a581 78bd b780 363c
00000390: 0dd5 d4be 420f 73bd f3a3 afbd 562b c5be
000003a0: 1d69 57bd ad06 67be 6a71 f73c ef53 683e
000003b0: 74ac b1be b50f 55bd 0828 a43e a801 923e
000003c0: 7049 2dbf 7caa 943e d546 8cbd 97ba 0bbe
000003d0: 50f6 16be 6ed0 733f 6a40 bc3b db9a 0cbe
000003e0: b16b d0bc bd3b 703f 7047 87bd 557c a5be
000003f0: 548d 06be ca68 16be f842 783f 3703 9abc

dense.0.denselayer2.norm1.weight f4 [44]
0.6989521 0.5423019 0.36942023 0.60233444 0.35732576 0.7955874 0.1691184 0.9306614
0.10260836 0.6185853 0.95911217 0.6606842 0.78327274 1.0 0.35580757 0.57500017
0.70747596 0.6983001 0.7106303 0.5643954 0.57274425 0.8965204 0.10186446 0.7035995
0.57991827 0.7875603 0.58227944 0.20364136 0.67360497 0.08920348 0.25360283 0.67219776
1.1986071 1.5953234 1.7754647 1.3208476 1.6645064 1.2960173 1.5443017 1.6269281
1.4731809 1.4456607 1.4536501 1.5914158
00000000: 86ee 323f 4cd4 0a3f a624 bd3e 9732 1a3f
00000010: 67f3 b63e 9eab 4b3f 602d 2d3e d33f 6e3f
00000020: 5524 d23d 9b5b 1e3f 6088 753f 9a22 293f
00000030: 9084 483f 0000 803f 692c b63e 3633 133f
00000040: 251d 353f ccc3 323f deeb 353f 387c 103f
00000050: 5e9f 123f 5c82 653f 509e d03d 191f 343f
00000060: 8675 143f 8d9d 493f 4410 153f 5c87 503e
00000070: 6071 2c3f 50b0 b63d 3bd8 813e 2715 2c3f
00000080: f56b 993f 8f33 cc3f 6d42 e33f 8911 a93f
00000090: 8c0e d53f e5e3 a53f aeab c53f 2e3f d03f
000000a0: 3191 bc3f 690b b93f 3511 ba3f 83b3 cb3f

dense.0.denselayer2.norm1.bias f4 [44]
-0.29963154 -0.44540432 -0.38540226 -0.15179335 -0.70370424 -0.25255194 -0.57435405 0.20260815
-0.8140665 -0.32848203 0.19555484 -0.3223414 -0.16900401 0.0 -0.3939971 -0.13719507
-0.23340023 -0.3143048 -0.28953955 -0.1706312 -0.40143067 0.04742293 -0.745278 -0.31819925
-0.22536512 0.04631989 -0.09170966 -0.8007355 -0.30867535 -0.52969086 -0.5502353 -0.33682936
0.5847 0.7607295 0.59574634 0.27881393 -0.1379451 1.1060401 0.5140048 1.0683157
-0.4957397 1.0550869 -0.720917 0.04335941
00000000: 4e69 99be 090c e4be 7253 c5be b76f 1bbe
00000010: f625 34bf 7d4e 81be de08 13bf 8378 4f3e
00000020: aa66 50bf cc2e a8be 873f 483e ef09 a5be
00000030: 630f 2dbe 0000 0000 fdb9 c9be dd7c 0cbe
00000040: 7800 6fbe 8fec a0be 873e 94be f2b9 2ebe
00000050: 5288 cdbe 8c3e 423d 8aca 3ebf 03eb a2be
00000060: 1dc6 66be edb9 3d3d 46d2 bbbd 00fd 4cbf
00000070: b20a 9ebe d299 07bf 38dc 0cbf e674 acbe
00000080: e6ae 153f 2bbf 423f d582 183f b3c0 8e3e
00000090: 7b41 0dbe b992 8d3f d295 033f 92be 883f
000000a0: 98d1 fdbe 160d 873f 048e 38bf a399 313d

dense.0.denselayer2.norm1.running_mean f4 [44]
6e-45 6e-45 1.5987178 3.0593154 0.03695279 0.18562672 0.7095471 0.5492713
0.748884 4.3267326 0.10889361 0.041003216 0.5696642 0.0 1.3693163 0.16293855
0.029867848 0.7187048 3.1942234 0.5755184 7.4990025 0.7616032 1.1133935 3.343773
0.67007196 2.014466 1.5113348 6e-45 3.663428 0.9058076 0.5980726 4.1991153
-1.300108 -2.7750738 -3.2486987 -3.7645452 -8.419996 0.39336017 -4.7206655 -2.860992
-11.787499 -0.29268965 -17.927622 -3.471769
00000000: 0400 0000 0400 0000 c9a2 cc3f d3cb 4340
00000010: cf5b 173d ee14 3e3e e1a4 353f 0b9d 0c3f
00000020: ddb6 3f3f 9874 8a40 9d03 df3d fdf2 273d
00000030: 83d5 113f 0000 0000 c245 af3f 5dd9 263e
00000040: 6bad f43c 0afd 373f 286e 4c40 2d55 133f
00000050: d4f7 ef40 6df8 423f ae83 8e3f 6000 5640
00000060: d689 2b3f 03ed 0040 6b73 c13f 0400 0000
00000070: 9b75 6a40 02e3 673f 491b 193f 275f 8640
00000080: f069 a6bf cf9a 31c0 aeea 4fc0 4fee 70c0
00000090: 4eb8 06c1 8166 c93e b10f 97c0 7e1a 37c0
000000a0: 9999 3cc1 6bdb 95be c56b 8fc1 7731 5ec0

dense.0.denselayer2.norm1.running_var f4 [44]
6e-45 6e-45 0.72349566 0.29171237 0.0913007 0.002315707 2.1578088 4.950331
0.45087224 0.925944 0.441597 0.11996965 1.8499134 6e-45 0.685834 0.9751717
0.059536565 0.03361359 0.5061251 7.4974937 2.9042778 7.937832 0.7411037 0.5873484
2.506953 0.21621072 0.9659421 6e-45 0.6700905 0.5067075 1.227103 0.8704088
538.083 680.2729 853.90497 436.69553 781.4585 536.3638 701.86646 714.2379
638.6991 639.8546 776.71796 766.2306
00000000: 0400 0000 0400 0000 0337 393f 535b 953e
00000010: ddfb ba3d 1ec3 173b 8a19 0a40 1d69 9e40
00000020: bad8 e63e aa0a 6d3f 0119 e23e a6b2 f53d
00000030: f6c9 ec3f 0400 0000 d192 2f3f daa4 793f
00000040: 9ddc 733d 67ae 093d 6a91 013f 78eb ef40
00000050: b0df 3940 b802 fe40 f9b8 3d3f 775c 163f
00000060: eb71 2040 5866 5d3e fb47 773f 0400 0000
00000070: 0d8b 2b3f 95b7 013f b611 9d3f 1cd3 5e3f
00000080: 5085 0644 7711 2a44 eb79 5544 0759 da43
00000090: 585d 4344 4817 0644 7477 2f44 3a8f 3244
000000a0: beac 1f44 b2f6 1f44 f32d 4244 c28e 3f44

dense.0.denselayer2.conv1.weight f4 [48, 44, 1, 1]
0.27327093 0.13723509 -0.06747056 -0.20281783 0.47059402 -0.13482179 0.49556983 0.63125813
-0.018172394 -0.14116995 0.65197754 -0.023845026 -0.14384994 -0.10706674 0.23794617 0.5306393
0.5904383 -0.18593304 -0.13765064 0.10381887 -0.30757785 -0.15251634 0.31808764 -0.04296337
0.7255383 -0.046730258 0.087274194 0.5051397 -0.25554317 0.6709403 0.04461365 -0.17586426
-0.14873844 0.52660537 -0.05946108 0.43943855 0.013349694 0.35071877 0.271108 0.4375819
-0.3696856 0.43866843 0.4444259 0.49169654 -0.067912 0.014921714 0.19897889 0.40263417
0.010028025 0.074370995 0.14360404 -0.085692994 0.2836005 -0.069616124 -0.21549825 0.30905062
0.22725268 -0.077417046 0.16715927 -0.058976065 -0.03994788 0.16325185 0.1836137 0.43104857
0.4309509 0.21515907 -0.08518482 0.06702441 -0.2016015 0.0715435 0.4026222 0.361314
0.09476324 0.10258743 0.28683466 0.011689768 -0.07595353 0.05494887 -0.24124578 -1.2166457
0.28166014 -0.85392857 -0.10221507 -0.5198464 0.07657997 -0.59827805 -0.3319419 0.5480853
-0.07802665 0.08374383 -0.26633334 -0.6815092 0.20985544 0.40316835 -0.2989113 -0.49164507
-0.35637838 -0.106115855 -0.45440742 -0.7984403 -0.3397051 0.03115867 -0.11341883 -0.48164135
-0.0657662 0.29199636 0.28775597 -0.22970468 0.2248124 -0.40325698 -0.26581132 0.04920409
-0.26748684 -1.0760121 -0.3530391 -0.09327583 0.011012089 -0.43764523 -0.467949 0.16574909
-0.83361125 0.4981295 0.56198466 -0.278886 -0.15864864 -0.2753394 0.18675485 -0.20535603
-0.9576713 0.31900615 0.41940722 0.00389607 0.0017410556 0.014388469 0.28657988 -1.1355278
-0.048835065 -0.2838459 0.6087527 0.5002263 -1.0292487 -0.013922734 0.43192366 -1.0722567
0.40006068 0.012954056 0.44707412 0.36623105 0.090037845 -0.04443994 -0.031394735 0.42743948
-0.041164815 0.1891164 0.034516983 -0.111481614 0.41062403 0.24996802 0.5050273 -0.10090282
0.08492756 0.17934908 0.084828325 -0.0041146744 0.17067635 0.454077 0.1017723 -0.38808182
-0.036944766 -0.9162178 -0.21043965 -0.7772963 0.12359118 0.3084834 0.21263966 0.2234187
0.05406633 -0.04395372 -0.4078316 -0.57136214 -0.22389033 0.247872 -0.6722739 -0.42357987
-0.5515467 0.26692617 -0.33766076 -0.5343781 -0.55687004 -0.0030114949 -0.5137046 -0.5667016
-0.48460189 0.08946086 0.25112528 -0.5026248 -0.021367215 -0.5411165 -0.5404352 0.11030791
-0.5371943 -0.3530128 -0.6122489 -0.21352395 0.05971302 -0.4604091 -0.52523404 0.18260035
0.12531215 0.31634352 -0.23766723 0.24874505 -0.055379633 0.05143307 0.0633398 -0.46724364
0.24750784 -0.6565858 -0.7096607 -0.78679055 -0.045701005 -0.116217405 -0.26070628 -0.29480374
-0.12680422 0.40080443 -0.25594872 -0.3235669 -0.30040058 0.23993126 -0.3493172 -0.22938682
-0.32378495 0.11208293 -0.13971125 -0.36711198 -0.1512032 0.0077296677 0.13382892 -0.41796604
0.41321182 -0.29771993 -0.24616024 0.103362076 -0.18081747 0.14283128 -0.33726722 -0.028588092
0.1000677 -0.16341913 -0.25043607 0.26518318 -0.046634197 -0.528334 -0.9584037 -0.013461927
00000000: 2bea 8b3e 5b87 0c3e 012e 8abd 7aaf 4fbe
00000010: b3f1 f03e b90e 0abe 54bb fd3e 229a 213f
00000020: 46de 94bc db8e 10be 00e8 263f a556 c3bc
00000030: 664d 13be cf45 dbbd 29a8 733e fad7 073f
00000040: f726 173f 3b65 3ebe 4af4 0cbe fd9e d43d
00000050: d87a 9dbe 3e2d 1cbe 62dc a23e 5cfa 2fbd
00000060: e1bc 393f 3a68 3fbd d0bc b23d d650 013f
00000070: 8ed6 82be bec2 2b3f cdbc 363d c315 34be
00000080: e44e 18be 9ccf 063f 768d 73bd 17fe e03e
00000090: adb8 5a3c 6991 b33e abce 8a3e bc0a e03e
000000a0: 6e47 bdbe 2699 e03e cb8b e33e a6bf fb3e
000000b0: 7215 8bbd 347a 743c 1fc1 4b3e 1126 ce3e
000000c0: 964c 243c d24f 983d f00c 133e cf7f afbd
000000d0: 1634 913e e692 8ebd 93ab 5cbe e23b 9e3e
000000e0: edb4 683e d48c 9ebd cd2b 2b3e e390 71bd
000000f0: 63a0 23bd 7e2b 273e 3b05 3c3e 66b2 dc3e
00000100: 99a5 dc3e a952 5c3e 6175 aebd 1844 893d
00000110: a070 4ebe 6685 923d 7f24 ce3e 26fe b83e
00000120: 3b13 c23d 5c19 d23d fedb 923e 7186 3f3c
00000130: 868d 9bbd 1112 613d 2209 77be 0cbb 9bbf
00000140: c235 903e 109b 5abf 2256 d1bd a714 05bf
00000150: f6d5 9c3d c028 19bf 4af4 a9be 514f 0c3f
00000160: 70cc 9fbd e381 ab3d d85c 88be 6377 2ebf
00000170: 58e4 563e 156c ce3e e70a 99be e7b8 fbbe
00000180: 3a77 b6be 4553 d9bd 17a8 e8be 9566 4cbf
00000190: d4ed adbe 7840 ff3c 2248 e8bd b299 f6be
000001a0: 6eb0 86bd 8c80 953e c054 933e b437 6bbe
000001b0: 3935 663e b377 cebe 6c18 88be 3a8a 493d
000001c0: 09f4 88be c4ba 89bf 8ac1 b4be 6607 bfbd
000001d0: 0d6c 343c 0913 e0be 0397 efbe 21ba 293e
000001e0: 8c67 55bf d40a ff3e 3ade 0f3f 25ca 8ebe
000001f0: ca74 22be 49f9 8cbe aa3c 3f3e da48 52be
00000200: f229 75bf c654 a33e 8bbc d63e 3555 7f3b
00000210: 2234 e43a 9dbd 6b3c 99ba 923e fa58 91bf
00000220: 4707 48bd 4054 91be 38d7 1b3f d50e 003f
00000230: 6cbe 83bf 2e1c 64bc 1925 dd3e b53f 89bf
00000240: c1d4 cc3e 403d 543c e6e6 e43e a382 bb3e
00000250: c365 b83d a806 36bd c497 00bd 59d9 da3e
00000260: 709c 28bd bba7 413e ae61 0d3d 7950 e4bd
00000270: 503d d23e 9ef7 7f3e 7849 013f 23a6 cebd
00000280: 80ee ad3d 49a7 373e 79ba ad3d 64d4 86bb
00000290: c8c5 2e3e c87c e83e ff6d d03d a9b2 c6be
000002a0: 6553 17bd 408d 6abf 7e7d 57be e4fc 46bf
000002b0: 5f1d fd3d 89f1 9d3e 36be 593e dfc7 643e
000002c0: a874 5d3d d108 34bd 4ecf d0be ca44 12bf
000002d0: 8243 65be 28d2 7d3e 241a 2cbf 76df d8be
000002e0: 2a32 0dbf 8caa 883e dfe1 acbe 01cd 08bf
000002f0: 098f 0ebf 805c 45bb 2582 03bf 5b13 11bf
00000300: bd1d f8be 4137 b73d 7e93 803e 05ac 00bf
00000310: 4c0a afbc 9c86 0abf f659 0abf 1de9 e13d
00000320: 9185 09bf 18be b4be 58bc 1cbf 06a6 5abe
00000330: a495 743d beba ebbe bd75 06bf 96fb 3a3e
00000340: d451 003e c7f7 a13e 0a5f 73be 06b7 7e3e
00000350: c1d5 62bd 7cab 523d 4cb8 813d 8f3a efbe
00000360: b272 7d3e 0216 28bf 53ac 35bf 1b6b 49bf
00000370: fa30 3bbd 6403 eebd 4b7b 85be 84f0 96be
00000380: f7d8 01be 3d36 cd3e b60b 83be 90aa a5be
00000390: 1bce 99be 8ab0 753e b4d9 b2be 61e4 6abe
000003a0: 24c7 a5be bc8b e53d 7710 0fbe 1af6 bbbe
000003b0: 03d5 1abe 2749 fd3b 730a 093e a5ff d5be
000003c0: 8090 d33e bf6e 98be 6e11 7cbe 7faf d33d
000003d0: 3728 39be 5d42 123e 4aae acbe 9331 eabc
000003e0: 4bf0 cc3d 5857 27be 2839 80be 17c6 873e
000003f0: 8003 3fbd e640 07bf f259 75bf 6a8f 5cbc

dense.0.denselayer2.norm2.weight f4 [48]
0.90914166 1.1890994 0.8874718 0.6701673 0.84873164 0.8995028 0.8563985 0.78739035
0.69804436 1.0338804 1.1013582 1.0919573 1.464678 0.7440282 0.7273543 0.9015418
1.5503283 1.1520009 0.93926096 0.7786074 0.94856894 1.3108444 1.370329 1.1224968
0.8926176 1.6493403 1.1394541 1.4085099 0.6011714 0.60939646 0.89961284 1.2425303
0.803307 1.0930701 0.9784228 0.99945265 1.2139333 0.7471966 0.97758365 1.244859
0.7543918 1.0386088 1.1541007 0.9218263 1.1464201 0.90427417 1.08248 0.72517717
00000000: 82bd 683f 6934 983f 5a31 633f 1690 2b3f
00000010: 7a46 593f d145 663f ef3c 5b3f 6a92 493f
00000020: 09b3 323f 3156 843f 4ef9 8c3f 42c5 8b3f
00000030: 927a bb3f a278 3e3f e433 3a3f 72cb 663f
00000040: 2871 c63f c474 933f 6873 703f d152 473f
00000050: 6ad5 723f c0c9 a73f f166 af3f faad 8f3f
00000060: 9682 643f 951d d33f a2d9 913f 0d4a b43f
00000070: 5ee6 193f 6801 1c3f 074d 663f 3c0b 9f3f
00000080: 87a5 4d3f b9e9 8b3f eb79 7a3f 21dc 7f3f
00000090: 2b62 9b3f 4748 3f3f ec42 7a3f 8a57 9f3f
000000a0: d21f 413f 22f1 843f 92b9 933f cffc 6b3f
000000b0: e5bd 923f 837e 673f b48e 8a3f 36a5 393f

dense.0.denselayer2.norm2.bias f4 [48]
-0.86707467 -0.33035588 0.013370491 -0.94997996 0.027511835 0.021456214 -0.6059447 -0.42046395
0.049590424 -0.037065785 -0.3181914 -0.19164346 -0.63353884 -1.026431 -0.3127733 -0.34625
-0.5226257 -0.12274282 -0.5183138 -0.23895381 -1.5884852 -0.098485194 -0.66829675 -0.11360117
-0.018533504 -0.17365211 -0.44809958 -0.50542104 -0.14010738 -0.8142598 -0.0884533 -1.2299405
-0.33165428 -0.7005512 -0.26063082 -0.2931802 -0.59132075 0.21818893 -0.16383235 -0.5355962
-0.3790636 -0.6467875 -1.0554808 -0.19496375 0.2577425 0.039449137 -0.9429571 -1.5109706
00000000: 9bf8 5dbf 6824 a9be e70f 5b3c e331 73bf
00000010: 8060 e13c f1c4 af3c 311f 1bbf 0d47 d7be
00000020: 541f 4b3d 4bd2 17bd fce9 a2be 2f3e 44be
00000030: 9a2f 22bf 1762 83bf d223 a0be ae47 b1be
00000040: ccca 05bf 9660 fbbd 37b0 04bf 4fb0 74be
00000050: 7c53 cbbf 9bb2 c9bd 7f15 2bbf bba7 e8bd
00000060: 93d3 97bc dcd1 31be 4f6d e5be 4663 01bf
00000070: 4f78 0fbe 5573 50bf 0127 b5bd b16e 9dbf
00000080: 97ce a9be 5357 33bf 6771 85be b71b 96be
00000090: cc60 17bf eb6c 5f3e abc3 27be d51c 09bf
000000a0: a014 c2be de93 25bf ff19 87bf 94a4 47be
000000b0: d3f6 833e 6b95 213d a365 71bf 7c67 c1bf

dense.0.denselayer2.norm2.running_mean f4 [48]
2.9371293 -2.9881463 -0.7578657 -0.9103848 -2.1081154 -2.989561 0.4852391 -4.223086
-1.2898849 0.13595906 2.2554152 2.433263 0.6949774 -0.5474376 -1.3018396 1.9198482
0.8270258 2.7095346 2.2664883 -3.6650224 -2.5615728 -4.7973638 1.2566519 -0.6117183
0.7131883 0.41655695 0.6302798 -3.2936602 -0.5040829 -0.4384044 3.0130017 -0.95721954
1.1988282 0.45656088 -2.9056542 -0.99850166 -0.756228 -2.2313154 -1.1511505 0.7717714
0.64342225 -2.3760018 -1.0424181 -4.9022756 1.8966738 2.0929544 -0.7497145 0.17191851
00000000: edf9 3b40 ca3d 3fc0 7d03 42bf fa0e 69bf
00000010: 5deb 06c0 f854 3fc0 4271 f83e 8523 87c0
00000020: f31a a5bf da38 0b3e b958 1040 95ba 1b40
00000030: 0aea 313f df24 0cbf aea2 a6bf 96bd f53f
00000040: f6b7 533f 0469 2d40 250e 1140 ba8f 6ac0
00000050: cff0 23c0 0184 99c0 f8d9 a03f 9299 1cbf
00000060: 8293 363f f446 d53e 045a 213f 54cb 52c0
00000070: 940b 01bf 8b76 e0be 05d5 4040 570c 75bf
00000080: 3473 993f 59c2 e93e 3df6 39c0 ce9d 7fbf
00000090: 2998 41bf dfcd 0ec0 e658 93bf cf92 453f
000000a0: 52b7 243f 6a10 18c0 f56d 85bf 71df 9cc0
000000b0: 35c6 f23f f7f2 0540 4aed 3fbf 680b 303e

dense.0.denselayer2.norm2.running_var f4 [48]
8.889102 7.435039 8.55481 6.5409493 8.570578 4.463673 5.6914783 7.3530884
4.7095137 7.2536254 7.2202535 7.372952 17.581821 8.193607 2.6816223 17.430603
21.747469 8.89267 6.397189 5.5641937 9.78707 11.766974 18.420403 7.997091
8.113173 9.516542 10.702301 12.412053 3.7789457 6.550124 6.212941 8.6514225
2.5605462 9.091506 9.85297 8.231435 12.806277 12.598984 7.635119 14.754966
8.9606085 8.053955 5.161221 6.6723795 4.9569592 9.962084 9.001149 6.4554844
00000000: c339 0e41 d7eb ed40 80e0 0841 754f d140
00000010: 1621 0941 69d6 8e40 9720 b640 804c eb40
00000020: 56b4 9640 b31d e840 510c e740 39ef eb40
00000030: 92a7 8c41 0419 0341 b39f 2b40 e071 8b41
00000040: d1fa ad41 6048 0e41 c6b5 cc40 e00d b240
00000050: d797 1c41 8745 3c41 fc5c 9341 2be8 ff40
00000060: 8ecf 0141 c243 1841 a03c 2b41 c597 4641
00000070: 3fda 7140 9e9a d140 6ad0 c640 3a6c 0a41
00000080: fddf 2340 cf76 1141 c4a5 1d41 f5b3 0341
00000090: 83e6 4c41 7095 4941 e552 f440 5714 6c41
000000a0: a75e 0f41 00dd 0041 b928 a540 2284 d540
000000b0: 699f 9e40 b264 1f41 b504 1041 5493 ce40

dense.0.denselayer2.conv2.weight f4 [12, 48, 3, 3]
-0.10078722 -0.29749522 0.091415375 -0.30737138 -0.11329102 -0.23499604 -0.044709343 -0.19814739
-0.35883933 0.42338687 -0.4133159 -0.07712443 -0.34456706 -0.04293964 -0.6360249 -0.027980579
-0.6317598 0.3077618 -0.105754994 0.36988455 0.62522775 0.3211684 0.73389864 0.13732406
0.47039342 -0.09367872 -0.2975243 -0.66379875 -0.08965731 0.7851444 -0.109387204 -0.42192194
0.2744942 0.8456044 0.0049451506 -0.65408254 -0.018358303 0.14165932 0.29553297 0.027975578
-0.89498013 0.33380088 0.31926435 0.307097 0.27191344 -0.07523048 -0.079214744 -0.10533961
0.028810818 0.18255068 0.29242435 -0.15647998 0.06778337 -0.0037145503 0.834519 0.34355992
0.23365007 0.20289896 0.45664248 0.021919884 0.028526148 0.15899 0.5185866 0.13756853
-0.14348818 -0.4840422 -0.24420102 1.1967053 0.3452469 -0.44448796 0.27375937 0.66638017
-0.25932452 -0.11857736 -0.28274587 -0.1884064 -0.58100533 0.10411724 -0.5826246 -0.06915649
-0.63630533 -0.7549371 -0.12695308 -0.19279912 -0.057554424 0.14882423 -0.17015755 -0.020891858
-0.11533076 -0.43789646 0.12926252 -0.27484533 -0.21443678 0.21037342 0.4638965 0.059578836
-0.23298447 0.2543537 0.21158862 0.04092304 -0.07139955 -0.11853349 -0.029702391 0.52656364
-0.1333279 -0.10429078 -0.04581261 0.13275874 -0.7832645 -0.33940554 0.36879957 -0.29596925
0.016630895 -0.29882926 0.3744068 -0.27078086 -0.5636162 -0.7213937 0.09121566 0.33214918
0.38926247 -0.13894479 0.12566282 0.27582923 0.07793356 -0.16842584 -0.036542147 0.19079393
0.10112248 -0.1948041 -0.031158006 -0.46750918 -0.06164183 -0.22019012 0.051739126 0.5334824
0.06549496 -0.7121807 0.17608556 -0.3042932 0.023069602 -0.91303694 0.07943224 0.6212045
-0.72657204 -0.13491923 0.40927735 -0.1890358 0.09893668 -0.26951206 0.4129742 -0.14758323
-0.58057827 -0.04369596 0.043004725 0.027019992 -0.07890643 0.5550306 -0.21700916 -0.17316388
0.017168973 0.06430811 0.5212161 0.16911162 -0.40676352 0.13249055 -0.01860035 0.15303372
-0.3303742 0.24898559 0.5874915 0.11576367 -0.6132357 -0.07752596 -0.50992596 -1.0557752
-0.18856414 -0.19771956 -0.3856522 -0.1751643 0.09350861 -0.31667826 1.0674977 -0.1590101
-0.2044361 -0.09833111 1.1975168 0.028405959 -0.36584046 -0.06711788 -0.13432568 -0.29383653
-0.15557803 -0.12521273 0.090736665 -0.47523892 0.11625023 -0.16532017 -0.86223894 -0.05887155
0.19281217 -0.12878215 0.063180424 -0.1535972 0.32172513 -0.12613317 -0.71699655 -0.31963325
-0.54547006 -0.2718498 -0.139849 -0.9997074 -0.055267915 -0.26198626 -0.0742539 -0.29826427
-0.02828204 -0.094083875 0.14416343 -0.02278325 0.2896505 -0.29202157 -0.08196635 -0.27446204
-0.31852123 -0.09784293 -0.024091063 -0.6002694 -0.17966631 0.057650454 -0.079199985 -0.3947623
-0.092728525 -0.010885464 0.9821643 0.28893757 -1.0179291 0.24731924 -0.094086125 0.14478546
-0.9147286 0.244784 0.7561905 -0.07126518 -0.30543932 0.96601593 -0.25644645 0.22379255
-0.0019780563 1.02615 -0.074817084 0.13458139 -0.33668482 -0.33964646 -0.31159458 -0.31952545
00000000: 8869 cebd 4b51 98be fc37 bb3d c85f 9dbe
00000010: 1f05 e8bd cda2 70be 2521 37bd 26e7 4abe
00000020: cab9 b7be 2ac6 d83e 249e d3be 6af3 9dbd
00000030: 186b b0be 7ae1 2fbd 87d2 22bf 8737 e5bc
00000040: 03bb 21bf f492 9d3e 1396 d8bd 8261 bd3e
00000050: ed0e 203f 2f70 a43e c8e0 3b3f ae9e 0c3e
00000060: 68d7 f03e a1da bfbd 1b55 98be b7ee 29bf
00000070: 409e b7bd 39ff 483f 6606 e0bd 2706 d8be
00000080: 818a 8c3e 8879 583f ee0a a23b f471 27bf
00000090: 2764 96bc 240f 113e 1950 973e 0a2d e53c
000000a0: 6b1d 65bf f3e7 aa3e 9e76 a33e d13b 9d3e
000000b0: 3d38 8b3e 7012 9abd 573b a2bd 4bbc d7bd
000000c0: aa04 ec3c 91ee 3a3e a5b8 953e 4a3c 20be
000000d0: 02d2 8a3d d06f 73bb 0aa3 553f 16e7 af3e
000000e0: f741 6f3e bfc4 4f3e 0bcd e93e 5491 b33c
000000f0: abaf e93c 46ce 223e 17c2 043f c4de 0c3e
00000100: 91ee 12be 61d4 f7be d50f 7abe a42d 993f
00000110: 34c4 b03e ed93 e3be 302a 8c3e e497 2a3f
00000120: 2fc6 84be b0d8 f2bd 11c4 90be 9bed 40be
00000130: c4bc 14bf 6b3b d53d e326 15bf eba1 8dbd
00000140: e8e4 22bf 8f43 41bf fdff 01be 226d 45be
00000150: 30be 6bbd 6165 183e c83d 2ebe 6725 abbc
00000160: 8932 ecbd f733 e0be 655d 043e 87b8 8cbe
00000170: 5195 5bbe 216c 573e d883 ed3e f008 743d
00000180: 7b93 6ebe a63a 823e b0aa 583e eb9e 273d
00000190: ed39 92bd b0c1 f2bd 6e52 f3bc e0cc 063f
000001a0: 1c87 08be 6896 d5bd 01a6 3bbd e8f1 073e
000001b0: 0684 48bf 90c6 adbe 4cd3 bc3e 4889 97be
000001c0: 843d 883c 2600 99be 40b2 bf3e caa3 8abe
000001d0: 2749 10bf 42ad 38bf 47cf ba3d 750f aa3e
000001e0: 694d c73e 8b47 0ebe c1ad 003e 7d39 8d3e
000001f0: a19b 9f3d d377 2cbe 38ad 15bd 7c5f 433e
00000200: 4e19 cf3d ba7a 47be 133f ffbc 5d5d efbe
00000210: 257c 7cbd 8579 61be 68ec 533d 4d92 083f
00000220: 3922 863d 7951 36bf c64f 343e 51cc 9bbe
00000230: 76fc bc3c cabc 69bf 5fad a23d 4207 1f3f
00000240: a000 3abf 4428 0abe cd8c d13e 9a92 41be
00000250: 509f ca3d 7cfd 89be 5b71 d33e 0f20 17be
00000260: c7a0 14bf 89fa 32bd b925 303d 0859 dd3c
00000270: b299 a1bd 7c16 0e3f a637 5ebe df51 31be
00000280: f2a5 8c3c f8b3 833d 6b6e 053f 992b 2d3e
00000290: 4f43 d0be 9aab 073e c35f 98bc dfb4 1c3e
000002a0: cf26 a9be 14f6 7e3e d865 163f 8115 ed3d
000002b0: 04fd 1cbf eec5 9ebd 828a 02bf a423 87bf
000002c0: f516 41be ff76 4abe 3574 c5be 455e 33be
000002d0: 7181 bf3d a723 a2be c4a3 883f 8bd3 22be
000002e0: b257 51be d261 c9bd 3b48 993f 9db3 e83c
000002f0: 714f bbbe 1975 89bd ac8c 09be be71 96be
00000300: d94f 1fbe c437 00be 25d4 b93d 8452 f3be
00000310: 9a14 ee3d b149 29be b1bb 5cbf 4b23 71bd
00000320: 8e70 453e 78df 03be bd64 813d 9648 1dbe
00000330: 28b9 a43e 0e29 01be 168d 37bf f8a6 a3be
00000340: eda3 0bbf e62f 8bbe 9434 0fbe d3ec 7fbf
00000350: 9c60 62bd 1023 86be 6e12 98bd 18b6 98be
00000360: bdaf e7bc 0caf c0bd 949f 133e f0a3 babc
00000370: 124d 943e da83 95be f9dd a7bd 4a86 8cbe
00000380: 3715 a3be e061 c8bd 9f5a c5bc 41ab 19bf
00000390: 72fa 37be e222 6c3d 9a33 a2bd 491e cabe
000003a0: 74e8 bdbd f258 32bc 1f6f 7b3f a0ef 933e
000003b0: 804b 82bf 4141 7d3e 3ab0 c0bd a442 143e
000003c0: a72b 6abf a8a8 7a3e b395 413f 7bf3 91bd
000003d0: 8b62 9cbe d24c 773f f34c 83be e029 653e
000003e0: 47a2 01bb e258 833f b339 99bd b4cf 093e
000003f0: f461 acbe 24e6 adbe 5389 9fbe d798 a3be

dense.0.denselayer3.norm1.weight f4 [56]
0.74075437 0.28486428 0.82748 0.620929 0.15000941 0.6587086 0.33717626 0.8446472
0.1255944 0.58364815 0.69463116 0.63467586 0.53040296 1.0 0.5597927 0.48877102
0.75720775 0.6775706 0.69204485 0.6305297 0.5915614 0.20909141 0.22578646 0.6937818
0.7255285 0.82448846 0.75596076 0.539366 0.6609184 0.32486337 0.43395695 0.6914451
1.2958775 1.6543574 1.4733328 1.1176229 1.2216103 1.2417159 1.6461263 1.4400425
1.4001343 1.4397672 1.3683397 0.9994487 1.7913139 1.6167067 1.2389959 1.4169109
1.1211162 1.714811 1.1397426 1.0094725 2.034127 1.5966717 1.0125619 1.5016311
00000000: 14a2 3d3f bbd9 913e bbd5 533f 34f5 1e3f
00000010: 119c 193e 20a1 283f 5ea2 ac3e cd3a 583f
00000020: d29b 003e f769 153f 59d3 313f 1e7a 223f
00000030: 7dc8 073f 0000 803f 934e 0f3f 3240 fa3e
00000040: 5ed8 413f 4475 2d3f da29 313f 656a 213f
00000050: 9170 173f 0f1c 563e 9134 673e af9b 313f
00000060: 3cbc 393f ad11 533f a586 413f e413 0a3f
00000070: f331 293f 7e54 a63e 9b2f de3e 8c02 313f
00000080: 50df a53f fcc1 d33f 2b96 bc3f 440e 8f3f
00000090: ba5d 9c3f 8cf0 9e3f 44b4 d23f 5053 b83f
000000a0: 9a37 b33f 4b4a b83f c125 af3f dfdb 7f3f
000000b0: c649 e53f 3ff0 ce3f 6b97 9e3f 565d b53f
000000c0: bc80 8f3f ed7e db3f 16e3 913f 6536 813f
000000d0: 232f 0240 bd5f cc3f a19b 813f 7335 c03f

dense.0.denselayer3.norm1.bias f4 [56]
-0.2669375 -0.7121605 0.12709858 -0.1487344 -0.76845706 -0.34906498 -0.34256005 0.24879162
-0.8185407 -0.31930807 0.09740991 -0.3031426 -0.23392901 0.0 0.18578963 -0.1785065
0.12658672 -0.3289673 -0.32463542 -0.032161497 -0.41564584 -0.5843653 -0.34296417 -0.31889492
0.16109383 0.2595005 0.21304467 -0.35962585 -0.3350098 -0.20509529 -0.3562335 -0.3206238
0.093666635 0.14171565 0.19824074 -0.34009844 -0.11497114 0.40567017 0.060555488 0.10091218
-0.67274183 0.40815055 -0.7518313 -0.072608925 0.05716086 -0.6457926 0.06983744 -0.09252312
0.31311712 -0.08962736 0.05487532 -0.04498404 -0.037957963 -0.15825146 0.15445362 0.05704485
00000000: 08ac 88be 2750 36bf 2126 023e d54d 18be
00000010: 9ab9 44bf a5b8 b2be 0864 afbe 3bc3 7e3e
00000020: e28b 51bf 597c a3be d97e c73d 8235 9bbe
00000030: 168b 6fbe 0000 0000 a33f 3e3e 68ca 36be
00000040: f39f 013e 676e a8be 9d36 a6be c6bb 03bd
00000050: 88cf d4be f798 15bf 0099 afbe 3246 a3be
00000060: c8f5 243e 40dd 843e 6228 5a3e e120 b8be
00000070: 6886 abbe 8004 52be 3d64 b6be cd28 a4be
00000080: 4bd4 bf3d e81d 113e 9fff 4a3e 6221 aebe
00000090: fd75 ebbd 00b4 cf3e 0809 783d 0cab ce3d
000000a0: cf38 2cbf 1cf9 d03e 0478 40bf fdb3 94bd
000000b0: 8221 6a3d aa52 25bf ef06 8f3d c37c bdbd
000000c0: e350 a03e 8d8e b7bd f2c4 603d 2f41 38bd
000000d0: cf79 1bbd ac0c 22be 1729 1e3e dca7 693d

dense.0.denselayer3.norm1.running_mean f4 [56]
6e-45 6e-45 1.5987178 3.0593154 0.03695279 0.18562672 0.7095471 0.5492713
0.748884 4.3267326 0.10889361 0.041003216 0.5696642 0.0 1.3693163 0.16293855
0.029867848 0.7187048 3.1942234 0.5755184 7.4990025 0.7616032 1.1133935 3.343773
0.67007196 2.014466 1.5113348 6e-45 3.663428 0.9058076 0.5980726 4.1991153
-1.300108 -2.7750738 -3.2486987 -3.7645452 -8.419996 0.39336017 -4.7206655 -2.860992
-11.787499 -0.29268965 -17.927622 -3.471769 -2.2776098 -3.6195939 0.47316584 -3.4366314
-2.621061 -2.2208557 -1.9349945 -4.6925488 -5.472238 -2.5101826 -2.2647872 -3.0757258
00000000: 0400 0000 0400 0000 c9a2 cc3f d3cb 4340
00000010: cf5b 173d ee14 3e3e e1a4 353f 0b9d 0c3f
00000020: ddb6 3f3f 9874 8a40 9d03 df3d fdf2 273d
00000030: 83d5 113f 0000 0000 c245 af3f 5dd9 263e
00000040: 6bad f43c 0afd 373f 286e 4c40 2d55 133f
00000050: d4f7 ef40 6df8 423f ae83 8e3f 6000 5640
00000060: d689 2b3f 03ed 0040 6b73 c13f 0400 0000
00000070: 9b75 6a40 02e3 673f 491b 193f 275f 8640
00000080: f069 a6bf cf9a 31c0 aeea 4fc0 4fee 70c0
00000090: 4eb8 06c1 8166 c93e b10f 97c0 7e1a 37c0
000000a0: 9999 3cc1 6bdb 95be c56b 8fc1 7731 5ec0
000000b0: 5cc4 11c0 6da7 67c0 cb42 f23e c5f1 5bc0
000000c0: 77bf 27c0 8022 0ec0 e6ad f7bf 5c29 96c0
000000d0: 931c afc0 d5a6 20c0 46f2 10c0 b1d8 44c0

dense.0.denselayer3.norm1.running_var f4 [56]
6e-45 6e-45 0.72349566 0.29171237 0.0913007 0.002315707 2.1578088 4.950331
0.45087224 0.925944 0.441597 0.11996965 1.8499134 6e-45 0.685834 0.9751717
0.059536565 0.03361359 0.5061251 7.4974937 2.9042778 7.937832 0.7411037 0.5873484
2.506953 0.21621072 0.9659421 6e-45 0.6700905 0.5067075 1.227103 0.8704088
538.083 680.2729 853.90497 436.69553 781.4585 536.3638 701.86646 714.2379
638.6991 639.8546 776.71796 766.2306 210.2112 94.612465 150.90042 166.01903
184.8194 94.37101 117.1304 331.24332 258.0769 67.74196 157.26991 158.74101
00000000: 0400 0000 0400 0000 0337 393f 535b 953e
00000010: ddfb ba3d 1ec3 173b 8a19 0a40 1d69 9e40
00000020: bad8 e63e aa0a 6d3f 0119 e23e a6b2 f53d
00000030: f6c9 ec3f 0400 0000 d192 2f3f daa4 793f
00000040: 9ddc 733d 67ae 093d 6a91 013f 78eb ef40
00000050: b0df 3940 b802 fe40 f9b8 3d3f 775c 163f
00000060: eb71 2040 5866 5d3e fb47 773f 0400 0000
00000070: 0d8b 2b3f 95b7 013f b611 9d3f 1cd3 5e3f
00000080: 5085 0644 7711 2a44 eb79 5544 0759 da43
00000090: 585d 4344 4817 0644 7477 2f44 3a8f 3244
000000a0: beac 1f44 b2f6 1f44 f32d 4244 c28e 3f44
000000b0: 1136 5243 9539 bd42 82e6 1643 df04 2643
000000c0: c4d1 3843 f5bd bc42 c442 ea42 259f a543
000000d0: d809 8143 e27b 8742 1945 1d43 b3bd 1e43
